checkpoints_kfold/fold5_best_model.pth (torch, 228335 bytes, 23 tensors)

conv1.weight f4 [32, 1, 5]
-0.4257206 -0.00381413 0.048155513 0.36481452 -0.022945918 -0.12089866 0.31456912 -0.38748512
0.30221215 -0.29615176 -0.20223272 0.3056875 -0.19841698 -0.06893895 0.28847536 -0.39353392
0.17185618 -0.09204616 -0.3268889 0.31034726 -0.1900977 0.16917548 0.10138538 0.20621014
-0.39066216 0.30410275 -0.35212338 -0.44242212 -0.23934896 0.23592101 -0.27931935 -0.41948822
-0.4740895 -0.25323117 0.09439073 0.09750476 0.18736236 -0.13617867 0.21063244 -0.52139896
0.46003655 -0.079202496 -0.07013763 0.26245236 0.10333498 0.18854482 -0.43066028 -0.3356978
-0.035792187 0.18466671 0.037464462 -0.40909868 -0.010515851 0.36641112 0.12965418 -0.3421967
-0.34718093 -0.3334085 -0.055708937 0.2123828 0.37058982 -0.31591076 0.259971 -0.33947527
-0.073463574 0.2617702 -0.09760475 -0.5718986 -0.1265762 -0.42219132 0.034759328 -0.25588852
0.19831587 -0.4269783 -0.17843036 0.20522434 -0.23435055 0.04724486 -0.45856965 0.2726139
-0.31292075 0.16051437 0.3922219 -0.30304936 0.2645967 -0.10264597 -0.050962284 -0.20680818
-0.1590875 0.04459762 0.12264772 0.2764853 0.26648825 -0.13303803 -0.19857198 0.028556552
-0.39080855 -0.21170884 0.3479769 0.28082198 -0.4718232 -0.09805697 0.07802159 -0.4060012
0.22845939 0.13345452 -0.04363987 -0.4175154 0.072353885 -0.19938353 0.13020831 0.04283809
0.19894211 -0.52200675 -0.28728235 -0.39693627 -0.08128618 -0.20696245 -0.3421851 0.35170847
-0.10692604 -0.3251004 0.21226443 -0.029009094 -0.08848801 0.35759836 0.034358308 -0.08733508
-0.1972053 -0.11947653 0.05374817 0.22599998 -0.2770593 -0.37746325 0.45001918 -0.023611315
0.20870827 0.17147225 0.21193895 -0.0039396156 0.07523476 0.36126533 0.10906225 -0.24533987
-0.45434 -0.44131675 0.14976957 -0.23242195 0.28153676 -0.41704792 -0.5136504 -0.26479915
0.12536384 0.3697688 0.31045058 0.3865011 -0.17987062 0.030341273 0.085883886 -0.18742056
00000000: 0df8 d9be 7cf6 79bb b73e 453d f8c8 ba3e
00000010: 14f9 bbbc b799 f7bd 340f a13e 7364 c6be
00000020: 8dbb 9a3e 34a1 97be 1816 4fbe 1283 9c3e
00000030: d22d 4bbe dd2f 8dbd 0bb3 933e 477d c9be
00000040: 11fb 2f3e b282 bcbd fb5d a7be d6e5 9e3e
00000050: f9a8 42be 563c 2d3e 23a3 cf3d c028 533e
00000060: df04 c8be 5bb3 9b3e 8449 b4be 2785 e2be
00000070: e517 75be 4795 713e f202 8fbe 29c7 d6be
00000080: dcbb f2be 84a7 81be ed4f c13d 93b0 c73d
00000090: ebdb 3f3e 6c72 0bbe 08b0 573e 677a 05bf
000000a0: e989 eb3e eb34 a2bd 51a4 8fbd 2860 863e
000000b0: 4aa1 d33d e511 413e 817f dcbe 95e0 abbe
000000c0: d49a 12bd 4519 3d3e 5674 193d 6275 d1be
000000d0: ad4a 2cbc 3d9a bb3e 11c4 043e 6834 afbe
000000e0: b3c1 b1be 85b4 aabe 0e2f 64bd e07a 593e
000000f0: f3bd bd3e 0ebf a1be eb1a 853e b4cf adbe
00000100: 1274 96bd be06 863e 00e5 c7bd f267 12bf
00000110: 319d 01be 7629 d8be cc5f 0e3d d203 83be
00000120: 5113 4b3e e69c dabe 73b6 36be 5426 523e
00000130: 97f9 6fbe d483 413d a4c9 eabe 0d94 8b3e
00000140: 2637 a0be e15d 243e 4fd1 c83e 4929 9bbe
00000150: 3879 873e 0d38 d2bd d4bd 50bd 86c5 53be
00000160: d5e7 22be feab 363d ba2e fb3d 7b8f 8d3e
00000170: 2671 883e 1f3b 08be 7456 4bbe 6eef e93c
00000180: 0f18 c8be 34ca 58be 072a b23e e6c7 8f3e
00000190: cf92 f1be 18d2 c8bd c9c9 9f3d 64df cfbe
000001a0: 42f1 693e 4da8 083e b8bf 32bd 94c4 d5be
000001b0: 462e 943d 322b 4cbe 5455 053e fe76 2f3d
000001c0: 7bb7 4b3e 3ca2 05bf ac16 93be 3b3b cbbe
000001d0: 5e79 a6bd f7ed 53be e332 afbe 2213 b43e
000001e0: 0afc dabd 8f73 a6be d95b 593e 7ba4 edbc
000001f0: 3439 b5bd 2217 b73e 4cbb 0c3d bcdc b2bd
00000200: 30f0 49be 1cb0 f4bd 0b27 5c3d 8a6c 673e
00000210: b7da 8dbe dd42 c1be ea68 e63e 846c c1bc
00000220: 9fb7 553e 6c96 2f3e 8606 593e e417 81bb
00000230: af14 9a3d c5f7 b83e 075c df3d 603a 7bbe
00000240: 419f e8be 45f4 e1be 325d 193e 0500 6ebe
00000250: 9625 903e 4e87 d5be 987e 03bf c193 87be
00000260: 615f 003e 5652 bd3e 61f3 9e3e 79e3 c53e
00000270: 0130 38be 438e f83c e4e3 af3d 2deb 3fbe

conv1.bias f4 [32]
-0.0009332893 -0.00015740878 -0.00091777643 0.0014640363 -0.004751774 0.002391787 0.0027498603 0.0069073057
-0.0052095763 0.004769745 0.00062559516 0.000521993 -0.0015019771 0.0021541116 -0.0039332747 -0.0022267285
-6.8630485e-05 0.0053966343 -0.0040746625 -0.0043112505 -0.005210162 -0.0006043381 0.0005731699 0.0028790946
0.0035812282 -0.0017306074 -0.0009883924 0.0003500473 0.0067876447 -0.0011353305 -0.004152922 0.0010809832
00000000: fca7 74ba 190e 25b9 ef96 70ba e8e4 bf3a
00000010: c5b4 9bbb 87bf 1c3b 0037 343b ae56 e23b
00000020: 18b5 aabb 854b 9c3b fbfe 233a 5bd6 083a
00000030: fddd c4ba ff2b 0d3b b3e2 80bb 4eee 11bb
00000040: b6ed 8fb8 40d6 b03b bf84 85bb 6445 8dbb
00000050: 02ba aabb 726c 1eba c840 163a 31af 3c3b
00000060: 0ab3 6a3b 8cd5 e2ba f28c 81ba 8e86 b739
00000070: e46a de3b 5fcf 94ba 3c15 88bb c7af 8d3a

bn1.weight f4 [32]
0.9597587 0.90215534 0.896276 0.9666622 0.87142974 1.0104357 1.2912443 0.9419787
0.8634487 0.9750219 0.94800043 1.4112947 0.82017046 1.3903301 1.3068982 0.9840811
0.7725745 1.3580391 0.66508925 0.8656452 1.0512252 1.2444916 1.1339855 0.95017606
0.9010796 0.9222268 0.9559152 0.7802141 0.81780475 1.119361 0.86533 0.8391407
00000000: bfb2 753f a7f3 663f 5872 653f 2d77 773f
00000010: 0516 5f3f f555 813f 7e47 a53f 8425 713f
00000020: f90a 5d3f 099b 793f 28b0 723f 4ea5 b43f
00000030: b1f6 513f 56f6 b13f 7148 a73f bdec 7b3f
00000040: 71c7 453f 3ad4 ad3f 4a43 2a3f ec9a 5d3f
00000050: 8c8e 863f 804b 9f3f 7026 913f bd3e 733f
00000060: 27ad 663f 0e17 6c3f dcb6 743f 1cbc 473f
00000070: a75b 513f 3947 8f3f 4486 5d3f edd1 563f

bn1.bias f4 [32]
0.29754743 0.75224644 -0.30250502 0.29147804 0.4593406 0.2931049 0.2930872 0.48426247
-0.3834297 0.35551313 -0.24872707 0.30076313 0.60832846 0.3062261 0.35391027 0.3009791
-0.42968675 0.32549173 -0.24028 -0.34963295 0.13781787 0.3909138 0.37013778 0.26230007
0.5968894 -0.027328983 -0.15029368 -0.4171825 0.3010026 0.10035607 0.2741294 -0.020191679
00000000: 2358 983e 3993 403f f0e1 9abe 9c3c 953e
00000010: b12e eb3e d811 963e 870f 963e 40f1 f73e
00000020: e650 c4be d105 b63e 4fb2 7ebe a0fd 993e
00000030: 6abb 1b3f abc9 9c3e ba33 b53e ef19 9a3e
00000040: e7ff dbbe daa6 a63e f60b 76be 1703 b3be
00000050: 2120 0d3e db25 c83e b382 bd3e 324c 863e
00000060: becd 183f 08e1 dfbc 96e6 19be f298 d5be
00000070: 031d 9a3e 7c87 cd3d b05a 8c3e 0569 a5bc

bn1.running_mean f4 [32]
-0.0005007295 -0.0027281207 0.000108591186 -0.00026914902 -0.005513711 -0.0026663584 -0.0076193097 0.0049402
0.0013540533 -0.00021838267 0.00062803057 -0.0062710196 -0.0021517524 -0.0044129877 -0.0073473104 -0.0028326008
0.0005720049 0.0022704112 0.00015446712 -0.002527245 -0.0069159074 -0.0043728817 -0.0024173576 -0.0036280158
0.000607947 -0.0024449725 -0.001854992 0.0046724654 0.0063432427 -0.005209731 -0.004050858 0.0040704105
00000000: 6343 03ba 45ca 32bb 73bb e338 921c 8db9
00000010: 5cac b4bb 12be 2ebb 67ab f9bb 67e1 a13b
00000020: 7d7a b13a a7fd 64b9 6ba2 243a 207d cdbb
00000030: 6a04 0dbb d39a 90bb b5c1 f0bb 28a3 39bb
00000040: 99f2 153a 2ecb 143b 74f8 2139 23a0 25bb
00000050: d69e e2bb 644a 8fbb 886c 1ebb 01c4 6dbb
00000060: a25e 1f3a d53b 20bb 3423 f3ba 7b1b 993b
00000070: fada cf3b 64b6 aabb 0fbd 84bb 1461 853b

bn1.running_var f4 [32]
0.00031091605 0.00046736826 0.00025322594 0.0004304556 0.00023928397 0.0005837989 0.0013674634 0.00039549507
0.00046286226 0.00042278896 0.00028987616 0.0007604616 0.00044771325 0.0010253523 0.000484402 0.00038740708
0.00043437598 0.00018483709 0.0002650236 0.0003549443 0.0006453307 0.00033134146 0.00047850632 0.0006592594
0.00020159438 0.00019635395 0.00040009362 0.0002618357 0.0004050243 0.0006837111 0.00060693885 0.00023502515
00000000: 7202 a339 1b09 f539 69c3 8439 c6ae e139
00000010: 4de8 7a39 150a 193a 753c b33a 735a cf39
00000020: 52ac f239 c6a9 dd39 85fa 9739 b759 473a
00000030: 0ebb ea39 1d65 863a 56f7 fd39 e61c cb39
00000040: f5bc e339 d4d0 4139 def2 8a39 d117 ba39
00000050: 692b 293a e6b7 ad39 08e0 fa39 26d2 2c3a
00000060: 1463 5339 5de4 4d39 a8c3 d139 fe46 8939
00000070: 7159 d439 133b 333a fa1a 1f3a 1571 7639

conv2.weight f4 [64, 32, 5]
0.03898549 -0.18217678 -0.10303227 0.07580577 0.11015645 0.11248039 0.088793784 0.046947774
-0.068616785 0.035830934 0.057632796 -0.031297255 0.01120077 -0.061971884 0.10923752 -0.04696692
-0.09246049 0.01725513 -0.065239035 0.013181902 0.14880326 -0.013826446 -0.057518553 0.06597994
-0.025237432 -0.11125687 -0.16223167 -0.0035764885 -0.17440422 -0.17009784 -0.17050044 0.1266713
-0.30237663 -0.09559085 0.1263422 0.08306458 -0.122792415 -0.10104839 0.01829694 0.016474739
0.03936532 -0.07302743 -0.055559598 -0.0106391 0.106063895 -0.079475865 -0.14564961 0.07168403
-0.1615864 -0.10104604 0.008758782 -0.13051845 0.04255661 0.058513723 0.060226098 -0.03904903
0.0373456 -0.16875261 0.005150268 0.13184564 -0.07432108 -0.0041288035 -0.010390312 -0.09692657
-0.009592783 -0.35802642 -0.010607254 -0.013464465 -0.032773014 -0.102811545 0.13362305 -0.092354126
0.08377003 0.038298015 0.09848501 -0.033911765 0.14193606 0.00072994386 0.10047604 0.014030825
0.056659516 0.08440142 0.006186758 -0.018192856 0.030382428 -0.07414641 -0.048662204 -0.35200614
-0.24313855 0.067919664 -0.03174088 0.07709444 -0.101028584 -0.052978985 0.05397376 0.053597793
-0.1750605 -0.03653698 -0.15208447 0.14822392 0.05534844 0.1615937 -0.08901423 -0.03623186
0.09475245 -0.30196324 0.06694106 -0.08948954 -0.09276534 -0.048521463 -0.057027295 -0.068673834
-0.015607848 -0.18427552 0.060462214 0.064539075 -0.017316809 -0.049849045 -0.15719299 0.054241326
0.031458654 -0.01982504 0.10112212 -0.009857675 -0.0797325 -0.082087435 0.02544795 0.10177738
-0.0062305466 -0.011058174 0.01783969 -0.040439323 -0.05673529 -0.015038506 0.09326257 0.035444193
0.031794403 -0.071056716 -0.053919844 0.028176125 -0.044436496 0.075997345 -0.0808977 0.020221094
-0.04667938 0.117024705 -0.032783244 0.017901527 0.019529315 0.15897533 -0.08982152 -0.19370516
-0.001599349 -0.01105157 0.24664648 -0.0875285 -0.04289971 -0.04410447 0.101016305 0.077076875
0.062114216 0.010288129 0.013690399 -0.044318102 0.013087262 0.0002203169 0.05831768 -0.092715114
0.06986323 -0.00094687496 0.05332591 -0.008203242 0.045527615 -0.006834147 0.08182598 -0.083877325
0.00085923943 -0.04785712 0.006466813 0.008854296 0.054969255 -0.15748838 -0.027913503 -0.039189383
-0.10260418 -0.05369367 -0.007937676 -0.049766023 0.05309365 0.012144257 0.14866914 0.24642682
0.2556749 0.1482928 -0.016576929 0.09173844 -0.07796297 -0.11447458 0.06087403 -0.012993881
0.24289204 0.040881492 0.035661012 0.02132218 -0.023506597 -0.215479 0.044294808 0.08495621
0.09302744 0.04463101 -0.08089034 -0.08193348 0.12062705 -0.13727671 -0.103443064 -0.1166246
0.07962916 0.23128179 0.011440086 -0.08254918 0.11240519 0.14533472 0.031064821 0.014513093
0.106325135 0.15635835 0.12988375 0.0032931766 0.15363213 0.07694537 -0.03392163 -0.046845518
-0.0152052445 0.08116731 0.2710391 0.029639544 0.04077977 0.06369589 0.093075484 -0.059618883
0.019107537 0.11826151 0.055601947 0.08072168 -0.015474348 0.30448756 0.2953879 0.2490604
0.18145823 0.15459265 0.016748115 0.05235185 0.102765515 -0.013313677 0.031615227 -0.071148105
00000000: 40af 1f3d 8d8c 3abe 9502 d3bd 0e40 9b3d
00000010: b499 e13d 1e5c e63d 84d9 b53d 4f4c 403d
00000020: f586 8cbd 75c3 123d 5e10 6c3d 8d31 00bd
00000030: 6f83 373c 3bd6 7dbd ecb7 df3d 6360 40bd
00000040: ed5b bdbd a15a 8d3c 0b9c 85bd e7f8 573c
00000050: e25f 183e 5188 62bc 9398 6bbd 7e20 873d
00000060: bbbe cebc a4da e3bd 0f20 26be 8563 6abb
00000070: 0597 32be 212e 2ebe ab97 2ebe 1fb6 013e
00000080: 1cd1 9abe 23c5 c3bd da5f 013e c31d aa3d
00000090: 977a fbbd 75f2 cebd 77e3 953c 08f6 863c
000000a0: 883d 213d 688f 95bd 7692 63bd 9f4f 2ebc
000000b0: 0738 d93d 3ec4 a2bd 2c25 15be 14cf 923d
000000c0: e876 25be 3af1 cebd ff80 0f3c a1a6 05be
000000d0: d74f 2e3d 16ac 6f3d a4af 763d e0f1 1fbd
000000e0: b3f7 183d 7ccd 2cbe 94c3 a83b 8b02 073e
000000f0: a735 98bd ea4a 87bb 213c 2abc 7081 c6bd
00000100: 0c2b 1dbc 3d4f b7be 0cca 2dbc 0f9a 5cbc
00000110: ff3c 06bd dc8e d2bd 7bd4 083e 2924 bdbd
00000120: 9f8f ab3d 61de 1c3d 82b2 c93d 10e7 0abd
00000130: b057 113e b459 3f3a 62c6 cd3d 8ce1 653c
00000140: cf13 683d a7da ac3d 4aba ca3b 2f09 95bc
00000150: 92e4 f83c 13da 97bd 0552 47bd 263a b4be
00000160: 50f9 78be 7719 8b3d ba02 02bd b1e3 9d3d
00000170: 13e8 cebd 7e00 59bd 9713 5d3d 5c89 5b3d
00000180: 0f43 33be cda7 15bd 08bc 1bbe 03c8 173e
00000190: 0cb5 623d d278 253e 184d b6bd dc67 14bd
000001a0: 930d c23d ed9a 9abe 6518 893d 4b46 b7bd
000001b0: c1fb bdbd 71be 46bd 7495 69bd dea4 8cbd
000001c0: 0fb8 7fbc b9b2 3cbe 3aa7 773d 102d 843d
000001d0: fbdb 8dbc 832e 4cbd 33f7 20be 272c 5e3d
000001e0: cada 003d 1f68 a2bc 1d19 cf3d 1682 21bc
000001f0: cb4a a3bd 751d a8bd 3878 d03c a970 d03d
00000200: 9d29 ccbb 582d 35bc 8b24 923c b4a3 25bd
00000210: 4363 68bd 1164 76bc 7200 bf3d ee2d 113d
00000220: d93a 023d 2f86 91bd 0edb 5cbd 9ed1 e63c
00000230: 0b03 36bd 7fa4 9b3d b1ad a5bd b5a6 a53c
00000240: e132 3fbd a6aa ef3d b947 06bd 39a6 923c
00000250: f1fb 9f3c 6eca 223e 58f4 b7bd a55a 46be
00000260: 3fa1 d1ba a511 35bc e590 7c3e 2442 b3bd
00000270: 9bb7 2fbd e4a6 34bd a3e1 ce3d 7bda 9d3d
00000280: 7a6b 7e3d 8a8f 283c b24d 603c e686 35bd
00000290: f56b 563c de04 6739 85de 6e3d 6ce1 bdbd
000002a0: 7414 8f3d b437 78ba 456c 5a3d e466 06bc
000002b0: 2a7b 3a3d fbf0 dfbb 6194 a73d e0c7 abbd
000002c0: 953e 613a d405 44bd 8fe7 d33b 9c11 113c
000002d0: 7127 613d a244 21be dcaa e4bc 0c85 20bd
000002e0: 2422 d2bd e5ed 5bbd 070d 02bc 75d7 4bbd
000002f0: ba78 593d b5f8 463c b93c 183e 5057 7c3e
00000300: d2e7 823e 11da 173e 57cc 87bc 5de1 bb3d
00000310: 0dab 9fbd a671 eabd 0c57 793d 49e4 54bc
00000320: b1b8 783e 5a73 273d 4811 123d daab ae3c
00000330: e890 c0bc 87a6 5cbe 796e 353d 85fd ad3d
00000340: 2c85 be3d 02cf 363d d6a9 a5bd becc a7bd
00000350: 510b f73d 4492 0cbe f5d9 d3bd e1d8 eebd
00000360: 9d14 a33d 22d5 6c3e 336f 3b3c 8b0f a9bd
00000370: b134 e63d a0d2 143e a77b fe3c 53c8 6d3c
00000380: fec0 d93d 671c 203e 3f00 053e 56d2 573b
00000390: be51 1d3e 8995 9d3d 68f1 0abd 16e1 3fbd
000003a0: 6b1f 79bc 0c3b a63d a3c5 8a3e a1ce f23c
000003b0: b008 273d fe72 823d 5c9e be3d ee32 74bd
000003c0: 6987 9c3c 1733 f23d debe 633d 6851 a53d
000003d0: 1f88 7dbc cbe5 9b3e 153d 973e b109 7f3e
000003e0: 30d0 393e 894d 1e3e 5833 893c e56e 563d
000003f0: ba76 d23d 9c21 5abc f87e 013d 19b6 91bd

conv2.bias f4 [64]
-0.00013217522 -6.587002e-05 -0.00021414977 5.7986726e-05 8.1765786e-05 -5.9479218e-05 -4.4768145e-05 1.711585e-05
8.4491294e-05 -7.487446e-05 9.4430616e-05 -0.00020014017 -1.6544823e-06 0.00010441027 -2.6996378e-05 4.00309e-05
-7.668958e-05 -0.0003003037 -7.410671e-05 -3.946308e-05 0.00010008389 -2.269752e-05 -0.00019712483 -0.00037287205
-0.0005222046 4.034551e-05 7.784143e-05 6.756303e-05 0.00017323301 -2.500652e-05 -0.00025443776 9.6809126e-05
-5.6706638e-05 -1.7634427e-05 8.058156e-05 0.0008898645 -0.0001293544 -3.6684196e-06 4.2832344e-05 0.00017285247
-0.00023439988 -0.0003754233 2.350399e-05 0.0005563144 -5.758144e-05 -0.00022821141 -9.339908e-05 -1.1492797e-05
2.21532e-05 -3.2871994e-05 0.00021893745 4.5834813e-06 -2.3449073e-05 -0.00026363082 -7.065584e-05 7.5361577e-06
-3.604188e-05 8.834096e-05 -8.021346e-05 -4.756675e-05 8.312677e-06 -1.0772652e-05 3.254335e-05 7.4825484e-06
00000000: 8498 0ab9 b323 8ab8 648d 60b9 c636 7338
00000010: ac79 ab38 5379 79b8 6ec5 3bb8 0294 8f37
00000020: eb30 b138 eb05 9db8 0d09 c638 b8dc 51b9
00000030: 940f deb5 d6f6 da38 4876 e2b7 dae6 2738
00000040: 68d4 a0b8 1572 9db9 bd69 9bb8 2985 25b8
00000050: 21e4 d138 8e66 beb7 4bb3 4eb9 0a7e c3b9
00000060: 8fe4 08ba a938 2938 cd3e a338 a0b0 8d38
00000070: e2a5 3539 18c5 d1b7 0f66 85b9 0106 cb38
00000080: 4ad8 6db8 a5ed 93b7 e5fd a838 cc45 693a
00000090: 4fa3 07b9 f82e 76b6 e1a6 3338 bb3f 3539
000000a0: 3dc9 75b9 76d4 c4b9 6f2a c537 a1d5 113a
000000b0: 9a83 71b8 094c 6fb9 40df c3b8 30d1 40b7
000000c0: a2d5 b937 09e0 09b8 9392 6539 cecb 9936
000000d0: 80b4 c4b7 ee37 8ab9 112d 94b8 1adf fc36
000000e0: ad2b 17b8 b143 b938 4638 a8b8 6982 47b8
000000f0: ad76 0b37 30bc 34b7 287f 0838 9a12 fb36

bn2.weight f4 [64]
1.0968679 1.0599922 1.1743124 1.0066206 0.9960142 1.0868851 1.1584117 1.0746089
1.1037257 1.1124579 1.0713238 1.0543829 0.9750848 1.0539463 1.0540701 1.144147
1.0732886 1.0545582 1.0364875 1.0050735 1.1667511 1.0432171 1.1345221 0.9795219
1.0211957 1.0751474 1.0397443 1.0264779 1.0845218 1.1024942 1.0568833 1.1170539
0.9962921 1.0779272 1.0307968 1.0560414 1.0061693 1.0392332 1.0895126 0.98040396
1.0549995 1.2636942 1.1211046 1.0955532 1.196719 1.0462111 1.0915028 1.0783396
1.0545602 0.91375715 1.0178112 1.0823402 1.0422493 1.1067381 1.0166085 1.1050138
1.1316063 1.058885 1.1789668 1.0126013 1.0199661 0.97695017 1.120981 1.1010953
00000000: 2b66 8c3f d3ad 873f de4f 963f f2d8 803f
00000010: c9fa 7e3f 0d1f 8b3f d646 943f c98c 893f
00000020: e246 8d3f 0565 8e3f 2321 893f 05f6 863f
00000030: 289f 793f b6e7 863f c5eb 863f 6973 923f
00000040: 8561 893f c3fb 863f 9fab 843f 40a6 803f
00000050: 1a58 953f 2388 853f 0538 913f f2c1 7a3f
00000060: 8ab6 823f 6e9e 893f 5716 853f a163 833f
00000070: 9cd1 8a3f 881e 8d3f f447 873f 9ffb 8e3f
00000080: 000d 7f3f 85f9 893f 26f1 833f 5d2c 873f
00000090: 28ca 803f 9805 853f 2675 8b3f c1fb 7a3f
000000a0: 390a 873f bbc0 a13f 5b80 8f3f 163b 8c3f
000000b0: 172e 993f 3fea 853f 5db6 8b3f 0807 8a3f
000000c0: d4fb 863f fdeb 693f a347 823f 208a 8a3f
000000d0: 6d68 853f 98a9 8d3f 3a20 823f 1871 8d3f
000000e0: 7ad8 903f 8b89 873f 62e8 963f eb9c 813f
000000f0: 408e 823f 6819 7a3f 4e7c 8f3f b1f0 8c3f

bn2.bias f4 [64]
-0.118441544 -0.18354388 -0.09684092 -0.09795251 0.10470077 0.06004926 -0.17431119 0.10549019
0.0038470675 0.08838872 0.062937304 0.113605015 0.02982492 -0.038374454 0.073791675 0.03916842
0.104868256 0.104274444 -0.16544479 -0.04887619 -0.02528081 0.015795644 -0.09910233 -0.011298306
0.15673237 0.038160704 -0.043949135 -0.06467409 0.10012693 -0.02825979 0.1167466 0.0077676806
0.05701906 0.026935825 -0.122702844 0.1593852 0.094950885 0.08233251 -0.06522499 0.12125754
-0.14566213 0.008422468 -0.041796196 0.10984681 0.026798535 0.11120551 0.10521152 -0.0677089
-0.16256261 -0.09764617 -0.020261737 0.074697785 0.05455539 0.116101675 -0.04622827 -0.0063458
0.010745379 0.004900871 -0.14428902 -0.007666605 0.053861715 -0.082190394 -0.037692543 0.12436188
00000000: 7b91 f2bd edf2 3bbe 8854 c6bd 539b c8bd
00000010: 5b6d d63d 36f6 753d a27e 32be 3e0b d83d
00000020: 151f 7c3b 2505 b53d 46e5 803d bfa9 e83d
00000030: 6453 f43c 882e 1dbd 1720 973d 116f 203d
00000040: 2bc5 d63d d78d d53d 5c6a 29be 6632 48bd
00000050: b419 cfbc de65 813c 2af6 cabd 881c 39bc
00000060: 737e 203e 664e 1c3d 0204 34bd d973 84bd
00000070: 590f cd3d 1381 e7bc d718 ef3d 0788 fe3b
00000080: d18c 693d 85a8 dc3c a14b fbbd e035 233e
00000090: 9c75 c23d f29d a83d ae94 85bd e055 f83d
000000a0: 7428 15be 64fe 093c 7d32 2bbd 5df7 e03d
000000b0: 9a88 db3c b7bf e33d 2379 d73d f7aa 8abd
000000c0: d076 26be b7fa c7bd f1fb a5bc 27fb 983d
000000d0: 7975 5f3d b7c6 ed3d db59 3dbd 6ef0 cfbb
000000e0: 630d 303c 7c97 a03b 80c0 13be 2538 fbbb
000000f0: 1a9e 5c3d 7053 a8bd 7f63 1abd 71b1 fe3d

bn2.running_mean f4 [64]
-1.6401373 2.5083325 -1.9254532 1.7527803 -1.657609 -2.759374 0.219395 -0.65132684
-2.4794939 -1.3404135 -0.33206356 0.32867852 -0.81896985 -0.64371437 -0.17792839 -0.80990785
-2.0244608 -3.1407018 -0.4382946 1.3726374 -0.75839764 -2.9516091 -1.4845945 -1.9222802
-1.0218217 -2.0543473 1.1562102 -1.1689583 -1.1764504 -2.0487998 -0.004535022 -2.7815478
-0.604934 -2.6690898 1.8574544 -2.0259585 -1.2810715 -0.8913731 -0.8278673 -2.0953805
-1.540905 -0.5566265 -0.074536815 -0.9886869 -2.9077404 -0.16876915 -2.3411076 -0.09636912
-1.3302631 1.2299682 -1.3801602 -2.1198554 -1.7564862 -0.5841412 -1.0213913 -0.98425424
-1.4835827 -1.5854907 -0.8028055 -3.022886 -1.3173932 -1.8112208 -0.15123662 -1.0440081
00000000: 05f0 d1bf 8588 2040 4075 f6bf 1b5b e03f
00000010: 882c d4bf 9599 30c0 15a9 603e 5bbd 26bf
00000020: 07b0 1ec0 ab92 abbf 3c04 aabe 8d48 a83e
00000030: 02a8 51bf 77ca 24bf dc32 36be 1f56 4fbf
00000040: c490 01c0 4201 49c0 2668 e0be 95b2 af3f
00000050: 5926 42bf 2ae7 3cc0 3107 bebf 470d f6bf
00000060: 0ecb 82bf 6d7a 03c0 b2fe 933f 6da0 95bf
00000070: ed95 96bf 891f 03c0 869a 94bb e104 32c0
00000080: f4dc 1abf 5ed2 2ac0 11c1 ed3f 4ea9 01c0
00000090: 27fa a3bf 0731 64bf 1def 53bf b71a 06c0
000000a0: 603c c5bf 137f 0ebf c2a6 98bd 961a 7dbf
000000b0: 6b18 3ac0 d2d1 2cbe b5d4 15c0 2c5d c5bd
000000c0: 1046 aabf 996f 9d3f 17a9 b0bf b6ab 07c0
000000d0: 8ad4 e0bf 478a 15bf f3bc 82bf 16f8 7bbf
000000e0: 0ae6 bdbf 5cf1 cabf a984 4dbf f776 41c0
000000f0: 57a0 a8bf 15d6 e7bf c6dd 1abe 0fa2 85bf

bn2.running_var f4 [64]
0.84639895 1.2630335 1.218824 1.023751 0.40947443 1.896055 1.2174149 2.7846527
1.6756005 2.2812955 0.50219357 2.299098 0.4288831 1.3277965 0.8961961 0.46899158
2.409047 2.3364482 0.5233521 0.9987751 0.92407715 1.2888291 0.6111554 0.47363535
0.3206168 1.1806632 0.7917218 0.82069165 2.727872 0.9086063 2.3662608 0.6310316
0.626346 0.4179188 0.8024035 0.36073798 0.27107212 1.5463091 0.7366316 0.6814982
0.28874898 0.7201192 0.9151796 1.2428796 1.2087703 2.9950578 1.5138747 0.98267156
0.32763004 0.90658724 0.4806992 1.0648746 0.8035959 1.6002966 0.5941331 0.8975282
0.41552737 0.6295776 0.92225957 1.349221 1.3486739 0.7226874 0.87896943 1.1200407
00000000: 9aad 583f 15ab a13f 6d02 9c3f 460a 833f
00000010: a2a6 d13e eeb1 f23f 40d4 9b3f c037 3240
00000020: 147a d63f bf00 1240 c28f 003f 6c24 1340
00000030: 9196 db3e 3cf5 a93f 1c6d 653f aa1f f03e
00000040: d32d 1a40 5e88 1540 67fa 053f baaf 7f3f
00000050: 5290 6c3f 5af8 a43f ae74 1c3f 5580 f23e
00000060: e327 a43e f91f 973f 48ae 4a3f d918 523f
00000070: 7495 2e40 6c9a 683f d170 1740 498b 213f
00000080: 3658 203f 74f9 d53e 516a 4d3f a6b2 b83e
00000090: f7c9 8a3e 75ed c53f e393 3c3f ab76 2e3f
000000a0: e8d6 933e bb59 383f 3649 6a3f ae16 9f3f
000000b0: fcb8 9a3f 07af 3f40 a5c6 c13f 5d90 7b3f
000000c0: 20bf a73e 1a16 683f 351e f63e d04d 883f
000000d0: 76b8 4d3f 85d6 cc3f 1b19 183f 68c4 653f
000000e0: 01c0 d43e ff2b 213f 3419 6c3f 46b3 ac3f
000000f0: 59a1 ac3f 0b02 393f 2404 613f 7e5d 8f3f

conv3.weight f4 [128, 64, 3]
0.037665922 -0.07000321 0.058774266 -0.114325285 0.028273758 -0.051764313 0.01184366 -0.10733404
0.03358147 0.038372576 -0.11510263 -0.043201603 0.051792163 0.025212066 0.054048046 0.04011796
-0.009511456 -0.0243405 -0.11483413 -0.00080366817 -0.04552184 0.05808 0.026337367 -0.030675838
0.0761365 0.006041052 -0.026868233 0.16612948 -0.019772058 0.010503371 -0.082394995 -0.037128944
0.019559225 0.013647136 -0.010768896 0.08051976 0.018683838 0.04501682 -0.07735573 -0.10136478
-0.056749392 -0.058437493 -0.011782808 -0.051415607 -0.046135955 0.006652754 0.08865431 -0.15391287
0.0719246 -0.049341444 -0.01738156 0.0732588 -0.02198517 0.07738546 -0.090445116 -0.07957461
0.034970134 0.008797459 -0.036658 -0.024808846 0.01252401 0.044310328 0.15634839 0.021152992
-0.024046913 0.038183797 0.04494396 -0.07357816 0.036232557 -0.2105411 0.036574 0.091946825
0.005548816 0.011278337 -0.07181649 0.030142276 -0.061011087 -0.05393129 -0.10783936 0.028188525
0.089668445 0.021365253 -0.061799314 0.0076709087 0.009476435 0.022635093 0.09779603 -0.030608509
-0.12815644 0.0073348684 0.094745755 0.023047298 -0.034363918 0.021895098 -0.014061897 -0.047421876
0.025931267 0.06279707 0.060215723 -0.007430265 0.0076084295 0.08733532 -0.034550134 -0.024406549
-0.03811284 0.11756022 -0.009160867 -0.061602976 0.098726444 -0.044745166 -0.14021657 -0.014073489
0.040315673 -0.0239416 0.08118381 -0.05961946 0.06878842 0.0443388 0.04334382 0.12548809
-0.001222896 0.15147711 -0.039331052 0.014532642 0.037338383 -0.023893831 -0.02327152 -0.13133956
-0.04959085 0.049900062 0.029399762 0.010987747 0.058300015 -0.0075057847 0.017847538 0.062701955
-0.021356776 0.07185115 0.1057366 0.12265529 0.04953094 -0.06920199 -0.020383347 -0.08876338
-0.007789291 0.004448552 0.009432513 0.0054489835 -0.05921382 0.012506995 0.011277473 -0.010969556
-0.03321754 0.07853186 0.08704428 -0.11208658 0.045624394 -0.0098434705 0.006576351 0.10392254
0.06333661 -0.01962033 0.079105034 -0.011070358 0.02152455 -0.0016333977 0.03744338 0.041593306
0.02354205 0.049777567 0.048438862 0.11078345 0.079578795 -0.035090685 -0.026930377 -0.09831833
0.04255012 -0.011610303 0.017157482 0.085394695 -0.0068347016 -0.00014871437 -0.014739683 -0.05643366
0.063652486 -0.01591481 0.011176873 0.040715367 0.0021140568 0.088237114 0.032199852 0.035883438
-0.22924429 0.12821887 -0.06567475 0.07863876 -0.19447847 -0.112070434 -0.03731395 -0.038792804
-0.01088457 -0.056696534 -0.063487574 -0.065263465 0.0017747006 0.063339345 0.11137877 -0.077091105
-0.070951745 -0.034845788 0.0054352055 -0.031848606 -0.056301184 0.0485682 0.062164903 0.050193258
-0.019382026 -0.04423648 0.03819635 0.05787699 0.10237 0.0076306756 0.023830064 0.083530545
-0.09265035 0.06691486 0.11035819 0.09746221 -0.09949776 0.0008878545 0.110807694 -0.018105075
-0.086465 0.01030571 0.018499173 0.02422779 0.039122716 0.067847684 -0.018122489 -0.08727468
0.022895467 0.04788544 -0.0045745308 0.0417804 0.0153613 0.06178432 -0.16563205 0.05177268
-0.22612576 -0.08089659 -0.04326215 -0.16967605 -0.013148671 0.077424794 -0.009994869 -0.023639651
00000000: 9547 1a3d d85d 8fbd 49bd 703d 6023 eabd
00000010: 5e9e e73c d106 54bd e90b 423c f3d1 dbbd
00000020: b98c 093d 902c 1d3d edba ebbd 2af4 30bd
00000030: 0524 543d 8989 ce3c 7c61 5d3d bb52 243d
00000040: f0d5 1bbc ba65 c7bc 282e ebbd 42ad 52ba
00000050: 1c75 3abd 4be5 6d3d 76c1 d73c e54b fbbc
00000060: 74ed 9b3d 04f4 c53b c51a dcbc d91d 2a3e
00000070: 03f9 a1bc 5516 2c3c b5be a8bd 8514 18bd
00000080: ab3a a03c 3d98 5f3c 0670 30bc 8be7 a43d
00000090: d90e 993c 8f63 383d ae6c 9ebd 5698 cfbd
000000a0: 0d72 68bd 275c 6fbd ae0c 41bc 2c99 52bd
000000b0: 0ef9 3cbd 58ff d93b 6490 b53d 569b 1dbe
000000c0: 344d 933d 411a 4abd c663 8ebc b608 963d
000000d0: 3e1a b4bc 457c 9e3d 4a3b b9bd 03f8 a2bd
000000e0: d83c 0f3d 3823 103c b326 16bd ec3b cbbc
000000f0: 8131 4d3c bf7e 353d cb19 203e 0a49 ad3c
00000100: 08fe c4bc 9d66 1c3d 2817 383d 25b0 96bd
00000110: 9768 143d 1698 57be 9ece 153d 9e4e bc3d
00000120: d8d2 b53b c6c8 383c 8614 93bd efec f63c
00000130: c3e6 79bd 0ee7 5cbd e2da dcbd 9feb e63c
00000140: 17a4 b73d 2f06 af3c 4721 7dbd 3f5c fb3b
00000150: 0d43 1b3c 3b6d b93c 4949 c83d b2be fabc
00000160: 713b 03be 5659 f03b 100a c23d b0cd bc3c
00000170: 2ec1 0cbd 595d b33c df63 66bc 713d 42bd
00000180: cf6d d43c c09b 803d c3a4 763d 9579 f3bb
00000190: 2250 f93b dcdc b23d 7184 0dbd 3ef0 c7bc
000001a0: 361c 1cbd 6ac3 f03d 7617 16bc 6753 7cbd
000001b0: 1731 ca3d b546 37bd ef94 0fbe 7e94 66bc
000001c0: 0c22 253d 2d21 c4bc b343 a63d 8933 74bd
000001d0: f1e0 8c3d 9a9c 353d 4a89 313d f37f 003e
000001e0: 9549 a0ba d11c 1b3e 9919 21bd 521a 6e3c
000001f0: 22f0 183d ffbc c3bc eaa3 bebc e17d 06be
00000200: c61f 4bbd 0264 4c3d c5d7 f03c f405 343c
00000210: ffcb 6e3d 16f3 f5bb 0035 923c e269 803d
00000220: 68f4 aebc b226 933d 6e8c d83d b232 fb3d
00000230: f4e0 4a3d c6b9 8dbd fafa a6bc 93c9 b5bd
00000240: 4f3d ffbb 29c5 913b d48a 1a3c 638d b23b
00000250: 318a 72bd 24ea 4c3c 26c5 383c a7b9 33bc
00000260: 1d0f 08bd 50d5 a03d 4544 b23d a68d e5bd
00000270: a5e0 3a3d 8246 21bc 6e7e d73b 57d5 d43d
00000280: a0b6 813d d0ba a0bc d201 a23d 7260 35bc
00000290: 4154 b03c bb17 d6ba 3b5e 193d be5d 2a3d
000002a0: 42db c03c 90e3 4b3d d467 463d 6fe2 e23d
000002b0: 35fa a23d 40bb 0fbd 189d dcbc 1f5b c9bd
000002c0: 0949 2e3d 2439 3ebc d98d 8c3c 6ae3 ae3d
000002d0: a2f5 dfbb 36f0 1bb9 b67e 71bc fb26 67bd
000002e0: 3c5c 823d c75f 82bc 341f 373c 28c5 263d
000002f0: fd8b 0a3b a9b5 b43d fee3 033d 83fa 123d
00000300: 04bf 6abe cf4b 033e 7c80 86bd 5c0d a13d
00000310: 5d25 47be 2f85 e5bd 83d6 18bd 34e5 1ebd
00000320: 3255 32bc a03a 68bd c605 82bd daa8 85bd
00000330: 129d e83a 0fb8 813d 8d1a e43d f1e1 9dbd
00000340: 264f 91bd 75ba 0ebd cf19 b23b af73 02bd
00000350: 129c 66bd 73ef 463d a0a0 7e3d 7297 4d3d
00000360: 0ec7 9ebc 5031 35bd c773 1c3d 6c10 6d3d
00000370: 5da7 d13d bf0a fa3b 4437 c33c 1012 ab3d
00000380: 77bf bdbd a80a 893d 7a03 e23d 449a c73d
00000390: 7bc5 cbbd e8be 683a 25ef e23d 1851 94bc
000003a0: 9014 b1bd 48d9 283c 948b 973c 5c79 c63c
000003b0: 243f 203d baf3 8a3d 9d75 94bc 11bd b2bd
000003c0: 468f bb3c 8623 443d f2e5 95bb ed21 2b3d
000003d0: f6ad 7b3c 8e11 7d3d 739b 29be 970f 543d
000003e0: 838d 67be 1dad a5bd a733 31bd 8fbf 2dbe
000003f0: 866d 57bc e490 9e3d 85c1 23bc f1a7 c1bc

conv3.bias f4 [128]
0.12196453 0.12374123 0.039896972 0.04714631 -2.0597113e-06 0.08540411 0.07728866 0.18643753
0.086347625 0.07210234 0.086078286 -0.0005624465 0.080176294 0.026436653 -0.16909957 -8.664999e-09
0.0323111 0.11577657 0.061030477 0.04115994 0.06697396 0.120260656 -1.5439265e-37 0.12507811
0.17097458 0.12029065 0.08151865 0.091360465 0.12518555 0.16515297 0.16785084 -1.0494106e-15
0.10390242 0.029890819 0.12981865 0.04772424 0.048489 0.07480705 0.10876182 0.116271146
0.09366871 0.11565839 -0.045061506 -0.15662424 0.14656368 0.1728091 -0.026260642 -5.2765692e-05
0.14670725 0.11887547 0.056678765 0.06996083 -0.07666708 0.097978145 0.091601305 -0.016567618
0.10223172 0.052122377 -0.0015652421 -0.06817115 0.029973172 0.1590001 0.0776105 0.13538495
0.14921664 0.08324271 0.122024216 0.08370945 0.13406996 0.12509659 0.0022898377 0.032953788
0.028223936 -0.03522115 0.1448645 0.094279066 0.04974346 -1.0097309e-27 0.11537861 0.10925707
0.11276848 0.0005158566 0.14265889 0.01950455 -2.8543218e-07 0.11342644 0.16321267 0.07200505
0.03182162 0.05954836 0.13479911 -0.19259427 0.16403335 -0.00038324707 0.067033105 0.11697105
-0.0007966544 0.09012296 -0.021461915 0.11178422 0.20626543 0.10054115 0.049293607 0.13481371
-0.082105085 0.04513945 0.060765084 0.16971724 0.05905057 0.09482454 0.090809055 0.104025714
0.15931739 0.046416696 -0.09315553 0.11630579 0.093376495 0.04012789 0.055004757 0.15832515
0.08474418 0.11645629 0.10893158 0.059058584 -0.26382 0.12046379 0.1017693 0.04648185
00000000: 8ac8 f93d 0b6c fd3d 026b 233d 7d1c 413d
00000010: 9239 0ab6 5ae8 ae3d 8449 9e3d 7be9 3e3e
00000020: 06d7 b03d 64aa 933d d049 b03d 2571 13ba
00000030: 7833 a43d ae91 d83c 7028 2dbe 12dd 14b2
00000040: a558 043d 441c ed3d 18fb 793d 5397 283d
00000050: a529 893d 384b f63d fd25 5282 7a14 003e
00000060: f613 2f3e f25a f63d 40f3 a63d 321b bb3d
00000070: a430 003e dc1d 293e 17e1 2b3e 6b3c 97a6
00000080: cbca d43d 97dd f43c 2eef 043e 7e7a 433d
00000090: 679c 463d 7034 993d 84be de3d 911f ee3d
000000a0: 61d5 bf3d 4ede ec3d 6a92 38bd 1b62 20be
000000b0: ca14 163e def4 303e 8f20 d7bc bb50 5db8
000000c0: 6d3a 163e fb74 f33d fe27 683d a047 8f3d
000000d0: a103 9dbd c4a8 c83d 7799 bb3d d0b8 87bc
000000e0: dd5e d13d 467e 553d cf28 cdba 519d 8bbd
000000f0: 4c8a f53c ecd0 223e 41f2 9e3d 5aa2 0a3e
00000100: 3fcc 183e 277b aa3d d5e7 f93d dc6f ab3d
00000110: a349 093e 5219 003e 1a11 163b 8dfa 063d
00000120: e235 e73c 0d44 10bd 5c57 143e 6215 c13d
00000130: ccbf 4b3d 8dff 9f92 9f4b ec3d 2cc2 df3d
00000140: 29f3 e63d 8d3a 073a 2c15 123e 02c8 9f3c
00000150: 803d 99b4 1f4c e83d 3921 273e 6277 933d
00000160: 6357 023d fbe8 733d c708 0a3e 6f37 45be
00000170: 5cf8 273e 8dee c8b9 a748 893d 858e ef3d
00000180: 92d6 50ba 6392 b83d e6d0 afbc 20ef e43d
00000190: 3f37 533e 85e8 cd3d 18e8 493d 9b0c 0a3e
000001a0: b626 a8bd 25e4 383d cfe4 783d 5bca 2d3e
000001b0: 03df 713d 5e33 c23d 19fa b93d 6f0b d53d
000001c0: 1924 233e 6f1f 3e3d 54c8 bebd bb31 ee3d
000001d0: 2d3c bf3d 245d 243d ab4c 613d fd1f 223e
000001e0: 5b8e ad3d a380 ee3d 8517 df3d 6ae7 713d
000001f0: 6a13 87be b8b5 f63d 6c6c d03d c163 3e3d

se.fc.0.weight f4 [8, 128]
-0.0013589815 -0.0036408696 -0.0024215612 -0.0002629747 -4.9327e-41 -0.0015525671 -0.0015295622 4.9596e-41
-0.0022891148 -0.0019862629 -0.0024539009 5.7872e-41 -0.0016600648 -3.6914879e-22 -5.0246e-41 -5.093e-41
-5.0558115e-06 -0.002775418 -0.0035055422 -0.0029041956 -0.0037808975 -0.0024916076 4.9948e-41 -0.0019938622
-0.001745216 -0.0025840516 -0.0014142052 -0.0034841509 -0.0013793389 -0.006005372 -0.0006350546 1.44006e-40
-0.0021765048 -0.0023095205 -0.0026898747 -0.0034914743 -0.0017650878 -0.0014604825 -0.0036174227 -0.002865054
-0.0019221344 -0.0031384106 -0.0001725462 -4.979e-41 -0.003465105 4.9064e-41 -0.00087268365 -4.9357e-41
-0.004231265 -0.0037477752 -0.00535164 -0.00061949 -5.099e-41 -0.004003594 -0.002125853 -4.9403e-41
-0.0029315872 -0.0010019656 -4.9724e-41 -1.7924654e-06 -0.0018280796 -0.0013219618 -0.0024299433 -0.002700256
-0.0015380814 -0.0006785998 -0.004274534 -0.002040445 -0.0007340603 -0.00014226651 -4.9485e-41 -0.0018188983
-0.00031094297 6.3452906e-05 -0.0016289809 -0.0033381127 -0.0021850779 5.7029e-41 -0.00052086153 -0.001608188
-0.0016759934 -4.9586e-41 -0.0017639941 1.4442082e-32 5.2706e-41 4.9313e-41 -0.0025100315 -0.00056677015
-5.0266e-41 -0.0013540311 -0.0018003733 5.4841e-41 -0.0008325599 -7.679053e-25 -8.416466e-19 -0.0044727274
-4.9261e-41 -0.0041577425 4.9314e-41 -0.005099657 -0.0012276378 -0.004510027 -0.0028353315 -0.0026649558
-4.9309e-41 -0.0032139134 -1.1230039e-05 -0.0015704969 -0.0022392205 -0.0033984615 -0.003891856 -0.0046328544
-0.0062197917 -0.00400272 -4.9729e-41 -0.000683294 -0.0034295574 -0.00505143 1.1403703e-07 -0.0030883385
-0.0022523855 -0.0028143863 -0.0032595536 -0.003251941 -4.98e-41 -0.0007467302 -0.00053230365 -0.0026296133
-2.65342e-05 -1.2997908e-05 -0.00021420313 -3.4145927e-05 5.2344e-41 -0.00010238164 -3.112676e-05 4.9219e-41
-6.79932e-05 -0.00013252963 -5.1530664e-05 -4.9623e-41 -7.957824e-05 6.1179e-41 4.9093e-41 4.9181e-41
-0.0001421698 -4.3747023e-05 -0.00023062024 -0.00019120726 -5.149267e-08 -8.603084e-05 -5.4754e-41 -5.945514e-05
-0.00015793928 -1.1133715e-05 -5.832366e-05 -8.94348e-05 -3.801267e-05 -4.1891693e-05 -4.3808623e-07 5.0363e-41
-3.175259e-05 -0.00011530581 -7.302191e-05 -7.7226854e-05 -1.0279056e-05 -9.906654e-05 -8.346139e-05 -7.27495e-05
-0.00023790893 -1.65095e-05 -0.00018617618 -5.0232e-41 -3.0282245e-05 -4.9448e-41 -0.00020582307 -4.9058e-41
-0.00020807292 -5.269688e-05 -0.00013716794 -1.2696952e-06 -4.9148e-41 -9.7058255e-05 -1.8337431e-06 -5.9387e-41
-3.534985e-05 -2.8662947e-05 5.111e-41 -4.099296e-05 -1.6066604e-05 -7.0491474e-08 -6.093492e-05 -0.00017228437
-0.00016915955 -5.7179408e-05 -9.2337665e-05 -0.00012818997 -1.4649829e-05 -1.9593617e-05 4.954e-41 -0.00010240707
-2.057853e-06 -6.7160036e-05 -2.912938e-05 -3.9976814e-05 -0.00010054495 -5.9411e-41 -0.00013875464 -2.0269865e-05
-3.0165986e-05 -4.919e-41 -1.9657324e-05 6.1996e-41 5.0637e-41 5.836e-41 -7.196242e-05 -0.00011349806
4.9228e-41 -1.4253451e-05 -6.7218302e-06 -5.1538e-41 -9.842361e-06 -1.3903618e-06 -5.8174e-41 -0.00020740092
-6.012e-41 -5.6936162e-05 4.9344e-41 -2.4288787e-05 -1.4231489e-07 -0.00011066063 -1.2526024e-05 -0.00020587815
-4.9142e-41 -5.32163e-05 -3.7191563e-05 -1.2909521e-05 -0.00013345451 -0.00012499152 -0.00024309027 -7.558893e-05
-0.00011101393 -7.313595e-05 -4.9383e-41 -8.469069e-05 -0.00013358355 -7.613578e-05 -3.5062167e-05 -5.1808955e-05
-4.654772e-05 -0.00010315931 -8.38471e-05 -1.3399327e-05 -4.9557e-41 -0.000110759494 -0.00015938345 -6.3871476e-06
00000000: da1f b2ba a89b 6ebb 0eb3 1ebb dedf 89b9
00000010: 8189 0080 827f cbba 977b c8ba 418a 0000
00000020: f904 16bb f62b 02bb a0d1 20bb 53a1 0000
00000030: 8896 d9ba 0223 df9b 118c 0080 f98d 0080
00000040: 17a5 a9b6 cae3 35bb 3dbd 65bb 5154 3ebb
00000050: efc8 77bb 3d4a 23bb 3c8b 0000 75ab 02bb
00000060: bbbf e4ba 3159 29bb da5c b9ba 5a56 64bb
00000070: efca b4ba b6c8 c4bb cb79 26ba 6e91 0100
00000080: b1a3 0ebb 535b 17bb 9c48 30bb 38d1 64bb
00000090: 855a e7ba a96d bfba 4812 6dbb a1c3 3bbb
000000a0: 21f0 fbba cbad 4dbb 85ed 34b9 cb8a 0080
000000b0: d116 63bb c588 0000 cfc4 64ba 9689 0080
000000c0: 6ca6 8abb 3c9d 75bb cf5c afbb 4565 22ba
000000d0: 248e 0080 9530 83bb e551 0bbb b789 0080
000000e0: df1f 40bb 6354 83ba 9c8a 0080 a494 f0b5
000000f0: 2c9c efba ad45 adba af3f 1fbb c7f6 30bb
00000100: 7399 c9ba 10e4 31ba 6411 8cbb fdb8 05bb
00000110: f46d 40ba 602d 15b9 f289 0080 1968 eeba
00000120: 0f06 a3b9 0512 8538 8783 d5ba 3dc4 5abb
00000130: 8633 0fbb f99e 0000 6d8a 08ba d6c9 d2ba
00000140: 02ad dbba 3a8a 0080 d235 e7ba a4f9 950a
00000150: ec92 0000 7789 0000 577f 24bb 4d93 14ba
00000160: 1f8c 0080 bf79 b1ba 81fa ebba e098 0000
00000170: 2640 5aba baa7 6d97 0569 78a1 f58f 92bb
00000180: 5289 0080 ac3d 88bb 7889 0000 061b a7bb
00000190: b0e8 a0ba d9c8 93bb f8d0 39bb 8aa6 2ebb
000001a0: 7489 0080 85a0 52bb a668 3cb7 22d9 cdba
000001b0: e3bf 12bb b9b8 5ebb 820e 7fbb 33cf 97bb
000001c0: 65cf cbbb 4029 83bb a08a 0080 161f 33ba
000001d0: 6dc2 60bb 7786 a5bb 85e4 f433 b965 4abb
000001e0: c29c 13bb 9171 38bb 3c9e 55bb 841e 55bb
000001f0: d28a 0080 37c0 43ba 4b8a 0bba 9755 2cbb
00000200: c395 deb7 9711 5ab7 b79b 60b9 e937 0fb8
00000210: ea91 0000 b9b5 d6b8 1b8e 02b8 3489 0000
00000220: 9297 8eb8 a7f7 0ab9 a122 58b8 548a 0080
00000230: 3ee3 a6b8 8baa 0000 da88 0000 1989 0000
00000240: 6a13 15b9 027d 37b8 a6d2 71b9 cf7e 48b9
00000250: ca28 5db3 756b b4b8 a298 0080 785f 79b8
00000260: 819c 25b9 f1ca 3ab7 8ea0 74b8 f18e bbb8
00000270: cb6f 1fb8 ddb4 2fb8 1d32 ebb4 648c 0000
00000280: 152e 05b8 56d0 f1b8 5723 99b8 daf4 a1b8
00000290: 3674 2cb7 f2c1 cfb8 fe07 afb8 1791 98b8
000002a0: 3177 79b9 e27d 8ab7 4a38 43b9 078c 0080
000002b0: a006 feb7 d789 0080 36d2 57b9 c188 0080
000002c0: 262e 5ab9 d806 5db8 bdd4 0fb9 656a aab5
000002d0: 0189 0080 c18b cbb8 ef1e f6b5 8ca5 0080
000002e0: 9d44 14b8 3671 f0b7 798e 0000 dbef 2bb8
000002f0: c5c6 86b7 1961 97b3 5f94 7fb8 3ca7 34b9
00000300: 6c60 31b9 ecd3 6fb8 68a5 c1b8 bc6a 06b9
00000310: 89c8 75b7 f95c a4b7 198a 0000 61c3 d6b8
00000320: a519 0ab6 45d8 8cb8 de5a f4b7 c7ac 27b8
00000330: a9db d2b8 9da5 0080 aa7e 11b9 3409 aab7
00000340: f60c fdb7 1f89 0080 c8e5 a4b7 d2ac 0000
00000350: 288d 0000 afa2 0000 88ea 96b8 cf05 eeb8
00000360: 3a89 0000 1b22 6fb7 158c e1b6 ab8f 0080
00000370: 9e20 25b7 789c bab5 2aa2 0080 c379 59b9
00000380: 97a7 0080 bdce 6eb8 8d89 0000 c6bf cbb7
00000390: 38cf 18b4 7912 e8b8 dd26 52b7 ffe0 57b9
000003a0: fd88 0080 9134 5fb8 23fe 1bb8 f895 58b7
000003b0: ecef 0bb9 2810 03b9 0ce6 7eb9 7f85 9eb8
000003c0: 26d0 e8b8 9060 99b8 a989 0080 f89b b1b8
000003d0: 9012 0cb9 16ab 9fb8 b70f 13b8 714d 59b8
000003e0: 3c3c 43b8 3c57 d8b8 12d7 afb8 accd 60b7
000003f0: 258a 0080 8d47 e8b8 2b20 27b9 2e51 d6b6

se.fc.0.bias f4 [8]
-0.0015229712 -2.446349e-06 0.018191516 5.9517944e-05 -0.008219808 -0.027797969 -0.028885754 -4.9326e-41
00000000: 6f9e c7ba f52b 24b6 6006 953c e8a2 7938
00000010: 60ac 06bc 91b8 e3bc d1a1 ecbc 8089 0080

se.fc.2.weight f4 [128, 8]
-0.0013686722 1.8832487e-05 0.029517883 -1.5751106e-05 -0.023867896 0.026912514 -0.1167828 -5.0008e-41
-0.0010602039 -4.10265e-05 -0.0024229065 1.271181e-14 -0.011556213 0.023436712 -0.0143779 -4.9183e-41
-0.0009316262 -0.00028728484 -0.00045175367 2.1170603e-14 -0.002214805 0.02585448 -0.031815358 -5.6367e-41
-0.00036608858 -0.000100986865 -1.1453066e-12 -9.696395e-16 -0.0047450047 0.031278614 -0.026353994 -4.9057e-41
-4.9351e-41 -4.963e-41 -4.9445e-41 4.9148e-41 4.9216e-41 -4.948e-41 -4.9663e-41 -4.9138e-41
-0.001716663 0.0009238222 -0.02681867 -2.8673885e-08 -0.008809682 0.02663386 0.017137678 4.9054e-41
-0.0015762994 -0.0004448628 0.004254887 -1.2633546e-14 0.0062204767 0.02382855 -0.034426738 -5.0538e-41
-0.0021533524 -2.754487e-12 4.9284e-41 1.438283e-14 -0.008486485 0.03276117 -0.029963525 5.1774e-41
-0.0016289237 -1.8727065e-05 0.0019662876 -2.066616e-15 -0.010542754 0.027646922 -0.025241084 4.9411e-41
-0.0006332317 -7.7761346e-05 0.0028207027 -1.8252443e-10 -0.006092587 0.027480574 0.0053388802 4.9714e-41
-0.002235577 0.00024502064 -0.011828821 1.4213884e-14 -0.007398389 0.024608023 -0.023088751 4.9663e-41
-4.9222e-41 -4.947e-41 -4.926e-41 -4.9242e-41 -4.9358e-41 5.0141e-41 5.0738e-41 5.5707e-41
-0.0028803863 0.00014333488 -0.004446382 -3.8359255e-15 -0.014902771 0.03142342 -0.026684081 6.0557e-41
-4.6642388e-05 4.9721e-41 -4.9142e-41 -6.5972294e-16 0.0030891406 0.00024806705 0.008087991 -1.0009e-40
2.0240658e-12 -0.00060781284 4.944e-41 -1.276134e-14 -0.016648376 -0.0012146329 0.022581285 -4.9305e-41
-5.5364e-41 4.9693e-41 4.9564e-41 4.9526e-41 -4.9617e-41 -5e-41 -4.9525e-41 6.2868e-41
-0.00012321644 -5.686481e-05 -0.04034004 2.471785e-07 -0.01709516 0.019424668 0.0334927 4.9771e-41
-0.002559043 -0.00015349292 -8.311953e-15 3.0171828e-15 -0.0056783105 0.031599388 -0.026345676 4.9274e-41
-0.0012917368 -9.158349e-06 0.0011946547 -6.1497144e-16 -0.0057551363 0.02344195 -0.016560744 4.995e-41
-0.0026885194 -0.0015178343 -0.02317883 -1.4649251e-07 -0.01166337 0.031051753 0.021831416 4.9145e-41
-0.003437911 -1.2109741e-07 0.004966909 -5.5804854e-09 -0.006602036 0.02475971 -0.021258239 4.9121e-41
-0.0025058654 5.4552693e-05 -0.007902089 -5.405147e-09 -0.00976848 0.034025483 -0.016908372 4.9158e-41
4.9701e-41 5.2807e-41 -4.949e-41 -4.938e-41 4.9492e-41 4.9068e-41 -4.929e-41 -4.9448e-41
-0.001498287 2.9478967e-06 -0.031602044 -3.1683655e-07 -0.015887842 0.023175135 0.023575611 -6.13e-41
-0.0038273558 -0.0013568243 -0.04853791 -3.490583e-06 -0.007845669 0.026242392 -0.06820569 -5.0102e-41
-0.0019841283 -1.3624808e-05 6.53862e-08 -1.33679595e-14 -0.007996097 0.02621751 -0.027233893 -4.9057e-41
-0.0039081955 -0.00055223244 -4.1061896e-09 -3.5976217e-15 -0.012978325 0.031698707 -0.028017044 -7.301e-42
-0.0014172982 -0.00022451625 0.066039294 -1.2733447e-05 -0.061577592 0.023165084 0.07171842 -5.3504e-41
-0.00034026147 -3.2572105e-05 -0.0051639327 2.4731782e-15 -0.0053883386 0.024157627 -0.056729086 4.9624e-41
-0.0032541782 -4.665663e-06 2.0441313e-09 -2.2536936e-14 -0.004569125 0.026499823 -0.025101477 4.9073e-41
-0.002227776 2.423644e-09 1.9141931e-05 3.0881362e-15 -0.01008686 0.029655984 -0.028192962 -4.9658e-41
-5.1828e-41 -4.943e-41 4.9379e-41 -5.9274e-41 -5.02e-41 -4.9138e-41 -4.9551e-41 -4.9443e-41
00000000: 0565 b3ba 75fa 9d37 7dcf f13c 3e21 84b7
00000010: 9b86 c3bc a277 dc3c d22b efbd 678b 0080
00000020: 8af6 8aba de13 2cb8 a0c9 1ebb e0fe 6428
00000030: 4556 3dbc 59fe bf3c 4991 6bbc 1a89 0080
00000040: 6038 74ba b89e 96b9 5ad9 ecb9 16b0 be28
00000050: 4326 11bb c6cc d33c d250 02bd 219d 0080
00000060: 94ef bfb9 e9c8 d3b8 0530 a1ab 62bd 8ba6
00000070: fc7b 9bbb 011e 003d 55e4 d7bc c088 0080
00000080: 9289 0080 598a 0080 d589 0080 0189 0000
00000090: 3289 0000 ee89 0080 718a 0080 fa88 0080
000000a0: a701 e1ba a92c 723a d4b2 dbbc 8a4e f6b2
000000b0: 7c56 10bc 412f da3c 5164 8c3c be88 0000
000000c0: d59b ceba 793c e9b9 946c 8b3b f395 63a8
000000d0: 24d5 cb3b 1734 c33c 0d03 0dbd e18c 0080
000000e0: 421f 0dbb 6dd4 41ac 6289 0000 8c8c 8128
000000f0: e60a 0bbc 9430 063d 1176 f5bc 5390 0000
00000100: 9c81 d5ba 1118 9db7 d5dc 003b 56ea 14a7
00000110: 84bb 2cbc cc7b e23c 64c6 cebc bd89 0000
00000120: 76ff 25ba ce13 a3b8 8adb 383b 0fb0 48af
00000130: 53a4 c7bb f11e e13c c6f1 ae3b 958a 0000
00000140: c282 12bb 1d76 8039 accd 41bc fc06 8028
00000150: 2f6e f2bb c496 c93c 9f24 bdbc 718a 0000
00000160: 3689 0080 e789 0080 5189 0080 4489 0080
00000170: 9789 0080 c68b 0000 708d 0000 4a9b 0000
00000180: ddc4 3cbb 2a4c 1639 f5b2 91bb 2b34 8aa7
00000190: c12a 74bc d8b5 003d 9398 dabc cfa8 0000
000001a0: e2a1 43b8 9a8a 0000 fd88 0080 f626 3ea6
000001b0: 2e73 4a3b ff0e 8239 7e83 043c 0317 0180
000001c0: 546e 0e2c a155 1fba d289 0000 4be3 65a8
000001d0: 2d62 88bc 5134 9fba 63fc b83c 7189 0080
000001e0: 559a 0080 868a 0000 2a8a 0000 0f8a 0000
000001f0: 508a 0080 618b 0080 0e8a 0080 40af 0000
00000200: a933 01b9 2082 6eb8 993b 25bd f4b3 8434
00000210: 260b 8cbc 7b20 9f3c a42f 093d be8a 0000
00000220: 9eb5 27bb f1f2 20b9 1ebc 15a8 3369 5927
00000230: 1f11 babb 5c6e 013d e3d2 d7bc 5b89 0000
00000240: 7f4f a9ba cfa6 19b7 f695 9c3a e240 31a6
00000250: 9595 bcbb 5509 c03c 66aa 87bc 3e8b 0000
00000260: df31 30bb 11f2 c6ba 88e1 bdbc 8e4b 1db4
00000270: b817 3fbc 3f60 fe3c ccd7 b23c ff88 0000
00000280: 934e 61bb 0107 02b4 74c1 a23b 78be bfb1
00000290: e455 d8bb e0d4 ca3c c225 aebc ee88 0000
000002a0: 7239 24bb 82cf 6438 c377 01bc 2db8 b9b1
000002b0: fa0b 20bc 4e5e 0b3d 6d83 8abc 0889 0000
000002c0: 8c8a 0000 3493 0000 f589 0080 a789 0080
000002d0: f789 0000 c888 0000 6789 0080 d789 0080
000002e0: 2b62 c4ba 7bd4 4536 2571 01bd af19 aab4
000002f0: 3827 82bc c8d9 bd3c a421 c13c e1aa 0080
00000300: 60d4 7abb 78d7 b1ba b0cf 46bd c23f 6ab6
00000310: 1f8b 00bc 49fa d63c 6daf 8bbd aa8b 0080
00000320: 2608 02bb 1b96 64b7 726a 8c33 d5d0 70a8
00000330: 1002 03bc 1bc6 d63c 9d19 dfbc c088 0080
00000340: 5210 80bb b1c3 10ba 6d16 8db1 349e 81a7
00000350: 0aa3 54bc 81d6 013d 0084 e5bc 5a14 0080
00000360: a3c4 b9ba 1f6c 6bb9 9c3f 873d bda1 55b7
00000370: c938 7cbd b4c4 bd3c 1be1 923d 2695 0080
00000380: 1f65 b2b9 089e 08b8 3536 a9bb 1636 3227
00000390: a990 b0bb 37e6 c53c c25c 68bd 558a 0000
000003a0: 0d44 55bb bd8d 9cb6 bd78 0c31 a3fe caa8
000003b0: 99b8 95bb 2816 d93c 9da1 cdbc cc88 0000
000003c0: e1ff 11bb 328d 2631 fc92 a037 0f86 5e27
000003d0: 5b43 25bc 1bf1 f23c edf4 e6bc 6d8a 0080
000003e0: 7a90 0080 ca89 0080 a689 0000 3ba5 0080
000003f0: f08b 0080 fa88 0080 218a 0080 d489 0080

se.fc.2.bias f4 [128]
0.18656975 0.21624331 0.24960807 0.26061994 2.6528645e-22 0.089024134 -0.11576396 0.35886323
0.11941621 0.22177418 0.19412035 -9.104572e-06 -0.25286606 0.32054317 0.108012944 4.9165e-41
0.30463433 0.18804698 0.079339765 -0.106089644 -0.3195082 -0.09440754 -4.9599e-41 0.2976769
0.19349383 0.072473586 -0.060031064 0.1245962 0.20267303 -0.15996778 0.096926145 4.9121e-41
0.2575232 0.18729529 -0.13634115 -0.23026244 0.19635831 0.11207699 -0.11582711 -0.12085395
-0.073168844 0.025880538 0.12964445 0.14637774 -0.32085925 0.075752154 0.006966192 -1.0223993e-10
-0.23307368 0.17086302 -0.24409002 0.34086192 0.45936146 -0.13484214 0.110194616 -0.00065502455
-0.09729956 0.23139122 -1.2184269e-05 0.31962302 0.0055101775 -0.16604106 0.008377247 0.15385656
0.09049643 -0.25840458 -0.13081639 0.2556681 0.25662035 0.37111813 0.5456691 0.27086863
0.3187722 0.3717971 0.057328105 0.13803822 0.058254473 -4.9293e-41 0.32601807 0.096611485
-0.13934043 0.11081125 0.12482423 0.6535664 -9.9787014e-27 0.5854019 0.03448817 -0.02095923
0.090881035 0.20147872 0.29378814 0.096875764 -0.014913478 0.23735368 0.0051251543 -0.14284077
-3.437831e-12 -0.2950288 0.8282676 -0.09608394 0.028698001 -0.16150786 -0.16717169 -0.054954525
0.49522611 0.14808464 0.24804765 -0.15819997 -0.2158346 -0.02832118 -0.133195 0.17918862
-0.09465874 0.031582817 0.44235745 0.27894077 -0.24885355 0.23451488 0.13828397 0.34766072
0.11513411 0.3139115 0.037801206 -0.12225362 -0.14123157 0.37534687 0.14282042 -0.22081243
00000000: 240c 3f3e e36e 5d3e 4299 7f3e fa6f 853e
00000010: 175b a01b 4952 b63d a815 edbd ecbc b73e
00000020: 7c90 f43d c518 633e 7cc7 463e d7bf 18b7
00000030: a977 81be 3c1e a43e e435 dd3d 0d89 0000
00000040: 08f9 9b3e 638f 403e e37c a23d 8745 d9bd
00000050: 9496 a3be be58 c1bd 438a 0080 1b69 983e
00000060: 3f23 463e 086d 943d 22e3 75bd 4b2c ff3d
00000070: 8589 4f3e 98ce 23be 3781 c63d ee88 0000
00000080: 15da 833e 56ca 3f3e 049d 0bbe ebc9 6bbe
00000090: 2712 493e 9f88 e53d c436 edbd 4782 f7bd
000000a0: 8cd9 95bd 6c03 d43c 84c1 043e 0ce4 153e
000000b0: aa47 a4be f223 9b3d a744 e43b f7d3 e0ae
000000c0: deaa 6ebe b7f6 2e3e bcf2 79be 7485 ae3e
000000d0: 6d31 eb3e 0f14 0abe b7ad e13d f4b5 2bba
000000e0: fe44 c7bd d2f1 6c3e 096b 4cb7 a1a5 a33e
000000f0: b88e b43b ab06 2abe b840 093c 938c 1d3e
00000100: 3156 b93d 9b4d 84be bbf4 05be eee6 823e
00000110: be63 833e 3203 be3e f8b0 0b3f 4baf 8a3e
00000120: 1c36 a33e 315c be3e e0d0 6a3d e459 0d3e
00000130: 3e9c 6e3d 6989 0080 d7eb a63e 3edc c53d
00000140: 42af 0ebe 02f1 e23d d9a3 ff3d 2150 273f
00000150: 07a6 4594 e6dc 153f 7843 0d3d b1b2 abbc
00000160: d61f ba3d 7050 4e3e 666b 963e cd66 c63d
00000170: a957 74bc d80c 733e e9f0 a73b da44 12be
00000180: 75ea 71ac 040e 97be 5809 543f a8c7 c4bd
00000190: 1218 eb3c 5162 25be 0e2f 2bbe ff17 61bd
000001a0: 478e fd3e 80a3 173e 3400 7e3e 2cff 21be
000001b0: bf03 5dbe d201 e8bc 4564 08be 397d 373e
000001c0: 71dc c1bd fc5c 013d ad7c e23e 53d1 8e3e
000001d0: 77d3 7ebe ab24 703e 509a 0d3e 9600 b23e
000001e0: 6fcb eb3d 02b9 a03e 70d5 1a3d 1b60 fabd
000001f0: 029f 10be 772d c03e 843f 123e a71c 62be

embedding.weight f4 [2, 8]
0.04479461 0.39600268 0.3530167 0.23044153 -0.75237745 0.33440685 1.0764434 -0.34959164
-0.82376105 0.7582476 0.6022872 0.44100365 -0.4496326 0.2666646 0.19115357 -0.33894762
00000000: 8e7a 373d ddc0 ca3e 9bbe b43e ddf8 6b3e
00000010: cf9b 40bf 6037 ab3e e6c8 893f adfd b2be
00000020: 01e2 52bf 841c 423f 7e2f 1a3f 3bcb e13e
00000030: 3f36 e6be 4388 883e c3bd 433e 8b8a adbe
