checkpoints_kfold/fold4_best_model.pth (torch, 228335 bytes, 23 tensors)

conv1.weight f4 [32, 1, 5]
0.06491747 -0.021225391 0.35198364 -0.066576086 0.29773137 -0.3941164 0.25052926 0.23512706
0.09317937 0.44466087 -0.18102425 0.25034475 0.07164003 -0.20125405 0.107721485 -0.3862615
0.2385842 -0.3601708 0.33750454 -0.18044482 -0.11042191 -0.31475383 0.16292086 0.0007507747
0.27355385 0.116887264 -0.34261504 0.17107067 0.20824179 -0.005070898 -0.43641523 -0.12139674
-0.168281 -0.1991682 0.20154996 0.30743015 0.20556568 0.3111563 0.028561769 0.2266695
-0.5799036 0.044517566 0.16786605 -0.032319434 0.22515176 -0.07836724 0.21200767 0.28590703
-0.4681709 -0.2511112 0.29690006 0.31580672 -0.42522848 -0.25152194 0.32795706 -0.31165126
-0.044864565 -0.091808066 -0.30680886 0.29482815 0.15946482 0.2964803 -0.16002266 -0.43420205
-0.37797368 0.1292627 -0.29555428 0.034514472 -0.31859204 -0.44752 0.26227564 -0.2069733
-0.5900836 0.17486657 -0.23828919 0.16505948 -0.48671013 0.30028763 0.042307626 -0.1673755
0.18040779 0.56433064 -0.0037862426 0.05603829 0.069409035 -0.30973575 -0.06013661 0.3889767
-0.17883958 -0.23535699 0.3245593 0.16790645 -0.2961025 -0.06508465 -0.35072172 -0.39744082
-0.13064271 -0.41949832 0.20838198 0.21483704 0.30193675 0.08832817 -0.11010498 -0.43474463
-0.13482313 0.1350761 -0.2079785 -0.19689173 0.2635708 0.05379658 -0.39183757 -0.3491831
-0.18318482 0.4431437 -0.35282573 0.2643095 -0.42778 -0.18560743 0.29560128 -0.37951282
0.29513526 -0.56265354 -0.38599655 -0.25158852 0.30394265 -0.45191893 -0.56330216 -0.030965041
0.21644928 0.34137297 0.21515664 -0.5616021 -0.22118792 0.10950925 -0.03810892 0.019941155
-0.18857484 0.19318685 0.3049827 0.4102231 -0.5127807 -0.15102474 0.15274031 -0.005571109
0.0050538047 -0.25747785 -0.47466302 0.0340247 -0.19134781 0.13056266 -0.27184892 -0.24129568
-0.061577965 -0.29462907 -0.31323677 0.26725715 -0.054525826 -0.3273655 -0.3826006 0.10454001
00000000: 73f3 843d dfe0 adbc 3337 b43e 0b59 88bd
00000010: 3f70 983e a0c9 c9be 5f45 803e 26c5 703e
00000020: d3d4 be3d 97aa e33e 6c5e 39be 302d 803e
00000030: 02b8 923d 8b15 4ebe 159d dc3d 11c4 c5be
00000040: 6b4f 743e 4f68 b8be 65cd ac3e 87c6 38be
00000050: e224 e2bd 6a27 a1be bad4 263e a3cf 443a
00000060: 400f 8c3e 9762 ef3d 3d6b afbe 262d 2f3e
00000070: 563d 553e c729 a6bb d171 dfbe db9e f8bd
00000080: db51 2cbe c0f2 4bbe 1d63 4e3e 7c67 9d3e
00000090: cf7f 523e e14f 9f3e 5ffa e93c 0d1c 683e
000000a0: 9074 14bf 0d58 363d 14e5 2b3e 6261 04bd
000000b0: 2f8e 663e 017f a0bd 8a18 593e 6862 923e
000000c0: 19b4 efbe a691 80be 4903 983e 6bb1 a13e
000000d0: 8cb7 d9be 7cc7 80be fde9 a73e c190 9fbe
000000e0: e8c3 37bd de05 bcbd 0d16 9dbe b7f3 963e
000000f0: bf4a 233e 44cc 973e fbdc 23be bb4f debe
00000100: c485 c1be 715d 043e e452 97be 0c5f 0d3d
00000110: 7f1e a3be 5721 e5be fe48 863e cff0 53be
00000120: b80f 17bf 3910 333e 1502 74be 5a05 293e
00000130: 1232 f9be 4dbf 993e c34a 2d3d 7c64 2bbe
00000140: d2bc 383e f977 103f 9c22 78bb 6888 653d
00000150: 5326 8e3d af95 9ebe ce51 76bd f427 c73e
00000160: b921 37be 6c01 71be a32c a63e abef 2b3e
00000170: bf9a 97be 1a4b 85bd cc91 b3be 5d7d cbbe
00000180: 34c7 05be 7cc8 d6be 1662 553e 3efe 5b3e
00000190: 7497 9a3e 66e5 b43d b87e e1bd d996 debe
000001a0: 130f 0abe 6451 0a3e 51f8 54be fc9d 49be
000001b0: c0f2 863e cd59 5c3d ef9e c8be 21c8 b2be
000001c0: cd94 3bbe bbe3 e23e 93a5 b4be 9353 873e
000001d0: fb05 dbbe e00f 3ebe 0d59 973e 814f c2be
000001e0: f81b 973e 100a 10bf 57a1 c5be 36d0 80be
000001f0: 5f9e 9b3e eb61 e7be 9234 10bf 66aa fdbc
00000200: e1a4 5d3e 70c8 ae3e 0652 5c3e 28c5 0fbf
00000210: 167f 62be 6346 e03d 1918 1cbd a25b a33c
00000220: c319 41be c6d2 453e b126 9c3e c308 d23e
00000230: 9945 03bf 3ba6 1abe f567 1c3e d98d b6bb
00000240: 639a a53b 23d4 83be 0807 f3be 7c5d 0b3d
00000250: aef0 43be 38b2 053e c82f 8bbe 3716 77be
00000260: 2d39 7cbd 9fd9 96be 9260 a0be eed5 883e
00000270: 7956 5fbd 739c a7be 3ae4 c3be 1319 d63d

conv1.bias f4 [32]
0.00044752163 -0.0006488102 0.0005811575 -0.0010214178 -0.0007809907 0.0028961329 0.0022533983 -0.00072258606
-0.00023123654 0.002430079 -0.00072381186 -0.0010766205 0.0012541331 0.00439196 -0.0024062716 -0.00041778668
-0.0002918107 0.0016712489 0.0024976593 0.0015954463 -0.0010115604 -0.0013293296 -8.633865e-05 -0.00025155733
0.00045936287 -0.00032165673 -0.00050722813 -0.0026189936 -0.0015847508 0.00043798605 0.0022630254 -0.0008471695
00000000: 56a1 ea39 ea14 2aba d258 183a 18e1 85ba
00000010: 66bb 4cba 0ccd 3d3b c0ad 133b ee6b 3dba
00000020: 1678 72b9 f641 1f3b 31be 3dba 641d 8dba
00000030: b961 a43a 6eea 8f3b 8ab2 1dbb 610a dbb9
00000040: 2bfe 98b9 cf0d db3a c5af 233b 4b1e d13a
00000050: 5696 84ba e63c aeba b610 b5b8 74e3 83b9
00000060: a4d6 f039 09a4 a8b9 81f7 04ba 6ca3 2bbb
00000070: 6ab7 cfba 7ea1 e539 444f 143b 9514 5eba

bn1.weight f4 [32]
0.28421196 0.59003186 0.76689285 1.0027153 0.54182553 0.791851 1.4733322 0.46928906
0.69491816 0.8559412 0.81863916 1.0796874 1.0052341 1.7690285 0.9827792 0.7003911
0.8224086 0.91773 0.79117864 1.0342528 0.77568907 0.79614615 1.4844414 0.8177995
1.0991564 1.0619302 0.9205287 0.47152576 1.3240272 1.5068676 1.3571459 1.0587693
00000000: 3b84 913e 540c 173f 1753 443f fa58 803f
00000010: 14b5 0a3f bfb6 4a3f 2696 bc3f a846 f03e
00000020: 28e6 313f f61e 5b3f 5692 513f 3233 8a3f
00000030: 83ab 803f 876f e23f 6b97 7b3f d54c 333f
00000040: 5f89 523f 5af0 6a3f af8a 4a3f 6562 843f
00000050: 8f93 463f 3cd0 4b3f 2d02 be3f 4f5b 513f
00000060: 28b1 8c3f 54ed 873f c5a7 6b3f d36b f13e
00000070: b979 a93f 0ae1 c03f f5b6 ad3f c185 873f

bn1.bias f4 [32]
-0.516352 -0.5900968 -0.45582947 0.9873079 -0.18208294 -0.625943 0.28575343 -0.8237941
0.39263034 0.61769044 -0.39651072 0.27278924 0.67202014 0.54514974 0.46411103 -0.22567691
-0.5502384 0.48092285 0.3984805 0.35658267 0.09348863 -0.5571606 0.3493656 0.5593401
0.43947 0.45440242 0.4144753 -0.5429784 0.364757 0.35924813 0.45138857 0.40349278
00000000: a52f 04bf 9510 17bf 7b62 e9be 36c0 7c3f
00000010: f373 3abe cd3d 20bf 464e 923e 2ce4 52bf
00000020: d806 c93e f620 1e3f 7403 cbbe 08ab 8b3e
00000030: 8309 2c3f ef8e 0b3f f69f ed3e d917 67be
00000040: 6cdc 0cbf 853b f63e a305 cc3e 0192 b63e
00000050: f876 bf3d 14a2 0ebf 0ce0 b23e ea30 0f3f
00000060: 3602 e13e 6fa7 e83e 1b36 d43e a200 0bbf
00000070: 6ec1 ba3e 5fef b73e 671c e73e 9b96 ce3e

bn1.running_mean f4 [32]
0.0043705874 0.0044786055 0.0009912585 -0.0023194172 -0.0006928622 0.0047885063 -0.0026793922 0.0076013077
-0.0014893389 -0.00048944424 0.0021734776 -0.0032208345 -0.0030435603 -0.0023322687 -0.0055573015 -0.0006024093
0.004942496 -0.001514056 0.0010060022 -0.0016188185 -0.0029453035 -0.0013145914 -0.005773676 -0.0039902735
-0.0048812893 -0.003985825 -0.0039973306 0.0041929055 -0.004197348 -0.004918641 -0.005239077 -0.0029777552
00000000: 2537 8f3b 44c1 923b 1eed 813a 5d01 18bb
00000010: 32a1 35ba e7e8 9c3b be98 2fbb 6414 f93b
00000020: ec35 c3ba 0c4e 00ba e770 0e3b a314 53bb
00000030: 7876 47bb fad8 18bb 061a b6bb 01eb 1dba
00000040: a9f4 a13b 4a73 c6ba d5db 833a 892e d4ba
00000050: fe05 41bb 5e4e acba 1b31 bdbb d7c0 82bb
00000060: 39f3 9fbb 869b 82bb 0afc 82bb a464 893b
00000070: e889 89bb 8d2c a1bb 90ac abbb 7126 43bb

bn1.running_var f4 [32]
0.0004067388 0.00068795093 0.00013990076 0.0005625453 0.00022647416 0.00019947445 0.00057099044 0.0008097853
0.00044734898 0.0004078482 0.0004784342 0.0003906867 0.0005959384 0.00076724973 0.00069646223 0.00037762857
0.0006904124 0.00034278582 0.0003991161 0.0005977369 0.0003670025 0.00015056251 0.00089334353 0.0005689873
0.00084993284 0.0008417967 0.00051109213 0.0005761451 0.00041365853 0.0006279322 0.00092451705 0.00039177778
00000000: 8f3f d539 9b57 343a 53b2 1239 c777 133a
00000010: b279 6d39 042a 5139 85ae 153a c647 543a
00000020: 2a8a ea39 75d4 d539 5ad6 fa39 15d5 cc39
00000030: c038 1c3a 4221 493a ca92 363a 73fc c539
00000040: cbfc 343a efb7 b339 7540 d139 72b1 1c3a
00000050: 3e6a c039 51e0 1d39 452f 6a3a 1728 153a
00000060: 07ce 5e3a 05ac 5c3a d0fa 053a 7108 173a
00000070: 4fe0 d839 d19b 243a 4a5b 723a 8667 cd39

conv2.weight f4 [64, 32, 5]
0.0788098 0.040426623 -0.0537267 -0.11056718 -0.13590568 -0.04526786 0.016989052 -0.030368347
0.01442836 -0.11469211 0.06737154 -0.107611306 -0.04164116 0.07907123 0.20596425 -0.04677325
-0.085777804 0.25269008 0.087256305 0.046755426 -0.03977715 0.07497065 -0.11994646 0.16400677
-0.16188288 0.11218998 0.0010594126 -0.049480304 -0.10853781 0.122538805 -0.14335641 -0.19907197
0.053145934 0.17296912 0.11576935 0.17049158 0.017801784 -0.06940847 -0.016372068 0.021530133
-0.24020877 0.042848658 -0.10637617 0.039473336 -0.23729959 0.13059707 -0.09037522 0.079605564
0.21917422 0.16979732 0.086754106 -0.0056530014 -0.14050584 -0.0723797 -0.03967488 -0.043868367
-0.057012007 -0.14821061 0.16572948 -0.035750963 0.08026136 0.011406979 0.08807595 0.20072065
0.053286165 0.31833363 -0.2661306 -0.21276452 0.054869972 0.040821888 -0.14988019 0.1873592
-0.06755101 0.018153118 -0.08705236 -0.0025163768 0.07224104 -0.043120872 -0.3780722 0.21911916
0.19575773 0.14577504 -0.0433657 0.05515977 0.11846233 -0.054378882 0.048035093 0.015814068
-0.16489923 0.07471594 -0.089650765 0.15620968 -0.09768659 0.115876384 -0.0961707 -0.35128942
0.09696993 0.1066394 0.081690066 -0.018551672 0.08042798 -0.046925325 0.0890727 -0.06765139
-0.054865804 -0.10678577 0.0948042 0.1056204 0.15156996 -0.32814327 0.023571461 0.080431834
0.034488928 -0.09101572 0.05737953 -0.16910893 0.1401608 0.030492965 0.023063006 -0.09286581
-0.12856959 -0.041708358 -0.045627087 -0.10923167 0.07798303 -0.10221614 0.059290696 -0.021247221
0.2072164 0.019702597 0.044208992 0.11869978 -0.0051654438 0.049665146 -0.09810603 0.03877411
0.0567071 -0.054835103 0.14193086 -0.15426761 0.11117623 0.20126557 -0.10713718 -0.16808426
-0.014220163 0.11083577 -0.08475419 0.046215136 0.07378635 -0.119195566 0.16919068 -0.032466665
-0.11911897 0.07486761 0.08937703 0.0038050604 0.012270711 0.08575415 -0.11606332 -0.12905213
-0.02407926 -0.0046363147 0.0101086395 -0.05350072 -0.06778037 -0.09616749 0.17161846 0.05924374
0.062697135 -0.13127375 -0.2257234 0.27263847 -0.03302015 0.090776496 -0.061705887 -0.07399286
0.035440207 0.19084294 -0.10940554 -0.13279746 -0.017087543 0.03444124 -0.054319978 0.08887
-0.11139502 -0.12538902 0.10213909 -0.02049003 0.022434607 -0.055431843 -0.3227501 -0.2446365
0.18334576 0.16579893 -0.017744565 -0.074038215 0.16110416 0.09759303 0.05851374 0.020268602
-0.15272596 0.05124599 0.0046656327 -0.009163781 -0.032601606 -0.043872993 0.10653381 0.12471418
-0.099822424 0.004911658 -0.08366882 0.18900256 -0.10828059 -0.020197954 0.057190757 -0.23395146
-0.029614018 -0.011218712 -0.004801404 -0.17937717 -0.31383124 0.21890129 -0.1823695 0.15499257
-0.0016580404 -0.15764752 -0.10298622 0.0032569217 0.10324885 -0.048800234 -0.15215254 -0.048504494
0.05050554 0.17238075 0.06775519 -0.063108146 0.057154987 0.074566424 -0.00013134451 -0.12382158
-0.11828395 0.05682567 0.044405166 0.004312291 -0.03965539 -0.04965799 0.0659028 0.027268121
-0.123248 -0.10992991 0.1773186 -0.086632915 -0.15059407 0.07178393 0.07191028 -0.1342306
00000000: 0867 a13d 6396 253d 8710 5cbd 0c71 e2bd
00000010: dc2a 0bbe cb6a 39bd a02c 8b3c 0ac7 f8bc
00000020: ee64 6c3c b2e3 eabd 17fa 893d 5163 dcbd
00000030: ec8f 2abd 19f0 a13d 4be8 523e 4f95 3fbd
00000040: 46ac afbd 9860 813e 6fb3 b23d 9e82 3f3d
00000050: 5ded 22bd 368a 993d 7da6 f5bd 64f1 273e
00000060: a0c4 25be dcc3 e53d fddb 8a3a dcab 4abd
00000070: 1249 debd a0f5 fa3d 06cc 12be 86d9 4bbe
00000080: 8daf 593d d11e 313e 7b18 ed3d 5895 2e3e
00000090: 0cd5 913c 0726 8ebd b71e 86bc f65f b03c
000000a0: 4af9 75be 1382 2f3d c0db d9bd cbae 213d
000000b0: aafe 72be 3dbb 053e a516 b9bd 3e08 a33d
000000c0: 356f 603e 59df 2d3e 23ac b13d d03c b9bb
000000d0: c3e0 0fbe cf3b 94bd 2182 22bd 51af 33bd
000000e0: 6c85 69bd 86c4 17be fdb4 293e 9a6f 12bd
000000f0: 1160 a43d 56e4 3a3c 2a61 b43d b789 4d3e
00000100: 9842 5a3d a0fc a23e 4542 88be f1de 59be
00000110: 56bf 603d da34 273d 317a 19be 17db 3f3e
00000120: 2f58 8abd d9b5 943c 8248 b2bd cce9 24bb
00000130: 1cf3 933d 839f 30bd ae92 c1be c660 603e
00000140: b774 483e 0d46 153e 3ba0 31bd 36ef 613d
00000150: 619c f23d 64bc 5ebd 72c0 443d 818c 813c
00000160: 58db 28be ac04 993d d29a b7bd 6ef5 1f3e
00000170: e80f c8bd 9950 ed3d 25f5 c4bd 35dc b3be
00000180: 2c98 c63d c265 da3d 1f4d a73d adf9 97bc
00000190: 6db7 a43d c534 40bd bf6b b63d d08c 8abd
000001a0: f7ba 60bd 7fb2 dabd b428 c23d 824f d83d
000001b0: 2835 1b3e 6502 a8be f018 c13c 72b9 a43d
000001c0: 4344 0d3d 7366 babd cc06 6b3d e42a 2dbe
000001d0: 5086 0f3e 62cc f93c a1ee bc3c 6e30 bebd
000001e0: bfa7 03be 62d6 2abd 78e3 3abd dbb4 dfbd
000001f0: 91b5 9f3d b256 d1bd cdda 723d a70e aebc
00000200: 8930 543e 5767 a13c 7d14 353d df18 f33d
00000210: e242 a9bb ae6d 4b3d d0eb c8bd 9ad1 1e3d
00000220: b445 683d c69a 60bd 5356 113e 54f8 1dbe
00000230: 5db0 e33d 9018 4e3e bd6a dbbd 481e 2cbe
00000240: b0fb 68bc ddfd e23d 9b93 adbd 154c 3d3d
00000250: 4c1d 973d ce1c f4bd 5240 2d3e c4fb 04bd
00000260: a6f4 f3bd 3154 993d 4e0b b73d 525e 793b
00000270: 180b 493c df9f af3d 9bb2 edbd 3e26 04be
00000280: de41 c5bc 3aec 97bb b59e 253c 9223 5bbd
00000290: 6fd0 8abd 76f3 c4bd c0bc 2f3e 90a9 723d
000002a0: 5b67 803d a06c 06be 0924 67be 4597 8b3e
000002b0: 2340 07bd 07e9 b93d 50bf 7cbd 9289 97bd
000002c0: c029 113d 556c 433e 0310 e0bd 0ffc 07be
000002d0: 2dfb 8bbc 4212 0d3d a07e 5ebd 7901 b63d
000002e0: 1223 e4bd fb65 00be 4d2e d13d b5da a7bc
000002f0: c8c8 b73c 800c 63bd 803f a5be fe81 7abe
00000300: febe 3b3e 32c7 293e 0d5d 91bc 59a1 97bd
00000310: 7df8 243e dbde c73d 1aac 6f3d 570a a63c
00000320: 3264 1cbe 51e7 513d 2ae2 983b af23 16bc
00000330: 4389 05bd 2bb4 33bd 662e da3d 266a ff3d
00000340: b36f ccbd f9f1 a03b 8f5a abbd e389 413e
00000350: 37c2 ddbd 2e76 a5bc db40 6a3d f990 6fbe
00000360: 1999 f2bc b0ce 37bc 1955 9dbb a6ae 37be
00000370: 7dae a0be a927 603e 12bf 3abe 5fb6 1e3e
00000380: 9b52 d9ba 5a6e 21be 70ea d2bd 1472 553b
00000390: 2274 d33d c1e2 47bd e0cd 1bbe a6ac 46bd
000003a0: e6de 4e3d 9484 303e 3cc3 8a3d d83e 81bd
000003b0: 591b 6a3d 48b6 983d 86b9 09b9 2b96 fdbd
000003c0: db3e f2bd 09c2 683d 31e2 353d 1e4e 8d3b
000003d0: b16d 22bd 2d66 4bbd 0cf8 863d 6561 df3c
000003e0: 7369 fcbd ef22 e1bd 0293 353e 996c b1bd
000003f0: 5535 1abe 7403 933d b245 933d bf73 09be

conv2.bias f4 [64]
-5.0546405e-05 -0.00011081843 1.3572037e-05 -4.8439815e-05 -3.103928e-05 -9.778476e-05 -2.7982845e-05 -0.000120234
2.6113825e-05 -6.054924e-05 -9.474805e-06 -4.392585e-05 -6.0597853e-05 6.0357273e-05 4.8024434e-05 -3.5501238e-05
-7.366811e-05 -9.111124e-05 0.00015667164 0.00010586445 2.8036799e-05 -0.000101431666 -9.068541e-05 -0.00010528041
4.515761e-05 -0.00016783123 0.0001181593 1.4578356e-05 9.845589e-05 4.566627e-05 -8.404586e-05 3.3446293e-05
7.444247e-05 -5.156126e-05 -2.7063075e-05 -2.3742798e-05 8.658981e-07 6.877588e-06 -3.3863187e-05 6.661263e-05
-4.608684e-05 0.00021750883 1.9981337e-05 2.84625e-05 -2.7749304e-05 0.00010274725 -1.9768179e-06 0.00019694248
1.6613109e-05 -0.00021411425 4.3245167e-05 6.507211e-05 -9.438924e-06 -7.268055e-07 -5.2124575e-05 5.9996204e-05
-3.3139193e-05 -7.442694e-05 0.000117634954 -2.9854644e-05 5.9551367e-05 -7.884698e-05 -5.584034e-05 2.0430276e-05
00000000: ca01 54b8 3167 e8b8 74b3 6337 db2b 4bb8
00000010: 2c30 02b8 cb11 cdb8 b4bc eab7 2326 fcb8
00000020: 030f db37 40f6 7db8 faf5 1eb7 063d 38b8
00000030: 732a 7eb8 2128 7d38 d86d 4938 2ae7 14b8
00000040: 447e 9ab8 f912 bfb8 3948 2439 8b03 de38
00000050: 9130 eb37 b6b7 d4b8 5c2e beb8 fdc9 dcb8
00000060: 9d67 3d38 dafb 2fb9 4bcc f738 9095 7437
00000070: 1a7a ce38 c989 3f38 c741 b0b8 af48 0c38
00000080: ff1d 9c38 7b43 58b8 8305 e3b7 452b c7b7
00000090: 1070 6835 08c6 e636 5208 0eb8 62b2 8b38
000000a0: 5e4d 41b8 1513 6439 989d a737 c1c2 ee37
000000b0: 2dc7 e8b7 037a d738 79a9 04b6 5882 4e39
000000c0: 615c 8b37 db83 60b9 2562 3538 5377 8838
000000d0: df5b 1eb7 b219 43b5 56a0 5ab8 6fa4 7b38
000000e0: f0fe 0ab8 a915 9cb8 c9b2 f638 5c70 fab7
000000f0: cbc6 7938 a65a a5b8 1c36 6ab8 af61 ab37

bn2.weight f4 [64]
0.88528484 0.88244295 1.3248452 1.4124957 1.1649458 1.0506849 1.2787806 1.0654702
1.206151 0.8897494 1.1410071 1.4363823 0.92861646 1.0328767 1.0021462 1.248277
1.079101 0.9182136 1.0881732 1.2497941 1.1840495 1.0598723 1.0645317 1.4345177
1.0190215 0.9645953 0.9677399 1.1667937 1.1365334 1.1553365 0.93973875 0.95188046
0.9568657 0.8495728 0.94513243 1.2199086 0.89370143 0.8947613 1.1603922 1.3821061
0.9526665 0.9312314 0.9344623 0.8846091 1.187274 0.9574482 1.0751697 1.1048679
1.2650794 1.2922571 1.3228583 1.0843397 1.1337148 0.84823495 1.1180605 1.3281653
0.93072593 0.9808133 1.4052975 1.2175378 1.0914016 1.0638775 0.9905925 1.3891853
00000000: 07a2 623f c8e7 613f 8794 a93f a9cc b43f
00000010: f21c 953f d87c 863f 15af a33f 5461 883f
00000020: 2863 9a3f 9ec6 633f 850c 923f 60db b73f
00000030: cfb9 6d3f 4e35 843f 5446 803f 8ac7 9f3f
00000040: fb1f 8a3f 0c10 6b3f 4249 8b3f 41f9 9f3f
00000050: ef8e 973f e5a9 873f 9342 883f 479e b73f
00000060: 4c6f 823f b8ef 763f cdbd 773f 7f59 953f
00000070: ed79 913f 11e2 933f b892 703f 70ae 733f
00000080: 27f5 743f 9a7d 593f 33f4 713f f725 9c3f
00000090: 9ec9 643f 140f 653f bb87 943f dae8 b03f
000000a0: f4e1 733f 2e65 6e3f ec38 6f3f be75 623f
000000b0: 98f8 973f 531b 753f 299f 893f 506c 8d3f
000000c0: 1fee a13f ae68 a53f 6c53 a93f a5cb 8a3f
000000d0: 911d 913f ed25 593f 9b1c 8f3f 5201 aa3f
000000e0: 0e44 6e3f 9516 7b3f cae0 b33f 47d8 9b3f
000000f0: 0cb3 8b3f 232d 883f 7897 7d3f d3d0 b13f

bn2.bias f4 [64]
-0.36230686 -0.345436 0.018524833 0.03431988 -0.045885954 -0.30962017 -0.046741173 0.004403545
0.038357984 -0.031774886 0.025531355 -0.03216155 0.04256621 -0.081725486 -0.00789687 0.011727868
-0.3490002 -0.47198 -0.090074085 0.07038581 0.039225724 -0.059639484 -0.008931204 -0.16438699
-0.55163753 -0.05634576 0.08150769 0.004016458 -0.027346354 0.015698727 -0.19579482 -0.18508394
-0.32635126 0.0044600125 -0.027441029 0.20065784 -0.36550736 -0.23806916 0.06114138 -0.037343122
-0.31075668 -0.2669472 -0.28690663 -0.4344225 0.0559138 -0.029072402 -0.06225337 -0.14738174
0.1482958 0.09197247 -0.07284275 0.13681918 -0.023272496 -0.43417263 -0.46765932 -0.05039625
-0.15139729 -0.3426125 -0.04424145 -0.03615237 -0.10798136 -0.0020367946 0.036754757 0.0031412654
00000000: 4980 b9be fddc b0be 64c1 973c 0193 0c3d
00000010: e9f2 3bbd 8986 9ebe ac73 3fbd 9d4b 903b
00000020: 431d 1d3d 6226 02bd 2227 d13c d4bb 03bd
00000030: e859 2e3d b15f a7bd e061 01bc 3e26 403c
00000040: 27b0 b2be 5da7 f1be c378 b8bd 7026 903d
00000050: 27ab 203d 8848 74bd 2f54 12bc 1055 28be
00000060: 1e38 0dbf d0ca 66bd 81ed a63d 7e9c 833b
00000070: 7605 e0bc 9e9a 803c 707e 48be a586 3dbe
00000080: 8317 a7be 4c25 923b 02cc e0bc 4079 4d3e
00000090: c823 bbbe 67c8 73be 626f 7a3d 1af5 18bd
000000a0: 801b 9fbe 4ead 88be 6de5 92be a06c debe
000000b0: de05 653d 3f29 eebc 64fd 7ebd 3deb 16be
000000c0: dbda 173e 105c bc3d 942e 95bd 541a 0c3e
000000d0: f6a5 bebc e04b debe 0b71 efbe 4c6c 4ebd
000000e0: e407 1bbe e86a afbe 8636 35bd 8214 14bd
000000f0: 5525 ddbd be7b 05bb 288c 163d b0dd 4d3b

bn2.running_mean f4 [64]
0.70161587 -2.3965163 -2.2259262 -1.5936316 -3.8084188 -0.65658665 -3.0459712 -0.7342668
-1.3916974 -1.6174892 -1.5260164 -0.68403894 -2.7358806 -0.65115416 -3.1755614 -3.2331896
-1.2219467 -0.74977374 -2.9604695 -3.0214584 -2.6617095 -1.6911117 -3.6516485 -2.0491033
1.1928658 2.6521392 -0.023566272 -4.1818414 -3.8738518 -4.110751 -1.6619496 1.6010717
-2.086071 -0.5364825 -1.2223182 -2.1383593 0.12137116 0.44393083 -2.7660515 -1.9126112
-0.77413636 3.39794 2.1867738 -0.8748472 -0.9146033 -3.3002243 -4.7775455 3.0763388
-4.592831 -1.7313577 -1.6626525 -1.2866799 -2.7352831 -0.89582235 0.7171503 -3.6133587
-0.9216555 -0.02017586 -1.9914857 -0.77714604 -2.1635041 -0.7618407 -1.7387887 -2.0900667
00000000: 199d 333f 8660 19c0 9375 0ec0 1ffc cbbf
00000010: 22bd 73c0 1016 28bf 31f1 42c0 e9f8 3bbf
00000020: 2423 b2bf e309 cfbf 8154 c3bf 2d1d 2fbf
00000030: ab18 2fc0 0ab2 26bf 663c 4bc0 94ec 4ec0
00000040: c068 9cbf 2cf1 3fbf 5578 3dc0 935f 41c0
00000050: 7359 2ac0 5976 d8bf 9cb4 69c0 8224 03c0
00000060: d4af 983f a6bc 2940 0e0e c1bc a5d1 85c0
00000070: 30ed 77c0 468b 83c0 c4ba d4bf ebef cc3f
00000080: 3082 05c0 eb56 09bf ec74 9cbf e1da 08c0
00000090: 7191 f83d e74a e33e fd06 31c0 72d0 f4bf
000000a0: cd2d 46bf d977 5940 1af4 0b40 fcf5 5fbf
000000b0: 7123 6abf e036 53c0 a7e1 98c0 bce2 4440
000000c0: 79f8 92c0 219d ddbf ccd1 d4bf edb1 a4bf
000000d0: e10e 2fc0 9d54 65bf 2997 373f 4541 67c0
000000e0: 9df1 6bbf d847 a5bc 01e9 febf 0bf3 46bf
000000f0: da76 0ac0 fe07 43bf a190 debf a7c3 05c0

bn2.running_var f4 [64]
0.8375283 0.73776263 2.5528545 2.5774717 1.9281116 1.2241375 2.1289098 1.0783093
2.1215634 0.8638263 1.2593306 2.3972425 1.1654916 0.8581736 1.5774744 2.10349
0.8960364 0.55218977 1.0816098 2.0665333 1.220621 0.75255835 1.2305753 1.7205412
0.7438019 0.81812704 0.6361068 3.0088584 1.2393677 1.9489838 1.0426848 0.7059903
1.1662552 0.97149134 0.8610995 2.7946112 1.4238168 0.5574 1.747632 1.3577747
0.8015196 0.8078814 1.104067 0.9027078 2.9722092 1.2330972 1.8837444 0.94748515
3.0387552 1.9509145 2.3536878 2.9856644 1.6423945 0.68405664 0.9362271 2.425996
1.0867825 1.6114717 2.034444 1.7158586 0.94787604 1.1325977 1.1191032 1.7213846
00000000: 4168 563f 03de 3c3f f861 2340 4cf5 2440
00000010: 5ccc f63f 8ab0 9c3f 0f40 0840 0a06 8a3f
00000020: b2c7 0740 b823 5d3f bf31 a13f 6c6c 1940
00000030: d42e 953f 44b1 5b3f aeea c93f 959f 0640
00000040: a462 653f 4f5c 0d3f 3172 8a3f 1542 0440
00000050: 4f3d 9c3f aaa7 403f 7e83 9d3f b23a dc3f
00000060: cd69 3e3f c670 513f e5d7 223f 2391 4040
00000070: 9aa3 9e3f 4d78 f93f b276 853f c8bb 343f
00000080: da47 953f a8b3 783f 0471 5c3f e9da 3240
00000090: a13f b63f c4b1 0e3f 68b2 df3f 90cb ad3f
000000a0: 6330 4d3f 51d1 4e3f 1152 8d3f dc17 673f
000000b0: ad38 3e40 21d6 9d3f 891e f13f 638e 723f
000000c0: f77a 4240 91b7 f93f d2a2 1640 2015 3f40
000000d0: fc39 d23f 561e 2f3f 94ac 6f3f 8543 1b40
000000e0: b01b 8b3f b444 ce3f 5534 0240 41a1 db3f
000000f0: 01a8 723f f6f8 903f c63e 8f3f 5556 dc3f

conv3.weight f4 [128, 64, 3]
4.9278e-41 -2.007473e-12 4.9313e-41 -3.397173e-19 -9.19549e-28 -2.7056067e-13 -2.3860422e-32 -1.3367883e-26
-4.951e-41 4.9048e-41 4.9065e-41 4.9249e-41 4.9309e-41 4.9337e-41 3.807e-41 4.9448e-41
6.0965e-41 -8.098432e-16 -6.041181e-39 4.9355e-41 5.5978e-41 -1.5779155e-21 4.9257e-41 -1.1852467e-25
4.9212e-41 4.9278e-41 4.9513e-41 -2.2709064e-23 -1.0658061e-24 -1.3113997e-30 4.9083e-41 -8.9322233e-26
-1.6338261e-16 5.0716e-41 -4.9443e-41 -1.0724588e-23 -1.5690769e-14 -2.4850342e-18 -9.172452e-19 4.9173e-41
4.9135e-41 4.9256e-41 -3.91959e-40 5.6865e-41 -2.8702953e-21 -4.146002e-24 -1.4320102e-25 4.9165e-41
4.9322e-41 4.9087e-41 4.9394e-41 -7.222978e-18 -1.1421417e-11 4.9263e-41 -1.5137158e-23 -4.3467663e-18
-4.936e-41 1.009e-42 4.9232e-41 4.9372e-41 -1.2777121e-16 -8.164716e-24 4.9504e-41 -8.3818215e-26
4.9316e-41 4.917e-41 -3.30702e-26 4.9153e-41 4.9242e-41 4.912e-41 4.9125e-41 4.9369e-41
-4.4913496e-24 -2.5722898e-33 -8.3259837e-13 4.918e-41 -2.3865862e-12 -2.8442157e-18 -3.316328e-25 4.9275e-41
-6.652e-42 4.9327e-41 4.9313e-41 4.9494e-41 -4.3651634e-17 -6.159391e-19 4.9148e-41 -3.054531e-25
4.9407e-41 4.925e-41 4.9208e-41 4.909e-41 -2.2140733e-21 -2.3413336e-26 -2.1012223e-14 -7.843409e-11
-4.490815e-39 -3.2714524e-27 -2.4366527e-23 -6.0076587e-28 3.999748e-36 -2.971483e-14 -3.5507964e-21 4.9236e-41
4.9336e-41 4.9298e-41 4.9417e-41 4.9176e-41 4.9282e-41 -5.058721e-24 -1.4694548e-29 -9.664324e-27
-1.5033586e-17 -8.443231e-33 4.9271e-41 4.9058e-41 4.9264e-41 -6.382094e-35 4.945e-41 4.9457e-41
-2.330377e-32 -3.894e-30 -2.1686905e-23 4.9477e-41 -4.2681035e-16 -5.7913794e-21 4.9225e-41 -2.7434803e-22
-1.6899182e-18 4.944e-41 -6.024926e-17 5.302e-41 4.9097e-41 4.9174e-41 4.945e-41 2.4002289e-35
4.9114e-41 -1.5290127e-38 4.9314e-41 4.9257e-41 4.9116e-41 4.9166e-41 -1.5145909e-11 -1.9627007e-20
-3.0059548e-23 4.9261e-41 4.9177e-41 -1.3230588e-38 4.949e-41 4.9251e-41 4.9372e-41 4.9229e-41
4.9218e-41 4.9355e-41 4.939e-41 4.9089e-41 4.923e-41 4.925e-41 -4.1642798e-32 -2.6933156e-20
-8.402813e-18 -7.0844214e-15 -1.0009407e-22 -1.5673893e-10 4.9047e-41 4.9047e-41 4.9068e-41 4.9062e-41
4.9316e-41 -4.4587686e-31 -4.9312e-41 -1.5423038e-30 4.9244e-41 -1.07661384e-13 4.937e-41 6.1794e-41
4.94e-41 4.9376e-41 4.9823e-41 4.9399e-41 -4.9106e-41 2.4648845e-35 4.9087e-41 4.9362e-41
4.9373e-41 -3.533898e-23 -4.2488527e-30 4.9392e-41 3.857e-41 4.9107e-41 4.9048e-41 4.9351e-41
-0.009174159 -0.08666886 0.09333666 0.12913445 -0.015602413 0.021898132 -0.032429304 -0.22561307
-0.049473893 -0.32384774 -0.3010363 -0.13375735 0.0021969657 0.00090448675 0.0009228905 -0.21899693
-0.11821951 0.071898386 0.065865256 0.025951093 -0.1274632 -0.15112227 -0.114972256 -0.15411437
0.18529499 0.035796117 -0.003081116 0.06556473 -0.06761521 -0.06689944 -0.0600506 -0.030573133
0.16095932 -0.30327445 -0.24306816 -0.1011252 0.022548849 0.1770434 -0.12532261 0.098624244
-0.08205478 -0.33289987 -0.07432951 -0.24033518 0.19532858 -0.07671096 -0.12575406 -0.07724245
-0.15082298 0.19081397 -0.05198274 0.0907527 -0.11613589 0.05089434 0.09954273 -0.078379415
-0.37964877 0.063469514 -0.20806807 0.095741466 -0.10520697 0.25898474 -0.11019554 -0.058217414
00000000: 5e89 0000 6b43 0dac 7789 0000 a088 c8a0
00000010: 57b5 9192 e74f 98aa e2c7 f78a 9c63 8494
00000020: 048a 0080 ba88 0000 c688 0000 4989 0000
00000030: 7489 0000 8889 0000 206a 0000 d789 0000
00000040: f2a9 0000 e26b 69a6 5bc8 4180 9589 0000
00000050: 0b9c 0000 a672 ee9c 4f89 0000 f8b9 1296
00000060: 2f89 0000 5e89 0000 068a 0000 eba0 db99
00000070: eeec a497 6ac9 d48d d388 0000 b126 dd95
00000080: 095e 3ca5 608d 0000 d489 0080 9671 4f99
00000090: 7354 8da8 f85c 37a2 8b5c 87a1 1389 0000
000000a0: f888 0000 4e89 0000 9f44 0480 849e 0000
000000b0: 96df 589d 0464 a098 3746 3196 0d89 0000
000000c0: 7d89 0000 d688 0000 b189 0000 8d3d 05a3
000000d0: 7ded 48ad 5389 0000 ca65 9299 0c5e a0a2
000000e0: 9889 0080 d002 0000 3d89 0000 a189 0000
000000f0: 684f 13a5 b7ed 1d99 ff89 0000 1b86 cf95
00000100: 7989 0000 1189 0000 75c1 2395 0589 0000
00000110: 4489 0000 ed88 0000 f188 0000 9f89 0000
00000120: 2cc0 ad98 8eb2 5589 095b 6aab 1889 0000
00000130: eaf0 27ac b7dd 51a2 5145 cd96 5c89 0000
00000140: 8b12 0080 8189 0000 7789 0000 f889 0000
00000150: c14e 49a4 0bcb 35a1 0189 0000 fa10 bd96
00000160: ba89 0000 4a89 0000 2c89 0000 d888 0000
00000170: 684a 279d dcdf e794 e342 bda8 787a acae
00000180: 91e6 3080 7898 8193 99a8 eb99 eb63 3e92
00000190: 6621 aa04 ded2 05a9 3225 869d 4089 0000
000001a0: 8789 0000 6c89 0000 c189 0000 1589 0000
000001b0: 6189 0000 25b3 c398 3a05 958f f26b 3f94
000001c0: 0da9 8aa3 eb5b 2f8a 5989 0000 c188 0000
000001d0: 5489 0000 48aa a986 d989 0000 de89 0000
000001e0: 0c00 f28a 9cf5 9d8e 2dbe d199 ec89 0000
000001f0: 170a f6a5 c9ca da9d 3889 0000 4dd5 a59b
00000200: 4e63 f9a1 d289 0000 e3ec 8aa4 cc93 0000
00000210: dd88 0000 1489 0000 d989 0000 723c ff05
00000220: e988 0000 a77e a680 7889 0000 4f89 0000
00000230: ea88 0000 0e89 0000 8e39 85ad 315f b99e
00000240: eb5b 119a 5289 0000 1689 0000 7f11 9080
00000250: f589 0000 4b89 0000 a189 0000 3b89 0000
00000260: 3389 0000 9589 0000 ae89 0000 d788 0000
00000270: 3c89 0000 4a89 0000 c638 588b 6060 fe9e
00000280: 2a01 1ba3 413e ffa7 3a03 f29a 1656 2caf
00000290: b988 0000 b988 0000 c888 0000 c488 0000
000002a0: 7989 0000 00b2 108d 7689 0080 cb40 fa8d
000002b0: 4689 0000 906e f2a9 a089 0000 42ac 0000
000002c0: b589 0000 a489 0000 e38a 0000 b489 0000
000002d0: e388 0080 450e 0306 d688 0000 9a89 0000
000002e0: a289 0000 8ae3 2a9a 9c5a ac8e af89 0000
000002f0: 846b 0000 e488 0000 ba88 0000 9289 0000
00000300: 364f 16bc 717f b1bd 4a27 bf3d d23b 043e
00000310: 43a1 7fbc b663 b33c 97d4 04bd 1d07 67be
00000320: 23a5 4abd 5fcf a5be 6e21 9abe b0f7 08be
00000330: f8fa 0f3b 141b 6d3a 22ee 713a bb40 60be
00000340: 121d f2bd 763f 933d 5de4 863d 6397 d43c
00000350: b785 02be ccbf 1abe 9376 ebbd 28d0 1dbe
00000360: f8bd 3d3e f39e 123d 8cec 49bb cd46 863d
00000370: d879 8abd 9302 89bd 9ef7 75bd 8274 fabc
00000380: 85d2 243e ca46 9bbe dce6 78be bb1a cfbd
00000390: 5db8 b83c dd4a 353e 9254 00be 82fb c93d
000003a0: 560c a8bd da71 aabe 123a 98bd 6d1a 76be
000003b0: 3704 483e a31a 9dbd acc5 00be 4a31 9ebd
000003c0: 5771 1abe bd64 433e dbeb 54bd 8ddc b93d
000003d0: a7d8 edbd 9576 503d 0fdd cb3d 6385 a0bd
000003e0: 5361 c2be 4efc 813d cc0f 55be 1a14 c43d
000003f0: c076 d7bd a699 843e 33ae e1bd 6275 6ebd

conv3.bias f4 [128]
-1.828509e-23 -0.016787793 -2.199439e-10 0.0897647 -0.16593261 0.089266084 0.11030875 0.08752262
0.053567268 0.04234949 -0.00037953464 0.08735778 0.2151085 0.05064798 0.103773646 0.006707352
0.05644557 0.06817402 -0.003773539 0.010264989 0.12410881 0.08519242 0.04870301 0.105743475
0.07486965 -1.2076324e-13 0.00070040964 -8.247233e-15 0.031523686 -0.0063913655 0.12627344 0.009220628
0.037460033 -4.931e-41 0.16710266 0.14912796 0.13885504 -0.04406788 -0.014045676 0.04970728
0.098860405 0.15973 -0.07226132 0.024941735 -0.09282074 0.05646078 0.078671224 0.13945784
0.04090008 0.07926561 0.11110012 -2.8227683e-07 0.091999814 -0.017360613 0.06210562 0.04589903
0.15820864 0.04582052 0.08556874 0.0069924747 0.17721505 -0.04404843 0.014303919 -0.014828992
0.11120477 0.014783514 0.04009628 0.054629266 0.01682205 -0.019133262 0.06712893 0.11951836
-0.015319928 0.031549424 0.08439878 0.08765132 0.032210156 -0.008909128 0.14090212 -0.04930219
0.03405145 0.11084259 -0.101029746 -2.9712588e-09 0.11770443 0.16409498 -0.0044883573 0.13435586
0.21442328 -0.03546798 0.04016852 0.035875678 0.088243775 0.05452916 -7.456251e-13 0.002870201
0.061143503 0.23268214 -0.0076583377 0.018998954 0.062605545 -0.16040055 0.097305074 0.10163414
0.037316937 0.09329723 0.15537867 0.04491051 0.19039768 -0.124644645 0.027536098 0.012696593
0.07402171 0.0010462165 0.07462398 -0.03350746 0.10125559 -0.042861376 -1.821877e-11 4.9357e-41
0.11108567 0.060105488 0.03168674 -2.3843701e-20 0.11853465 0.07361726 0.17512761 0.14148131
00000000: b1d7 b099 8e86 89bc b4d4 71af 8ed6 b73d
00000010: 3dea 29be 23d1 b63d 8ee9 e13d 0f3f b33d
00000020: 5a69 5b3d a976 2d3d 47fc c6b9 a3e8 b23d
00000030: 6745 5c3e 4274 4f3d 4787 d43d 59c9 db3b
00000040: 7833 673d d29e 8b3d 7b4d 77bb 7c2e 283c
00000050: c32c fe3d 5d79 ae3d cf7c 473d 0990 d83d
00000060: 4255 993d a2f7 07aa b29b 373a a691 14a8
00000070: fb1e 013d a96e d1bb d34d 013e 1e12 173c
00000080: b16f 193d 7589 0080 f61c 2b3e 00b5 183e
00000090: 0430 0e3e 8580 34bd d61f 66bc dc99 4b3d
000000a0: 5377 ca3d 4390 233e befd 93bd 9c52 cc3c
000000b0: cd18 bebd 6b43 673d 611e a13d 09ce 0e3e
000000c0: d886 273d 0256 a23d 7688 e33d d58b 97b4
000000d0: 666a bc3d d837 8ebc 7662 7e3d 9f00 3c3d
000000e0: 7201 223e 4cae 3b3d aa3e af3d 2121 e53b
000000f0: dd77 353e 206c 34bd fc5a 6a3c 4df5 72bc
00000100: 54bf e33d 8d36 723c ff3b 243d f0c2 5f3d
00000110: 65ce 893c 5cbd 9cbc e47a 893d 0bc6 f43d
00000120: 6f00 7bbc f839 013d 44d9 ac3d 8982 b33d
00000130: ccee 033d 97f7 11bc a548 103e 18f1 49bd
00000140: 8979 0b3d 7101 e33d afe8 cebd f02e 4cb1
00000150: 050f f13d 8408 283e 1213 93bb 9594 093e
00000160: c791 5b3e df46 11bd bf87 243d 60f2 123d
00000170: 27b9 b43d f859 5f3d f3df 51ab fb19 3c3b
00000180: 9c71 7a3d 3a44 6e3e cbf2 fabb b2a3 9b3c
00000190: 5637 803d 0b40 24be e247 c73d 8f25 d03d
000001a0: a5d9 183d 9e12 bf3d 961b 1f3e 15f4 373d
000001b0: 9cf7 423e b145 ffbd 6293 e13c 5f05 503c
000001c0: b298 973d 3321 893a 75d4 983d 1e3f 09bd
000001d0: 175f cf3d 698f 2fbd 0641 a0ad 9689 0000
000001e0: e280 e33d 2c31 763d f5c9 013d 8832 e19e
000001f0: 4bc2 f23d a5c4 963d a754 333e 7ae0 103e

se.fc.0.weight f4 [8, 128]
4.968e-41 8.315088e-05 5.6391e-41 -0.027646795 -0.027674412 -0.01798073 -0.02676374 -0.004347602
1.9803423e-05 -0.024889477 4.9218e-41 0.00010718762 -0.017684583 -0.029371379 -0.025871381 -0.025227189
-0.026959008 -0.008084678 5.7783e-41 -0.024609458 -0.02269667 0.00019949037 2.3803028e-05 -0.013386517
-0.025726337 -4.9131e-41 -4.937e-41 -4.947e-41 -0.029632134 -4.9512e-41 -0.02805776 0.00010001605
-3.439165e-05 4.933e-41 -0.0237215 -0.007734733 -0.025274698 0.00015678386 -0.02664467 -4.5826193e-05
2.6378333e-05 -0.026241679 -6.5509346e-05 -9.8552744e-05 1.6066977e-05 4.3124084e-05 -0.023341807 -2.164768e-05
-0.016720826 -0.027233358 -0.016502155 4.9523e-41 -0.021433769 -4.9344e-41 -0.029412445 -0.00012650638
-0.012192348 -0.0116329435 -0.025544025 -0.023203578 -4.5524932e-05 -3.0487809e-05 0.000120763085 0.00013637003
-0.00012099667 -0.00017560877 -0.026658662 -0.00018777826 2.8691927e-06 4.9257e-41 -0.01953172 -0.012866983
5.0716e-41 0.00023980998 -0.02432392 -0.01655291 -0.026570203 -0.0103083495 -0.016081305 -2.7202941e-05
-0.015095617 -0.025716448 3.8675124e-05 -4.9282e-41 -0.022710737 -0.028920146 5.2417e-41 1.6332675e-05
-0.021949349 -3.018228e-05 3.0703857e-05 0.000121018 -0.028999165 -0.024600722 -4.911e-41 -1.8436725e-06
-0.02517491 -0.01316313 -1.4403083e-05 -6.356121e-05 -0.028658036 -2.541304e-05 -0.019853009 -0.020259868
0.00015984853 -2.1579068e-05 -0.027309705 -5.864374e-05 -0.026741825 3.0323701e-05 9.0934795e-05 -0.029030764
-0.022600446 -9.720821e-08 0.000114522125 -4.5805136e-05 -0.021090196 3.1745362e-06 -4.9274e-41 4.9165e-41
-0.027821375 -0.036102287 -0.01793146 4.9348e-41 -0.03004827 -0.017580582 -0.01128027 -0.024027366
5.6289e-41 -5.308e-41 4.9099e-41 5.5613e-41 4.9424e-41 4.9144e-41 -4.906e-41 4.9181e-41
5.8172e-41 5.6882e-41 5.0179e-41 5.561e-41 -4.9286e-41 4.9103e-41 -4.9365e-41 4.9247e-41
-4.9584e-41 4.9606e-41 -6.239e-41 4.9518e-41 4.9322e-41 4.9616e-41 -4.914e-41 4.9494e-41
4.9228e-41 5.1527e-41 -5.0658e-41 5.1014e-41 4.9331e-41 5.0444e-41 -4.9179e-41 4.9284e-41
5.0323e-41 5.1877e-41 4.9109e-41 4.9453e-41 4.9172e-41 -4.9582e-41 4.9292e-41 -5.7808e-41
5.7549e-41 -4.9292e-41 -5.4798e-41 -5.4536e-41 -5.984e-41 -5.5759e-41 4.9296e-41 5.7783e-41
4.951e-41 -4.9485e-41 -4.9387e-41 -5.255e-41 -4.9477e-41 5.0838e-41 1.0724e-41 -4.9134e-41
-4.9338e-41 4.916e-41 -4.9333e-41 -5.1073e-41 -4.9777e-41 -5.1494e-41 -4.9443e-41 -4.951e-41
4.9117e-41 4.9082e-41 -4.9131e-41 4.9428e-41 -5.2808e-41 5.0185e-41 -4.9286e-41 4.9134e-41
6.0514e-41 -4.9436e-41 -4.9099e-41 -4.9446e-41 4.9404e-41 4.9073e-41 -4.9368e-41 4.9159e-41
4.9361e-41 4.9092e-41 5.3886e-41 5.1238e-41 4.9323e-41 -4.937e-41 -5.987e-41 4.9418e-41
-4.948e-41 4.9169e-41 5.8259e-41 4.9401e-41 4.9278e-41 4.954e-41 5.2067e-41 5.1969e-41
4.9131e-41 4.9331e-41 -4.9232e-41 -6.2841e-41 5.9086e-41 5.5804e-41 -4.9421e-41 -4.9089e-41
-4.9456e-41 4.9519e-41 -4.9329e-41 -4.9973e-41 4.9554e-41 4.9191e-41 -6.2354e-41 4.9082e-41
-4.9403e-41 -5.791e-41 5.986e-41 -4.9086e-41 -4.913e-41 5.358e-41 -5.3656e-41 -4.9319e-41
4.9522e-41 -1.632472e-13 -4.9093e-41 -5.2479e-41 -5.7424e-41 -4.9588e-41 4.9572e-41 4.9544e-41
00000000: 7d8a 0000 4a61 ae38 329d 0000 887b e2bc
00000010: 73b5 e2bc 534c 93bc a23f dbbc 5476 8ebb
00000020: 871f a637 04e5 cbbc 3389 0000 eac9 e038
00000030: 42df 90bc 3f9c f0bc 38f0 d3bc 40a9 cebc
00000040: 23d9 dcbc 9975 04bc 13a1 0000 c699 c9bc
00000050: 5eee b9bc 4a2e 5139 9dac c737 1f53 5bbc
00000060: 0ac0 d2bc f588 0080 a089 0080 e789 0080
00000070: 17bf f2bc 058a 0080 63d9 e5bc b5bf d138
00000080: c13f 10b8 8389 0000 9753 c2bc a573 fdbb
00000090: e20c cfbc 5966 2439 ec45 dabc 8035 40b8
000000a0: 0a47 dd37 caf8 d6bc 1062 89b8 1aae ceb8
000000b0: 92c7 8637 22e0 3438 5137 bfbc 0a98 b5b7
000000c0: 1dfa 88bc 7e18 dfbc 872f 87bc 0d8a 0000
000000d0: df95 afbc 8d89 0080 5ef2 f0bc cca6 04b9
000000e0: 6ac2 47bc 1a98 3ebc b441 d1bc 6e15 bebc
000000f0: 06f2 3eb8 12c0 ffb7 3042 fd38 8dfe 0e39
00000100: 98bf fdb8 9f23 38b9 4463 dabc 58e6 44b9
00000110: 5b8c 4036 4f89 0000 fc00 a0bc 0ad0 52bc
00000120: 608d 0000 8075 7b39 f542 c7bc f899 87bc
00000130: c1a9 d9bc 5ae4 28bc f1bc 83bc df31 e4b7
00000140: 9b53 77bc 4dab d2bc 1937 2238 6189 0080
00000150: de0b babc f1e9 ecbc 1e92 0000 2702 8937
00000160: 1fcf b3bc f42f fdb7 04c8 0038 0bcb fd38
00000170: a88f edbc 7487 c9bc e688 0080 1b74 f7b5
00000180: 9d3b cebc 2baa 57bc c5a4 71b7 2a4c 85b8
00000190: 42c4 eabc 162e d5b7 c7a2 a2bc 06f8 a5bc
000001a0: 039d 2739 b204 b5b7 9ab8 dfbc 3df8 75b8
000001b0: ac11 dbbc a75f fe37 3fb4 be38 edd1 edbc
000001c0: 9224 b9bc c7c0 d0b3 992b f038 e41e 40b8
000001d0: 59c5 acbc 1e0a 5536 5b89 0080 0d89 0000
000001e0: a7e9 e3bc fedf 13bd ffe4 92bc 9089 0000
000001f0: ca27 f6bc 2705 90bc e2d0 38bc 0ad5 c4bc
00000200: e99c 0000 f793 0080 de88 0000 079b 0000
00000210: c689 0000 fe88 0000 c288 0080 1989 0000
00000220: 29a2 0000 909e 0000 e18b 0000 059b 0000
00000230: 6489 0080 e188 0000 9c89 0080 4889 0000
00000240: 388a 0080 488a 0000 ebad 0080 098a 0000
00000250: 7d89 0000 4f8a 0000 fb88 0080 f889 0000
00000260: 3a89 0000 a38f 0000 378d 0080 358e 0000
00000270: 8489 0000 9e8c 0000 1789 0080 6289 0000
00000280: 488c 0000 9d90 0000 e588 0000 db89 0000
00000290: 1289 0000 378a 0080 6889 0000 25a1 0080
000002a0: 6ca0 0000 6889 0080 c198 0080 0698 0080
000002b0: cfa6 0080 6f9b 0080 6b89 0000 13a1 0000
000002c0: 048a 0000 f289 0080 ac89 0080 7d92 0080
000002d0: ec89 0080 b78d 0000 e51d 0000 f788 0080
000002e0: 8989 0080 0a89 0000 8589 0080 5f8e 0080
000002f0: c28a 0080 8b8f 0080 d489 0080 048a 0080
00000300: eb88 0000 d288 0000 f588 0080 c989 0000
00000310: 3593 0080 e58b 0000 6489 0080 f788 0000
00000320: b0a8 0000 cf89 0080 de88 0080 d689 0080
00000330: b889 0000 cc88 0000 9e89 0080 0989 0000
00000340: 9989 0000 d988 0000 3696 0000 d58e 0000
00000350: 7e89 0000 a089 0080 e5a6 0080 c289 0000
00000360: ee89 0080 1089 0000 67a2 0000 b689 0000
00000370: 5e89 0000 198a 0000 2491 0000 de90 0000
00000380: f588 0000 8489 0000 3d89 0080 2daf 0080
00000390: b5a4 0000 8f9b 0000 c489 0080 d788 0080
000003a0: dd89 0080 0a8a 0000 8289 0080 4e8b 0080
000003b0: 238a 0000 2089 0000 d1ad 0080 d288 0000
000003c0: b789 0080 6ea1 0080 dea6 0000 d588 0080
000003d0: f488 0080 5c95 0000 9295 0080 7b89 0080
000003e0: 0c8a 0000 cdcc 37aa da88 0080 4a92 0080
000003f0: 13a0 0080 3b8a 0080 308a 0000 1c8a 0000

se.fc.0.bias f4 [8]
-0.032011434 1.674266e-39 -6.714156e-24 -0.024587039 -1.4867797e-09 -0.001931582 0.029016515 -0.048124366
00000000: 6c1e 03bd 2c3b 1200 e4de 0199 c26a c9bc
00000010: 6957 ccb0 232d fdba 0bb4 ed3c 0e1e 45bd

se.fc.2.weight f4 [128, 8]
-5.074e-41 4.9242e-41 -4.9815e-41 -2.449284e-24 -4.9323e-41 -4.9726e-41 -2.0172518e-23 -3.5257938e-27
0.0041955947 -5.0974e-41 6.2585e-41 -0.057076897 4.9057e-41 -1.01946336e-26 0.35432297 0.34691402
-4.9138e-41 -5.7109e-41 -4.9362e-41 -1.0608464e-07 4.9051e-41 1.2406e-41 -1.6207147e-07 -3.4391622e-08
-0.023879249 -4.9373e-41 4.9369e-41 -0.29758993 9.237941e-13 -4.843471e-10 -0.4188707 -0.051612318
-0.0030828097 -5.035e-41 5.2769e-41 -0.434755 8.532919e-16 -4.8287e-07 0.120247334 -0.1736322
-0.018743064 4.9715e-41 5.5053e-41 0.15792647 -4.9453e-41 -1.12832e-37 -0.0877145 0.24013308
-0.031298187 -4.9352e-41 -4.9432e-41 -0.23457962 1.8402197e-13 -4.05617e-06 -0.32667884 -0.2268446
-0.014063507 -4.9401e-41 -5.0007e-41 -0.26079878 6.322837e-14 -2.2117089e-05 -0.11753862 -0.09185219
-0.0012588296 -4.9823e-41 5.0279e-41 0.22919725 4.939e-41 6.9004325e-38 0.14097498 0.26227635
-0.026109044 -4.9422e-41 -4.9194e-41 -0.24243633 7.63118e-11 -9.118001e-08 -0.16398725 -0.103534624
5.0116e-41 -4.964e-41 4.9338e-41 -2.4911791e-05 -4.9434e-41 4.9654e-41 -3.718913e-05 -8.650049e-06
-0.018126573 -4.9584e-41 -5.0314e-41 -0.18348221 4.934e-41 -9.948701e-07 0.1339989 -0.103088364
-0.02585476 4.9497e-41 -5.093e-41 -0.049914163 2.6201203e-12 -7.7300935e-12 -0.12597308 -0.1811608
-0.02999198 4.9438e-41 4.9635e-41 -0.24213292 5.489485e-11 1.1264605e-09 -0.41838664 -0.19304277
-0.02107364 -4.9229e-41 -4.9504e-41 -0.3497838 1.3778591e-13 -5.219995e-07 -0.021574598 -0.21386799
-0.025296004 4.9413e-41 4.9443e-41 -0.050832544 5.8821205e-11 -1.2501497e-08 -0.3596502 -0.34740537
-0.026571004 -4.9295e-41 -5.3652e-41 -0.3407691 1.2221967e-12 -3.0411591e-12 -0.03548047 -0.2866708
-0.0022807817 4.9258e-41 -5.5218e-41 0.17027508 -4.9372e-41 4.9747e-41 0.15873063 0.20313764
4.9355e-41 -5.2924e-41 4.9446e-41 -0.0043905056 6.0693e-41 -4.9934e-41 -0.00471875 -0.0035273258
-0.0244022 4.9317e-41 4.949e-41 -0.005064649 5.5800586e-11 -8.024914e-07 -0.27633202 0.052042007
-0.020529816 -4.9854e-41 -5.031e-41 -0.056308195 1.9915558e-18 -3.1366547e-08 0.27468705 -0.0899988
-0.021798661 4.969e-41 -5.8353e-41 -0.044484302 1.7161805e-15 -7.5787376e-08 -0.14152214 0.12939683
-0.018262656 -5.578e-41 5.1855e-41 0.1324254 4.9076e-41 -2.9629932e-09 0.11865884 -0.13699663
-0.019173704 -4.9167e-41 4.9767e-41 -0.064773135 2.5197336e-18 -3.944819e-15 -0.27839026 -0.1219174
-0.02824899 -4.9334e-41 -4.926e-41 -0.25109652 7.049716e-10 -3.4835427e-06 -0.3181862 -0.18889822
-4.9513e-41 -4.9329e-41 4.9181e-41 -6.1217334e-17 4.9455e-41 -5.6303e-41 -3.251359e-17 -3.7461533e-18
-4.9652e-41 -4.912e-41 -4.9577e-41 -0.0007720137 -4.9387e-41 -4.9746e-41 -0.00089572964 -0.0004314759
4.9903e-41 4.9675e-41 4.9047e-41 4.936e-41 4.9118e-41 4.9588e-41 4.9288e-41 -4.9464e-41
-0.029886857 4.921e-41 -4.906e-41 -0.11126459 3.0515443e-10 -1.0455004e-05 -0.41161674 -0.368131
-4.9577e-41 -5.6175e-41 4.9068e-41 -0.015623823 -4.9654e-41 4.9236e-41 -0.016167155 -0.013167996
-0.025903573 -4.9187e-41 4.9253e-41 -0.39073277 1.2568155e-10 -2.5336968e-07 -0.11220673 -0.35263672
-0.026941009 4.922e-41 4.9421e-41 -0.2662511 1.0947219e-14 -2.6774321e-06 -0.016320063 -0.11399934
00000000: 718d 0080 4489 0000 dd8a 0080 1181 3d98
00000010: 7e89 0080 9e8a 0080 bc18 c399 ccab 8b93
00000020: 337b 893b 188e 0080 76ae 0000 77c9 69bd
00000030: c088 0000 efec 4994 d269 b53e b79e b13e
00000040: fa88 0080 329f 0080 9a89 0080 a6d0 e3b3
00000050: bc88 0000 9522 0000 de05 2eb4 fdb5 13b3
00000060: 6a9e c3bc a289 0080 9f89 0000 b55d 98be
00000070: 3103 822b e622 05b0 3876 d6be 7067 53bd
00000080: f708 4abb 5b8c 0080 1993 0000 3598 debe
00000090: d4f1 7526 939e 01b5 3c44 f63d a4cc 31be
000000a0: 0e8b 99bc 968a 0000 7799 0000 7ab7 213e
000000b0: db89 0080 3794 1982 a9a3 b3bd 72e5 753e
000000c0: 8732 00bd 9389 0080 cc89 0080 a435 70be
000000d0: b930 4f2a 3c1a 88b6 7342 a7be f349 68be
000000e0: a06a 66bc b689 0080 668b 0080 6b87 85be
000000f0: ac60 8e29 1688 b9b7 17b8 f0bd 001d bcbd
00000100: 50ff a4ba e38a 0080 288c 0000 afb2 6a3e
00000110: ae89 0000 ffd8 bb01 bf5b 103e 1649 863e
00000120: a2e2 d5bc c589 0080 2289 0080 3b41 78be
00000130: b9cf a72e bece c3b3 46ec 27be f609 d4bd
00000140: b48b 0000 608a 0080 8989 0000 aaf9 d0b7
00000150: cd89 0080 6a8a 0000 86fb 1bb8 ad1f 11b7
00000160: 2e7e 94bc 388a 0080 418c 0080 c3e2 3bbe
00000170: 8a89 0000 7a87 85b5 0237 093e fe1f d3bd
00000180: 5dcd d3bc fa89 0000 f98d 0080 cb72 4cbd
00000190: e45f 382c 3ffd 07ad 16ff 00be 3782 39be
000001a0: beb1 f5bc d089 0000 5d8a 0000 b1f1 77be
000001b0: 1b6e 712e ced1 9a30 c636 d6be 01ad 45be
000001c0: a0a2 acbc 3b89 0080 ff89 0080 dd16 b3be
000001d0: 1622 1b2a 881f 0cb5 36bd b0bc 3600 5bbe
000001e0: 9139 cfbc be89 0000 d489 0000 c935 50bd
000001f0: 6559 812e 2ac6 56b2 1224 b8be 1edf b1be
00000200: 6fab d9bc 6a89 0080 8f95 0080 4a79 aebe
00000210: 4702 ac2b a700 56ac f853 11bd 84c6 92be
00000220: 2b79 15bb 5089 0000 ed99 0080 975c 2e3e
00000230: a189 0080 ad8a 0000 488a 223e 5003 503e
00000240: 9589 0000 8893 0080 d689 0000 3bde 8fbb
00000250: 30a9 0000 328b 0080 be9f 9abb b52a 67bb
00000260: 1fe7 c7bc 7a89 0000 f589 0000 5bf5 a5bb
00000270: e069 752e ca6a 57b5 647b 8dbe 002a 553d
00000280: 252e a8bc f98a 0080 3e8c 0080 6ca3 66bd
00000290: 6df3 1222 e2b7 06b3 c8a3 8c3e 4a51 b8bd
000002a0: 1b93 b2bc 848a 0000 aaa2 0080 2c35 36bd
000002b0: e353 f726 8dc0 a2b3 2eeb 10be 9a80 043e
000002c0: 919b 95bc 7e9b 0080 8d90 0000 869a 073e
000002d0: ce88 0000 879d 4bb1 6803 f33d d848 0cbe
000002e0: 2c12 9dbc 0f89 0080 bb8a 0000 c7a7 84bd
000002f0: 6cec 3922 8920 8ea7 2b89 8ebe d4af f9bd
00000300: 6d6a e7bc 8689 0080 5189 0080 b98f 80be
00000310: f7c7 4130 cfc6 69b6 4de9 a2be 896e 41be
00000320: 068a 0080 8289 0080 1989 0000 5628 8da4
00000330: dc89 0000 f39c 0080 46f1 15a4 6b35 8aa2
00000340: 698a 0080 ed88 0080 338a 0080 f660 4aba
00000350: ac89 0080 ac8a 0080 66cf 6aba b737 e2b9
00000360: 1c8b 0000 798a 0000 b988 0000 9889 0000
00000370: ec88 0000 3b8a 0000 6589 0000 e389 0080
00000380: 48d5 f4bc 2d89 0000 c288 0080 b0de e3bd
00000390: abc2 a72f e667 2fb7 6ebf d2be ab7b bcbe
000003a0: 338a 0080 989c 0080 c888 0000 10fb 7fbc
000003b0: 6a8a 0080 4089 0000 fb70 84bc 94be 57bc
000003c0: bb33 d4bc 1d89 0080 4c89 0000 200e c8be
000003d0: 3630 0a2f dd06 88b4 a4cc e5bd cd8c b4be
000003e0: 64b3 dcbc 3589 0000 c489 0000 1052 88be
000003f0: 2335 4528 efad 33b6 a7b1 85bc 7c78 e9bd

se.fc.2.bias f4 [128]
-4.9393e-41 0.32622308 -6.849254e-19 -0.19012664 -0.67945236 0.18056971 -0.02767546 0.0931339
0.068898566 -0.2975375 -1.503061e-11 0.05821633 -0.067120545 0.016223544 0.059837542 -0.16708015
0.22524083 -0.067932844 -0.00013061681 -0.25135863 -0.1840754 -0.19489324 0.072323345 0.049900554
0.02802377 4.9322e-41 -1.5189258e-07 4.9539e-41 -0.12715344 -0.0024074807 0.17732105 0.14625026
0.28641894 -4.928e-41 0.13063481 0.27720577 -0.05880489 0.2270484 0.13357198 0.21030997
0.2315438 -0.19088489 0.3513721 0.21642864 0.20784396 0.29149932 -0.0859117 0.3598014
0.038075928 0.21062684 0.23282649 -3.3737853e-35 0.07483426 -0.059274938 0.22434396 0.104746126
-0.02011772 -0.041853063 -0.010407132 0.19670857 -0.02035756 -0.020315427 0.006917611 0.21942978
0.31570062 -0.24219652 0.3204562 0.06785127 0.10651694 -0.021337561 0.014628061 0.08639312
-0.025344694 -0.086761765 -0.21418326 0.12376001 -0.1259364 -0.07083335 -0.25539517 0.2675239
-0.24534567 -0.1749202 0.14647377 -6.4113222e-18 0.032445025 0.20948894 -0.0023259958 0.14630269
0.20839952 0.1611472 0.12717599 -0.04773716 0.19488816 0.028625896 5.1458e-41 0.15120521
-0.24306719 -0.001416906 0.05475173 0.11067897 -0.19120423 0.09779875 -0.25675637 0.0018618745
-0.20320733 0.22458309 -0.0031150747 0.31732154 0.15921755 0.14552616 0.19182912 0.009126059
-0.069818236 0.29342183 0.20469497 0.27066723 0.21970539 0.20818456 -4.932e-41 -4.9169e-41
-0.05607528 0.071379535 -0.23034278 -4.935e-41 -0.17277816 0.06991305 -0.19790713 0.28282994
00000000: b089 0080 b606 a73e 8027 4aa1 8fb0 42be
00000010: 97f0 2dbf 44e7 383e a5b7 e2bc fcbc be3d
00000020: b11a 8d3d d656 98be ed35 84ad 3f74 6e3d
00000030: 7f76 89bd 3de7 843c 3618 753d 0f17 2bbe
00000040: 88a5 663e 6020 8bbd 2ff6 08b9 14b2 80be
00000050: 437e 3cbe 1892 47be 431e 943d 8664 4c3d
00000060: 1b92 e53c 7d89 0000 ea17 23b4 188a 0000
00000070: 8334 02be d3c6 1dbb a693 353e a1c2 153e
00000080: 81a5 923e 5f89 0080 22c5 053e eaed 8d3e
00000090: 65dd 70bd 607f 683e 18c7 083e 7f5b 573e
000000a0: d119 6d3e 5477 43be 0be7 b33e 789f 5d3e
000000b0: 0cd5 543e 663f 953e 79f2 afbd e437 b83e
000000c0: 81f5 1b3d 90ae 573e 116a 6e3e 9661 3386
000000d0: b442 993d 47ca 72bd 6cba 653e 2385 d63d
000000e0: ebcd a4bc 1e6e 2bbd ad82 2abc f96d 493e
000000f0: e6c4 a6bc 8a6c a6bc 21ad e23b 33b2 603e
00000100: 83a3 a13e 5d02 78be d612 a43e 9bf5 8a3d
00000110: 8e25 da3d 1ccc aebc 89aa 6f3c e0ee b03d
00000120: ad9f cfbc 27b0 b1bd db52 5bbe e375 fd3d
00000130: 79f5 00be 1311 91bd 28c3 82be e5f8 883e
00000140: e53b 7bbe 481e 33be 38fd 153e 3a89 eca2
00000150: 13e5 043d 4584 563e bc6f 18bb 5fd0 153e
00000160: af66 553e c603 253e 6c3a 023e 0a88 43bd
00000170: c390 473e db80 ea3c 728f 0000 8ad5 1a3e
00000180: 9be6 78be 7ab7 b9ba 5a43 603d a8ab e23d
00000190: 0bcb 43be b64a c83d 9275 83be 240a f43a
000001a0: 9515 50be 1cf9 653e 4826 4cbb f877 a23e
000001b0: ed09 233e cf04 153e da6e 443e 7785 153c
000001c0: ddfc 8ebd 633b 963e 8f9b 513e e594 8a3e
000001d0: 73fa 603e 552e 553e 7c89 0080 1089 0080
000001e0: 31af 65bd 6f2f 923d fade 6bbe 9189 0080
000001f0: c2ec 30be 932e 8f3d 2ba8 4abe 16cf 903e

embedding.weight f4 [2, 8]
0.30979064 -0.3014044 -0.677602 0.59296936 0.5299645 0.39819327 -0.3453909 -0.5752423
0.26625833 -0.37055972 -0.3613547 0.43553177 0.5796127 0.5279775 -0.44197038 -0.75733596
00000000: e19c 9e3e ad51 9abe 5377 2dbf d7cc 173f
00000010: c1ab 073f fddf cb3e 13d7 b0be 1443 13bf
00000020: 0353 883e 01ba bdbe 7c03 b9be 05fe de3e
00000030: 7f61 143f 8929 073f f149 e2be c5e0 41bf
