checkpoints_kfold/fold1_best_model.pth (torch, 228335 bytes, 23 tensors)

conv1.weight f4 [32, 1, 5]
0.30547166 0.41134968 -0.12611072 0.29091358 -0.30790624 0.11546476 -0.27150884 0.15051445
0.4524869 -0.2937035 0.38293093 0.11361734 0.17411509 -0.047382146 0.32044402 -0.057956856
0.3587154 -0.032966424 -0.26003134 0.14720632 -0.3026768 -0.0768391 -0.27147126 0.29892707
-0.37784252 -0.25688997 -0.08839064 -0.19531912 -0.19350511 -0.29673606 0.32705545 -0.56588495
0.268062 0.023367291 -0.11453547 0.25782847 0.006244276 0.3688901 -0.012550347 -0.22170387
0.21560857 -0.07372852 0.07835103 0.4033787 0.30429593 -0.30357057 0.18281706 -0.033006135
0.20814368 -0.4241877 -0.48516312 -0.15704137 -0.3407201 0.35882658 0.2320786 0.2474874
0.07862561 -0.0789085 0.14183983 -0.5511667 0.03593415 -0.4166673 0.14427304 -0.25487158
0.17296721 -0.07253403 0.36982352 -0.2741688 -0.33393168 -0.38207355 0.3452986 0.110694334
0.3791112 -0.5616022 -0.4409624 -0.48187935 -0.33790895 0.25901255 0.1637835 0.22557107
-0.31601885 -0.3580869 0.20598353 -0.33090594 0.21850014 -0.13693102 0.2423999 -0.3790817
-0.25155756 0.23273087 0.065590374 -0.18630213 0.20197628 0.19545798 -0.516851 -0.28040773
0.41151816 -0.17942756 -0.12566572 -0.51959896 -0.2913889 0.19269213 0.03936154 -0.4230742
-0.07388038 -0.29141316 -0.30176452 -0.0831682 -0.29646084 -0.30937025 0.37515864 0.05538393
0.065617085 -0.561474 -0.37537086 -0.19350713 0.055984918 -0.3263242 -0.36250237 -0.30432355
-0.13980216 -0.2702647 0.08072487 -0.3521081 -0.44981962 -0.29669836 -0.28992987 -0.29844555
0.38452002 -0.10113214 0.41742828 0.07674762 -0.44768113 0.28112414 -0.15810625 -0.15883014
-0.45614034 -0.4116978 0.13189751 -0.2702551 0.13098362 -0.43797538 0.3167645 -0.3608362
-0.13161187 0.120723955 0.25587636 0.32843408 0.22832125 -0.51616293 0.12379438 -0.20989731
-0.12990695 -0.3528284 0.4249643 -0.46319482 0.15934063 0.17359632 0.06632357 -0.35419443
00000000: c866 9c3e 6d9c d23e 2b23 01be a0f2 943e
00000010: e3a5 9dbe ca78 ec3d 3503 8bbe 7620 1a3e
00000020: 5dac e73e 4e60 96be 860f c43e 35b0 e83d
00000030: 3a4b 323e c813 42bd 3d11 a43e 2b64 6dbd
00000040: 8ba9 b73e cd07 07bd d422 85be 41bd 163e
00000050: 74f8 9abe d15d 9dbd 48fe 8abe f80c 993e
00000060: 9374 c1be 1587 83be 2706 b5bd bc01 48be
00000070: 3426 46be caed 97be d073 a73e d6dd 10bf
00000080: 6c3f 893e c36c bf3c 9391 eabd 1802 843e
00000090: c99c cc3b 2adf bc3e f89f 4dbc 5706 63be
000000a0: 7ec8 5c3e fafe 96bd 8176 a03d a787 ce3e
000000b0: adcc 9b3e 9a6d 9bbe 6534 3b3e 7131 07bd
000000c0: 9e23 553e 212f d9be 4d67 f8be 74cf 20be
000000d0: dd72 aebe 1eb8 b73e 03a6 6d3e 566d 7d3e
000000e0: 7706 a13d c89a a1bd 763e 113e 4319 0dbf
000000f0: b02f 133d 6b55 d5be 50bc 133e 877e 82be
00000100: 511e 313e b98c 94bd 8259 bd3e da5f 8cbe
00000110: 18f9 aabe 259f c3be faca b03e b6b3 e23d
00000120: dd1a c23e 29c5 0fbf d3c5 e1be e4b8 f6be
00000130: 6702 adbe 4b9d 843e ddb6 273e 1afc 663e
00000140: 39cd a1be 2b57 b7be 59ed 523e 816c a9be
00000150: 80be 5f3e a537 0cbe ae37 783e ff16 c2be
00000160: 27cc 80be 0051 6e3e 3f54 863d fcc5 3ebe
00000170: dfd2 4e3e 2326 483e 5950 04bf 9a91 8fbe
00000180: 82b2 d23e dcbb 37be 84ae 00be 7004 05bf
00000190: ed30 95be 1651 453e 9139 213d 2e9d d8be
000001a0: 994e 97bd 1b34 95be e180 9abe 1754 aabd
000001b0: b7c9 97be c765 9ebe cb14 c03e 43da 623d
000001c0: 4062 863d c3bc 0fbf 9c30 c0be bc26 46be
000001d0: 7150 653d f713 a7be e999 b9be 4cd0 9bbe
000001e0: 4c28 0fbe 2260 8abe 1553 a53d 8347 b4be
000001f0: c24e e6be d9e8 97be b071 94be dbcd 98be
00000200: cfdf c43e 5e1e cfbd 29b9 d53e db2d 9d3d
00000210: 7636 e5be 81ef 8f3e 9be6 21be 5ea4 22be
00000220: 3a8b e9be 0eca d2be 2410 073e e05e 8abe
00000230: 9220 063e 4f3e e0be f52e a23e 86bf b8be
00000240: 43c5 06be 1f3e f73d 3a02 833e 8328 a83e
00000250: 0ccd 693e 4123 04bf e887 fd3d 52ef 56be
00000260: 5406 05be eda5 b4be ec94 d93e df27 edbe
00000270: 312a 233e 3cc3 313e a7d4 873d f958 b5be

conv1.bias f4 [32]
-0.0015922288 0.000279217 -0.00070373475 0.0014096174 -0.0023128823 -0.00012123913 -0.0008638057 0.0005576503
-0.0019641821 -0.001696753 0.0034366606 -0.00093962194 0.0016694274 0.0018449783 -0.00058981456 0.0011950299
0.0008326387 -0.004300468 -0.0030401899 0.00015512502 -0.001301913 0.0008662491 -0.0019054959 -0.000296533
-0.0029501468 0.0025431814 -0.00052382634 0.0017969623 0.00011249237 -0.00051375496 -0.00095430086 -0.0006852386
00000000: 55b2 d0ba df63 9239 d77a 38ba e9c2 b83a
00000010: ba93 17bb c341 feb8 0571 62ba 472f 123a
00000020: 82b9 00bb 9565 deba 9939 613b f650 76ba
00000030: b0d0 da3a 33d3 f13a c99d 1aba 8da2 9c3a
00000040: 7045 5a3a f1ea 8cbb ec3d 47bb 0ea9 2239
00000050: f4a4 aaba fe14 633a d5c1 f9ba fc77 9bb9
00000060: 4057 41bb 81ab 263b 6451 09ba 0d88 eb3a
00000070: e2e9 eb38 83ad 06ba 0c2a 7aba 96a1 33ba

bn1.weight f4 [32]
0.46970755 0.6336812 0.26111796 0.7826069 1.1132528 1.1215909 0.7818007 0.35678244
0.62451494 0.7600118 0.9140627 0.7652784 0.79008037 1.1545459 0.81208324 0.8669864
0.9344872 1.0194179 0.93105227 1.0184429 1.2805691 1.1904594 0.96892226 1.273833
1.3998319 0.99165595 0.69291663 1.6543739 0.79547155 0.58567256 0.90889966 0.7868466
00000000: 827d f03e ee38 223f 41b1 853e ed58 483f
00000010: 117f 8e3f 4a90 8f3f 1724 483f 30ac b63e
00000020: 36e0 1f3f 2290 423f 0300 6a3f 49e9 433f
00000030: b542 4a3f 29c8 933f b0e4 4f3f d2f2 5d3f
00000040: 8e3a 6f3f 497c 823f 7159 6e3f 565c 823f
00000050: b0e9 a33f f960 983f 4a0b 783f f60c a33f
00000060: b12d b33f 2add 7d3f fc62 313f 86c2 d33f
00000070: 06a4 4b3f a3ee 153f a6ad 683f c76e 493f

bn1.bias f4 [32]
-0.72434884 -0.55932826 -0.57802576 -0.44286653 0.30971444 0.32219613 -0.33207193 -0.7736353
-0.8641914 0.86173445 0.4194964 0.548436 0.49972975 0.4497231 -0.06734909 0.29197848
0.6851554 0.14717048 -0.2768544 0.24912775 0.48381695 0.34025308 0.65149486 0.4161686
0.37716752 0.23861521 -0.4327568 0.38236392 0.672453 -0.6939019 0.68661517 0.6364068
00000000: ed6e 39bf 2330 0fbf 7ff9 13bf 67bf e2be
00000010: e492 9e3e e4f6 a43e 5505 aabe f70c 46bf
00000020: a63b 5dbf a19a 5c3f 3bc8 d63e 4d66 0c3f
00000030: 94dc ff3e 1b42 e63e 52ee 89bd 347e 953e
00000040: 5866 2f3f dcb3 163e dcbf 8dbe 581b 7f3e
00000050: dbb6 f73e a735 ae3e 5ec8 263f 0d14 d53e
00000060: 1a1c c13e 8c57 743e 4d92 ddbe 34c5 c33e
00000070: e125 2c3f 8ea3 31bf 03c6 2f3f 8eeb 223f

bn1.running_mean f4 [32]
0.0037532041 0.0010173004 0.006833792 -0.00035249043 -0.00636633 -0.0068689305 -1.1067624e-05 0.0025473188
0.0056002564 -0.002874511 -0.0017743466 -0.003006154 -0.0018783694 -0.0028347569 -0.0014913769 -0.0010004543
-0.003156314 -0.0037163002 -0.0018956165 -0.004771119 -0.0026615767 -0.008566073 -0.0038973384 -0.0068516885
-0.012035321 -0.0022858107 0.0004182545 -0.006365675 -0.0028437183 0.0028717513 -0.00038577197 -0.0023130756
00000000: 51f8 753b f056 853a 01ee df3b 77ce b8b9
00000010: a69c d0bb c414 e1bb 15af 39b7 ebf0 263b
00000020: 5b82 b73b 4b62 3cbb 3191 e8ba e502 45bb
00000030: 9e33 f6ba 54c7 39bb 4e7a c3ba ad21 83ba
00000040: 29da 4ebb 2c8d 73bb 5676 f8ba 0c57 9cbb
00000050: d96d 2ebb b758 0cbc 7d6a 7fbb 2184 e0bb
00000060: cc2f 45bc 8acd 15bb 2b49 db39 2797 d0bb
00000070: ad5d 3abb fe33 3c3b 7041 cab9 f896 17bb

bn1.running_var f4 [32]
0.00063329947 0.00037260767 0.0006621659 0.00020898247 0.0006130797 0.00069868116 0.00050821295 0.00033084766
0.0006648134 0.00037518443 0.00066531793 0.00042663567 0.00034694275 0.00066930003 0.00081327 0.00052349904
0.00059152837 0.00035248 0.00037131767 0.0007349474 0.00041400865 0.0010692979 0.0007237534 0.0009352786
0.0009508787 0.00056976447 0.00047960514 0.0010823834 0.0005709844 0.0005781955 0.00036928264 0.00041317916
00000000: 0204 263a 8e5a c339 3495 2d3a 4e22 5b39
00000010: 15b7 203a b327 373a 9839 053a 9f75 ad39
00000020: df46 2e3a 67b4 c439 bb68 2e3a 12ae df39
00000030: dee5 b539 f773 2f3a a031 553a 6d3b 093a
00000040: cc10 1b3a 11cd b839 6aad c239 7ca9 403a
00000050: 4d0f d939 af27 8c3a 45ba 3d3a 7c2d 753a
00000060: 6444 793a 3f5c 153a 8373 fb39 c3de 8d3a
00000070: 1dae 153a 0b92 173a 479c c139 f89f d839

conv2.weight f4 [64, 32, 5]
0.0651177 0.07144901 -0.12482583 -0.089391336 0.10424289 -0.024157792 -0.024533197 0.034046456
-0.037746683 -0.22753756 0.010799537 0.030821752 0.07993365 -0.004908168 0.06872085 -0.14530654
-0.016833035 -0.08539239 -0.12481981 -0.10280623 0.07807462 -0.07210984 0.18620199 0.07556783
0.1336395 0.043155003 -0.056819137 0.13102713 -0.027078053 0.19351286 -0.1193212 0.123991966
-0.04866599 0.057203345 0.0476393 -0.02811019 0.060078252 -0.029106706 -0.017994408 0.06802427
-0.010369983 0.023510797 -0.01319852 0.13975592 -0.06452078 -0.049629863 -0.07755248 -0.060505006
0.046512753 0.0011573974 -0.16922054 -0.08343307 0.03818476 0.06303399 -0.12900051 -0.10976097
0.124820314 -0.048650224 -0.090457514 -0.0150194755 -0.0013465039 0.086139746 -0.07667985 0.024987828
0.016964342 0.088464506 -0.18528807 0.021021131 -0.009190307 0.08170206 -0.15434061 -0.0056144916
-0.023776611 0.02692814 -0.11628992 -0.03902536 -0.15094985 0.001881147 -0.06094378 -0.22300342
-0.040190756 0.14374699 -0.040472366 -0.049051374 -0.059745576 0.076641 -0.22143605 -0.2222602
-0.02361381 -0.29463944 -0.06164392 0.031629708 -0.026117584 -0.17387827 -0.27391696 0.03635063
-0.042671222 0.06139967 -0.027855119 0.10329625 -0.1518043 -0.049269352 0.11945435 -0.005467038
0.124907896 -0.0053737904 -0.08901009 0.046549354 -0.019908613 0.1722238 -0.1392618 -0.33842605
-0.08313935 0.074728765 0.090523295 0.03779867 -0.12178721 0.027863678 -0.017248716 0.24383901
0.009694794 -0.118426874 -0.006747531 -0.0060991994 0.07170126 -0.17524245 -0.036277913 0.10256359
0.031095933 -0.031513333 0.027048633 0.038224526 0.027854504 -0.109353594 -0.05957792 -0.110329024
-0.06113145 0.0019507018 -0.043200787 0.19177547 0.022430034 -0.1608 0.027275834 0.07089936
0.19312517 -0.028600922 0.06825149 -0.09674106 -0.043903623 0.05520052 -0.10690202 -0.30966988
-0.12828603 -0.060968377 -0.14266925 -0.038065977 0.034725588 -0.08403401 0.05771922 0.09503419
-0.03996529 0.02581623 -0.07252419 -0.032590773 0.056152694 0.002796188 -0.12650521 0.17268501
0.14538948 -0.11305628 -0.009050092 -0.023987314 -0.048906345 -0.0833541 -0.07360379 -0.14748314
-0.070266195 0.12984553 0.22794895 -0.026153684 -0.13594192 0.019563248 -0.10968615 -0.021327218
-0.047892667 0.252394 0.22833584 -0.119649574 -0.1744581 -0.24691251 0.093339235 -0.083406284
0.0037036173 0.1594897 -0.25805902 -0.22424558 -0.027076723 0.111216694 -0.12992877 -0.17535977
0.101610295 -0.0010603014 0.026778195 -0.13087776 -0.19584124 -0.059992902 -0.12512551 -0.07881205
-0.032840982 -0.014077382 -0.010049238 -0.042476773 0.03599439 -0.28028256 -0.4027209 -0.12833805
-0.21592256 -0.058201157 0.10041326 -0.071029805 0.03352501 -0.008841394 0.052321117 -0.28391862
0.079861 -0.04075637 0.19790201 0.18830119 -0.22614038 0.021844491 -0.31145385 -0.069132335
0.20065908 0.15248288 -0.005920009 -0.012188355 -0.09980903 0.05287026 0.17098142 0.031189684
-0.18090571 0.07426761 0.06390924 -0.14126447 -0.07508988 -0.15733638 0.028565047 0.07228547
0.061937395 0.15237135 -0.10801335 -0.16588448 0.060701735 0.054004136 -0.1435474 -0.13257574
00000000: 6e5c 853d dc53 923d afa4 ffbd ce12 b7bd
00000010: 4c7d d53d 90e6 c5bc d8f9 c8bc 4c74 0b3d
00000020: 449c 1abd 9bff 68be 8bf0 303c e67d fc3c
00000030: 41b4 a33d b3d4 a0bb 84bd 8c3d 3dcb 14be
00000040: 6fe5 89bc 35e2 aebd 87a1 ffbd 138c d2bd
00000050: 96e5 9f3d 53ae 93bd bcab 3e3e 4ec3 9a3d
00000060: cbd8 083e 4dc3 303d 2fbb 68bd fa2b 063e
00000070: cbd2 ddbc 3c28 463e ac5e f4bd 80ef fd3d
00000080: fd55 47bd 0e4e 6a3d 6d21 433d 5747 e6bc
00000090: 9d14 763d 3071 eebc 0269 93bc 4f50 8b3d
000000a0: dce6 29bc b799 c03c 9b3e 58bc 2d1c 0f3e
000000b0: 7923 84bd af48 4bbd d6d3 9ebd 19d4 77bd
000000c0: 2884 3e3d d0b3 973a 2648 2dbe f5de aabd
000000d0: 9f67 1c3d f717 813d b618 04be 5cca e0bd
000000e0: cba1 ff3d 7545 47bd ca41 b9bd 3f14 76bc
000000f0: 2c7d b0ba 096a b03d 530a 9dbd 46b3 cc3c
00000100: cef8 8a3c e12c b53d 28bc 3dbe 8234 ac3c
00000110: f192 16bc 6953 a73d 770b 1ebe c5f9 b7bb
00000120: 2bc7 c2bc 6798 dc3c 6929 eebd 0ed9 1fbd
00000130: 9992 1abe d290 f63a 2fa0 79bd 025b 64be
00000140: 109f 24bd 6932 133e 5ac6 25bd 18ea 48bd
00000150: c7b7 74bd f5f5 9c3d 22c0 62be 2e98 63be
00000160: c071 c1bc fbda 96be 567e 7cbd 278e 013d
00000170: 8bf4 d5bc 250d 32be d83e 8cbe 66e4 143d
00000180: 05c8 2ebd 387e 7b3d 6b30 e4bc fc8c d33d
00000190: 9672 1bbe a9ce 49bd 7ba4 f43d d724 b3bb
000001a0: b6cf ff3d 9f16 b0bb ec4a b6bd 89aa 3e3d
000001b0: 6317 a3bc 705b 303e a59a 0ebe 2e46 adbe
000001c0: f744 aabd 650b 993d 4764 b93d c7d2 1a3d
000001d0: 936b f9bd 5e42 e43c 2e4d 8dbc efb0 793e
000001e0: ead6 1e3c ca89 f2bd 641a ddbb cbdb c7bb
000001f0: 1cd8 923d c272 33be 2698 14bd dc0c d23d
00000200: e6bc fe3c 2014 01bd 1895 dd3c 5291 1c3d
00000210: 212f e43c c7f4 dfbd fa07 74bd 2ff4 e1bd
00000220: f964 7abd b1ae ff3a 4ff3 30bd ca60 443e
00000230: 31bf b73c c1a8 24be 9271 df3c af33 913d
00000240: 9bc2 453e 7b4c eabc 70c7 8b3d 2d20 c6bd
00000250: 49d4 33bd f119 623d 72ef dabd 0d8d 9ebe
00000260: 6a5d 03be fab9 79bd e317 12be 12eb 1bbd
00000270: 6b3c 0e3d 061a acbd fd6a 6c3d 49a1 c23d
00000280: a5b2 23bd 8f7c d33c 9087 94bd e77d 05bd
00000290: 5e00 663d 4040 373b 958a 01be 57d4 303e
000002a0: fbe0 143e 0d8a e7bd d646 14bc 0b81 c4bc
000002b0: 0552 48bd 8eb5 aabd 95bd 96bd d205 17be
000002c0: b9e7 8fbd 3af6 043e 736b 693e 4040 d6bc
000002d0: 5c34 0bbe 1b43 a03c 22a3 e0bd 6bb6 aebc
000002e0: 1a2b 44bd c939 813e dfd0 693e d60a f5bd
000002f0: 25a5 32be a2d6 7cbe a428 bf3d ead0 aabd
00000300: 63b8 723b 4551 233e 5020 84be a2a0 65be
00000310: 01d0 ddbc 94c5 e33d 0c0c 05be 8391 33be
00000320: 0f19 d03d d0f9 8aba f25d db3c d204 06be
00000330: 9b8a 48be 1ebb 75bd e720 00be 3668 a1bd
00000340: 4484 06bd d2a4 66bc 8fa5 24bc 20fc 2dbd
00000350: da6e 133d 3281 8fbe 6f31 cebe 0d6b 03be
00000360: ce1a 5dbe 5664 6ebd 78a5 cd3d 1378 91bd
00000370: 8551 093d 7fdb 10bc ab4e 563d c85d 91be
00000380: 2a8e a33d 27f0 26bd d3a6 4a3e 07d2 403e
00000390: 5891 67be 38f3 b23c e176 9fbe 4195 8dbd
000003a0: 9379 4d3e 7924 1c3e a3fc c1bb abb1 47bc
000003b0: ad68 ccbd 7c8e 583d c115 2f3e 8281 ff3c
000003c0: 593f 39be 9e19 983d d9e2 823d a2a7 10be
000003d0: b9c8 99bd ca1c 21be 3f01 ea3c 680a 943d
000003e0: 11b2 7d3d 3c07 1c3e 1a36 ddbd 9fdd 29be
000003f0: 62a2 783d 7133 5d3d 17fe 12be efc1 07be

conv2.bias f4 [64]
2.8782903e-05 -4.524331e-06 5.6902732e-05 0.00013070996 7.669159e-05 -2.7428585e-05 -1.4770533e-05 5.606175e-05
0.00014467875 1.761846e-05 4.4024124e-05 1.5675316e-05 -5.363648e-06 8.258443e-05 -1.234861e-05 4.800804e-05
-8.862501e-05 -7.5640855e-05 3.27356e-05 4.4153352e-05 -2.5093703e-05 3.455788e-05 6.108244e-05 -0.00010464282
0.00011931118 -7.508732e-08 3.8693262e-05 1.9547935e-05 -7.739655e-06 -7.046689e-05 -2.0123456e-05 -0.00011613764
7.935149e-05 -0.00013334815 1.1416348e-05 -1.733987e-05 -1.4395104e-05 8.203307e-07 8.351386e-05 -1.1448432e-05
-0.0001106385 4.353471e-05 -0.00013603987 -5.0280774e-05 -7.648111e-05 1.0375376e-06 -3.8569015e-05 -3.1834687e-05
-0.00027104336 -3.375039e-06 8.550183e-06 -1.0452504e-05 -2.7230824e-06 -7.555281e-05 -8.310238e-05 -7.240468e-06
-3.9459268e-05 -5.377499e-06 4.366834e-05 3.2250045e-05 -3.7686306e-05 2.0214115e-05 9.9213e-05 -8.493252e-05
00000000: d072 f137 b5cf 97b6 d8aa 6e38 300f 0939
00000010: 7cd5 a038 7016 e6b7 f5ce 77b7 d823 6b38
00000020: e8b4 1739 5bcb 9337 8ba6 3838 7c7e 8337
00000030: 63f9 b3b6 2e31 ad38 e02c 4fb7 3e5c 4938
00000040: 31dc b9b8 60a1 9eb8 954d 0938 4d31 3938
00000050: 5180 d2b7 3ef2 1038 6319 8038 b073 dbb8
00000060: b436 fa38 b13f a1b3 934a 2238 dffa a337
00000070: 91d9 01b7 a0c7 93b8 cbce a8b7 ec8e f3b8
00000080: 8269 a638 5fd3 0bb9 d788 3f37 1675 91b7
00000090: 8082 71b7 b234 5c35 2a24 af38 a412 40b7
000000a0: 9806 e8b8 0a99 3638 eda5 0eb9 92e4 52b8
000000b0: 7c64 a0b8 8541 8b35 2ac5 21b8 3c86 05b8
000000c0: d31a 8eb9 ba7e 62b6 c272 0f37 2a5d 2fb7
000000d0: 33be 36b6 1b72 9eb8 4047 aeb8 26f3 f2b6
000000e0: 1181 25b8 5d70 b4b6 8628 3738 3944 0738
000000f0: 5d11 1eb8 7b91 a937 9310 d038 cd1d b2b8

bn2.weight f4 [64]
1.117738 1.262973 1.0377719 0.9442048 1.2460768 0.9278024 1.2615149 1.1726325
1.4580723 0.93352276 1.2825451 1.0832134 1.1640955 0.9994485 1.0369998 1.1719795
0.94072104 0.89896154 1.0069654 0.8856818 0.9295359 1.2478541 1.014927 1.0162252
1.1060475 0.8455645 1.0653259 0.9540739 1.1029814 0.93909353 1.5513691 0.97535115
1.2190615 0.9888123 1.2996128 0.96456546 1.4191549 1.1098675 1.0517261 1.0031345
1.3574268 1.0900952 1.0531328 1.1914297 1.2624233 1.0681726 1.0571247 0.9375921
0.86185026 1.1672212 1.3723812 1.1657387 0.9044876 1.0879824 1.4320636 1.1169693
1.3865916 0.99343973 0.86854035 1.256187 1.3145659 1.3530092 1.1153485 0.886754
00000000: 0a12 8f3f 19a9 a13f b6d5 843f 68b7 713f
00000010: 727f 9f3f 7584 6d3f 5279 a13f d218 963f
00000020: 1da2 ba3f 59fb 6e3f 702a a43f bda6 8a3f
00000030: 1501 953f dbdb 7f3f 69bc 843f 6d03 963f
00000040: 18d3 703f 5822 663f 3ee4 803f 0bbc 623f
00000050: 11f6 6d3f afb9 9f3f 21e9 813f ab13 823f
00000060: f792 8d3f ea76 583f 995c 883f 303e 743f
00000070: 7f2e 8d3f 6f68 703f 4393 c63f 9db0 793f
00000080: 350a 9c3f ce22 7d3f b659 a63f c3ed 763f
00000090: dea6 b53f 2310 8e3f f69e 863f b666 803f
000000a0: 29c0 ad3f 3d88 8b3f 0ecd 863f c580 983f
000000b0: 1697 a13f e1b9 883f dd4f 873f 0906 703f
000000c0: 38a2 5c3f 8167 953f 30aa af3f ed36 953f
000000d0: 808c 673f 0243 8b3f dc4d b73f daf8 8e3f
000000e0: d57b b13f 1152 7e3f a958 5e3f bcca a03f
000000f0: b243 a83f 682f ad3f bdc3 8e3f 4f02 633f

bn2.bias f4 [64]
0.15047844 -0.1259374 -0.46255183 -0.4770577 -0.18599977 -0.26000625 0.0035320737 -0.10939713
-0.06997869 -0.26553494 -0.111838914 -0.23722248 -0.030020693 0.046555992 -0.28221524 -0.2035771
-0.5849761 -0.27383208 -0.092156276 -0.023871234 -0.11430266 0.014527762 0.018668178 -0.06401822
-0.07114391 -0.47030246 -0.16334285 -0.61353374 0.0052049835 -0.071265206 -0.16338092 -0.11911755
0.058759812 -0.06696554 0.059889268 -0.2484447 -0.065288454 0.08467885 -0.17691162 -0.06324501
-0.016186485 -0.23817329 -0.31230542 -0.041844018 0.04563149 -0.054601658 -0.017077977 -0.29877135
-0.45623323 -0.031133791 -0.03771149 -0.17256522 -0.20750572 -0.4322772 0.09554472 -0.06806554
0.11572858 0.025306081 -0.100202456 0.04795512 -0.11325417 -0.06790482 -0.11152909 -0.41537708
00000000: 0517 1a3e bcf5 00be 98d3 ecbe e840 f4be
00000010: b976 3ebe 8a1f 85be 5d7a 673b 9a0b e0bd
00000020: fd50 8fbd 32f4 87be cd0b e5bd 73ea 72be
00000030: f5ed f5bc 7fb1 3e3d 847e 90be 8476 50be
00000040: fec0 15bf b833 8cbe 6ebc bcbd 9b8d c3bc
00000050: 8317 eabd da05 6e3c 02ee 983c fc1b 83bd
00000060: e6b3 91bd 7ccb f0be 5943 27be 8c10 1dbf
00000070: 918e aa3b 7ef3 91bd 544d 27be e7f3 f3bd
00000080: 21ae 703d 3b25 89bd 734e 753d 4a68 7ebe
00000090: f4b5 85bd 1b6c ad3d 5228 35be 9a86 81bd
000000a0: 8599 84bc b3e3 73be 7fe6 9fbe a264 2bbd
000000b0: 16e8 3a3d fda5 5fbd 1de7 8bbc 8ff8 98be
000000c0: 6797 e9be 4b0c ffbc 5d77 1abd f0b4 30be
000000d0: 617c 54be 7053 ddbe f3ac c33d f265 8bbd
000000e0: 1b03 ed3d b34e cf3c f236 cdbd 976c 443d
000000f0: cdf1 e7bd af11 8bbd 5d69 e4bd 4eac d4be

bn2.running_mean f4 [64]
-1.3206857 -3.17734 1.4034096 -2.0761323 -3.1383362 -3.0632148 -2.8285382 -0.09242991
-2.4906235 -0.7487516 -4.4060616 0.6438263 -3.0155349 -1.6727262 1.7302805 -2.1384635
-3.8979144 -1.8022405 2.4724624 -1.1500859 -2.5810742 -2.0833657 1.225425 -1.2106713
-2.023774 -0.72050846 -2.9248772 -0.028271701 -0.60456395 -2.1507456 -2.7085967 -1.2065523
-2.1622577 0.39806846 -0.8655743 0.1238698 0.08046699 0.043194447 -2.308974 -2.5113788
-1.1502285 -2.17289 -1.7661991 -2.624057 -0.826077 -1.0278144 0.0631342 -2.0404148
-2.7840965 1.6523085 -2.1876376 -1.1433 1.506197 -1.3028847 0.6331705 -2.3483844
-1.9135524 -4.1787877 -0.83431095 -2.753008 -3.9851573 -0.34905457 2.7618525 -0.94030076
00000000: 3b0c a9bf 8a59 4bc0 eda2 b33f 5adf 04c0
00000010: 80da 48c0 b60b 44c0 c506 35c0 e54b bdbd
00000020: 6066 1fc0 2fae 3fbf 75fe 8cc0 cdd1 243f
00000030: 86fe 40c0 e41b d6bf d579 dd3f 96dc 08c0
00000040: 6e77 79c0 d1af e6bf d33c 1e40 0436 93bf
00000050: 5230 25c0 dd55 05c0 bada 9c3f 47f7 9abf
00000060: 8385 01c0 3e73 38bf 3031 3bc0 0e9a e7bc
00000070: b4c4 1abf d1a5 09c0 a659 2dc0 4e70 9abf
00000080: 6e62 0ac0 a1cf cb3e 4796 5dbf 73af fd3d
00000090: e1cb a43d a9ec 303d 3bc6 13c0 6eba 20c0
000000a0: b03a 93bf a110 0bc0 d012 e2bf 8df0 27c0
000000b0: c879 53bf 6c8f 83bf 814c 813d 2896 02c0
000000c0: a32e 32c0 d87e d33f 4102 0cc0 a857 92bf
000000d0: 10cb c03f edc4 a6bf 7617 223f ee4b 16c0
000000e0: 49ef f4bf a1b8 85c0 6795 55bf 4831 30c0
000000f0: d10c 7fc0 48b7 b2be 31c2 3040 8db7 70bf

bn2.running_var f4 [64]
2.2638128 1.7037872 0.50633043 0.6348101 0.8083033 0.60172594 1.235141 1.7693747
1.5557697 0.68344957 1.7332685 0.7876399 1.2465879 0.6710245 1.2324891 1.2608081
0.6888386 0.7250338 0.9629715 0.6277452 0.67468834 1.5630342 0.99358004 0.97349286
1.2796278 0.5511309 1.1390617 1.0703094 1.898046 1.0355172 1.7859824 0.79279304
1.4531068 0.9679294 1.937237 0.7045072 2.284844 1.8208187 0.9434305 1.4366848
2.0357444 0.989064 1.0477608 1.2588252 1.3725866 0.8906668 1.155695 0.7518176
0.4127176 1.095852 1.559148 1.6033616 0.7480633 0.94055456 2.5658224 1.1290188
1.8545222 0.85923916 0.76114404 1.4254755 1.656414 1.8061545 0.84214985 0.591468
00000000: 4fe2 1040 b315 da3f df9e 013f ea82 223f
00000010: f7ec 4e3f b60a 1a3f 1a19 9e3f df7a e23f
00000020: 7623 c73f 8df6 2e3f bedb dd3f c5a2 493f
00000030: 3190 9f3f 43c8 2b3f 34c2 9d3f 2962 a13f
00000040: ba57 303f d19b 393f 4d85 763f e9b3 203f
00000050: 60b8 2c3f 8111 c83f 435b 7e3f d436 793f
00000060: d8ca a33f ea16 0d3f c6cc 913f e6ff 883f
00000070: 2cf3 f23f d48b 843f 129b e43f 7cf4 4a3f
00000080: 67ff b93f 39ca 773f 62f7 f73f 955a 343f
00000090: e23a 1240 9610 e93f a984 713f 4ae5 b73f
000000a0: a349 0240 4c33 7d3f 071d 863f 2f21 a13f
000000b0: ebb0 af3f bd02 643f d0ed 933f 1e77 403f
000000c0: b94f d33e e144 8c3f 2992 c73f f43a cd3f
000000d0: 1481 3f3f 2fc8 703f 6f36 2440 b083 903f
000000e0: fc60 ed3f 19f7 5b3f 56da 423f fb75 b63f
000000f0: 6005 d43f 1230 e73f 2297 573f 726a 173f

conv3.weight f4 [128, 64, 3]
0.14983961 -0.10174513 -0.48573938 -0.11483631 0.067122534 0.24762486 0.09751937 0.05374596
-0.093755744 0.061422467 -0.12525411 0.24065429 0.13291799 0.11158936 -0.33454648 -0.05561085
0.021219056 -0.10418123 -0.15032376 0.05413021 0.17900783 -0.12715334 0.015723517 -0.056818824
-0.25290263 0.06787319 -0.0228168 -0.013978681 0.08192992 -0.23494561 -0.015813965 -0.13416493
0.34218037 -0.07845912 -0.10007035 -0.16845286 0.045998942 0.13717301 0.08080753 -0.03402317
0.07638475 0.031406075 -0.2367127 0.21498652 -0.112042084 0.081240274 -0.2976288 0.21483073
0.13417843 0.08827788 0.15486777 -0.16517478 -0.06063487 0.09172778 -0.23373058 -0.10220958
0.070231944 -0.41800347 -0.0120531935 -0.16041118 0.10046834 -0.031437386 -0.37574065 0.3695555
-0.07293803 0.10812167 -0.052958954 -0.054860685 0.045562536 -0.19994453 0.13780533 0.087210625
0.059911847 -0.11683822 -0.2420062 -0.033706084 -0.013728091 -0.26286525 0.18939401 -0.09911746
0.31236827 0.13111177 -0.4399801 -0.038427334 0.047308933 -0.08698446 -0.22790869 -0.17917709
0.15181893 -0.29126465 -0.10014962 0.0055984603 -0.3259212 -0.04709177 0.07809724 -0.3165685
-0.19994022 -0.107658535 -0.117409445 -0.07736668 0.19779803 -0.0574158 0.19721036 0.064036764
-0.30905166 -0.055430785 -0.09868825 0.038334914 0.25716805 -0.12625702 -0.3127695 -0.2625276
0.025517756 -0.015094653 -0.91431683 0.124466285 -0.08656006 -0.08988631 0.11355819 -0.10833108
-0.35228923 -0.03368682 0.23743084 0.061352383 -0.08572107 0.053572692 -0.15526758 -0.076513775
-0.34765884 0.07800212 0.08663174 -0.20758964 0.14279887 -0.09164176 0.17407319 -0.06880035
-0.12896052 0.11830218 0.044972986 -0.014729856 0.019260256 0.14211684 -0.14017765 -0.04647707
0.273234 0.013180757 0.02271915 0.087112024 0.075881675 -0.023592737 -0.15716878 -0.14728741
-0.69483835 -0.050814997 -0.23569693 0.11624765 -0.12136025 0.052706815 -0.19948786 0.19623576
0.0017152713 -0.14280032 0.06892062 -0.19593503 -0.13415056 -0.019139342 -0.3297601 0.1360378
-0.042299286 -0.0063756015 0.17189075 0.12695464 -0.10877652 0.12142853 0.11707008 0.022947794
0.34966233 0.13850524 -0.31390944 -0.16701558 0.19058329 0.03709939 -0.017672762 0.11547849
0.063225985 -0.16438289 0.032155737 0.012482015 -0.3105135 0.14503969 -0.03780464 -0.12033485
0.047548056 0.038952976 0.10637134 0.060611613 -0.087491825 -0.058227114 -0.08110475 0.08956276
0.15172045 -0.064170435 0.0085569965 -0.25971478 0.0275526 0.099979535 -0.0209433 0.037785448
0.0014283233 0.12019076 0.13656104 -0.060992654 0.03375349 0.08212082 0.14155285 0.056058932
0.037992176 -0.108478345 0.12794888 0.020318473 -0.006589759 0.14790675 0.18211986 0.02531294
-0.035798848 -0.022934759 -0.04440536 -0.09971873 0.1238756 0.12051613 -0.010147678 -0.1690769
0.006164275 -0.22580683 0.0518866 -0.19495298 0.04651822 -0.1401876 0.11071983 -0.22593212
0.08228038 -0.06256976 0.059058096 -0.014601654 -0.02576128 0.050257884 -0.031009289 0.0047838064
-0.0056495676 -0.21782427 0.033926647 0.04313699 -0.08598573 0.12156027 -0.09753065 -0.006702609
00000000: 8e6f 193e c05f d0bd d5b2 f8be 4d2f ebbd
00000010: 8a77 893d 5f91 7d3e 3cb8 c73d b924 5c3d
00000020: 0303 c0bd 2096 7b3d 9d42 00be 146e 763e
00000030: a71b 083e f688 e43d ad49 abbe 34c8 63bd
00000040: 96d3 ad3c f85c d5bd 79ee 19be a4b7 5d3d
00000050: d44d 373e 7c34 02be 9bce 803c dbba 68bd
00000060: 747c 81be 1901 8b3d 4cea babc d606 65bc
00000070: e0ca a73d 9595 70be 4a8c 81bc 8862 09be
00000080: 4432 af3e 2daf a0bd aff1 ccbd e87e 2cbe
00000090: 6369 3c3d 1577 0c3e 6b7e a53d e15b 0bbd
000000a0: 9c6f 9c3d a8a3 003d d064 72be 6d25 5c3e
000000b0: 5276 e5bd 4d61 a63d cd62 98be 96fc 5b3e
000000c0: 1266 093e 08cb b43d a895 1e3e 9423 29be
000000d0: 455c 78bd c6db bb3d 1257 6fbe 4253 d1bd
000000e0: c4d5 8f3d 8d04 d6be c27a 45bc d442 24be
000000f0: 58c2 cd3d 7dc4 00bd 1461 c0be 6136 bd3e
00000100: 8960 95bd e56e dd3d 7deb 58bd 99b5 60bd
00000110: c89f 3a3d 42be 4cbe d71c 0d3e 7c9b b23d
00000120: 2066 753d e048 efbd 79d0 77be 640f 0abd
00000130: c9eb 60bc 4696 86be 81f0 413e 18fe cabd
00000140: bcee 9f3e 2a42 063e 1245 e1be fb65 1dbd
00000150: 03c7 413d e924 b2bd e560 69be 337a 37be
00000160: 6c76 1b3e a420 95be 3e1b cdbd 4a73 b73b
00000170: 25df a6be 4de3 40bd 72f1 9f3d 4415 a2be
00000180: 21bd 4cbe 147c dcbd 5d74 f0bd 6c72 9ebd
00000190: 918b 4a3e d42c 6bbd 83f1 493e b525 833d
000001a0: 053c 9ebe 640b 63bd 111d cabd 1205 1d3d
000001b0: 88ab 833e 8549 01be 5323 a0be 056a 86be
000001c0: 9d0a d13c 904f 77bc ab10 6abf 2ee8 fe3d
000001d0: 6746 b1bd 5016 b8bd 3291 e83d afdc ddbd
000001e0: 415f b4be 31fb 09bd 1221 733e a34c 7b3d
000001f0: 878e afbd 0a6f 5b3d 77fe 1ebe 41b3 9cbd
00000200: 5700 b2be 93bf 9f3d fb6b b13d 6192 54be
00000210: de39 123e adae bbbd 3e40 323e 33e7 8cbd
00000220: 3a0e 04be 6a48 f23d 9835 383d 7e55 71bc
00000230: afc7 9d3c 1487 113e bb8a 0fbe bd5e 3ebd
00000240: 54e5 8b3e 1af4 573c 831d ba3c ca67 b23d
00000250: da67 9b3d 8e45 c1bc daf0 20be 83d2 16be
00000260: ede0 31bf 6323 50bd 895a 71be 3f13 ee3d
00000270: b98b f8bd 1ae3 573d 8c46 4cbe 07f2 483e
00000280: f4d2 e03a 3f3a 12be 4126 8d3d 31a3 48be
00000290: c45e 09be 1cca 9cbc 51d6 a8be 7e4d 0b3e
000002a0: 0442 2dbd 6cea d0bb 2104 303e 6600 023e
000002b0: 39c6 debd 85af f83d 70c2 ef3d 03fd bb3c
000002c0: f106 b33e 51d4 0d3e bdb8 a0be 2206 2bbe
000002d0: 4428 433e 88f5 173d 78c6 90bc fd7f ec3d
000002e0: a07c 813d fd53 28be bcb5 033d 5e81 4c3c
000002f0: a0fb 9ebe 4985 143e 0ad9 1abd 1e72 f6bd
00000300: c0c1 423d 288d 1f3d 38d9 d93d e243 783d
00000310: ea2e b3bd 8e7f 6ebd 3f1a a6bd ae6c b73d
00000320: 9b5c 1b3e ca6b 83bd a532 0c3c 56f9 84be
00000330: fdb5 e13c 12c2 cc3d 4991 abbc eac4 1a3d
00000340: 9436 bb3a 9326 f63d a8d6 0b3e 6fd3 79bd
00000350: 1941 0a3d f62e a83d 3bf3 103e 0d9e 653d
00000360: af9d 1b3d e529 debd 0805 033e ed72 a63c
00000370: e8ee d7bb de74 173e a17d 3a3e 155d cf3c
00000380: d0a1 12bd ade1 bbbc 65e2 35bd 5539 ccbd
00000390: 7eb2 fd3d 29d1 f63d 7242 26bc 7f22 2dbe
000003a0: b0fd c93b e839 67be 0b87 543d c1a1 47be
000003b0: e489 3e3d 578d 0fbe 14c1 e23d c05a 67be
000003c0: 9e82 a83d 9324 80bd e7e6 713d c73b 6fbc
000003d0: 5209 d3bc 36db 4d3d 3107 febc 7ac1 9c3b
000003e0: 0220 b9bb 530d 5fbe abf6 0a3d 6ab0 303d
000003f0: 4919 b0bd 97f4 f83d 26be c7bd 8fa1 dbbb

conv3.bias f4 [128]
-0.03523514 0.093229115 0.06425762 0.09092878 -0.004831214 0.06630506 0.09605831 -0.19898966
0.097354375 0.010981753 0.085968785 -0.010774679 0.06473861 0.07036618 0.03999868 0.14469874
0.0956951 0.12891114 0.09457695 0.13563746 0.095003136 0.07915523 0.06784895 0.1268268
0.08448079 -0.024351912 0.13884085 -6.314431e-06 0.054651152 -0.013715815 0.08079943 0.09139804
0.022946818 0.022700781 0.092400365 -0.20638667 0.08882592 -0.070833735 -5.778051e-32 0.078258514
0.10570065 -0.0011932686 -0.0053982493 -0.09466882 4.9502e-41 0.046968278 0.004846829 -0.043177888
0.012087474 0.053237554 -8.1007514e-14 0.035727143 0.093695164 0.05504545 0.015965058 -0.0013810042
0.096413955 0.12381993 0.011745324 0.090242915 0.07955442 0.03183273 0.07123374 0.009327102
0.053634886 0.02755831 0.14094523 0.017703623 0.09466712 0.19401386 0.076076604 0.11575101
-0.0017882981 -0.008331926 0.117833294 -0.06941828 0.0943471 -0.018641496 -0.0012558919 0.106231436
-0.18606424 0.07633584 -0.056907404 0.06765498 -0.061276358 -0.024173822 0.01861387 0.087511934
-0.115776084 0.06363602 0.08343228 0.07614801 -0.2580705 0.10142285 -1.2956065e-38 0.0903827
0.08381586 -0.012533492 0.051229224 0.052367996 0.20536882 0.070201986 0.057265848 0.04487926
0.10273816 0.0814859 0.05069855 0.04971801 -0.097941525 0.062495794 -0.026248273 -0.1015722
0.114760734 0.062452924 0.074720606 0.15874304 0.05817636 -0.16348705 -0.029668337 0.06732757
0.08847781 -2.8978058e-05 0.09628629 0.09179077 0.10158441 0.039115828 0.16942684 0.047460213
00000000: b952 10bd e8ee be3d 8099 833d de38 ba3d
00000010: 294f 9ebb f3ca 873d 38ba c43d f2c3 4bbe
00000020: bb61 c73d cfec 333c 6710 b03d 4788 30bc
00000030: ad95 843d 251c 903d a8d5 233d e82b 143e
00000040: cbfb c33d 4801 043e 8fb1 c13d 8ce4 0a3e
00000050: 0191 c23d 231c a23d 64f4 8a3d e2de 013e
00000060: 4404 ad3d a97d c7bc 4c2c 0e3e 8de0 d3b6
00000070: e3d9 5f3d 4cb8 60bc 2c7a a53d e52e bb3d
00000080: f7fa bb3c fdf6 b93c 673c bd3d 0757 53be
00000090: 5dea b53d 4711 91bd bc01 968b 0046 a03d
000000a0: 9579 d83d 7367 9cba cce3 b0bb bae1 c1bd
000000b0: fe89 0000 cf61 403d 26d2 9e3b 4cdb 30bd
000000c0: 8a0a 463c 9f0f 5a3d a769 b6a9 a056 123d
000000d0: 40e3 bf3d 5677 613d 27c9 823c d002 b5ba
000000e0: ae74 c53d 4e95 fd3d 766f 403c 47d1 b83d
000000f0: 6eed a23d 0963 023d ffe2 913d b4d0 183c
00000100: 41b0 5b3d f7c1 e13c f253 103e 3007 913c
00000110: d6e0 c13d 92ab 463e 0dce 9b3d de0e ed3d
00000120: 5465 eaba a182 08bc 9552 f13d 2c2b 8ebd
00000130: 0d39 c13d 0db6 98bc bd9c a4ba de8f d93d
00000140: a087 3ebe f755 9c3d bd17 69bd b28e 8a3d
00000150: ebfc 7abd 2e08 c6bc 1d7c 983c 7539 b33d
00000160: 031c edbd 9a53 823d 8bde aa3d 7df3 9b3d
00000170: d121 84be c8b6 cf3d 3d14 8d80 911a b93d
00000180: a6a7 ab3d 4759 4dbc bcd5 513d d37f 563d
00000190: 344c 523e 0fc6 8f3d 988f 6a3d 51d3 373d
000001a0: 6268 d23d 14e2 a63d 48a9 4f3d 1da5 4b3d
000001b0: 9195 c8bd 97fb 7f3d 9e06 d7bc 1605 d0bd
000001c0: ad07 eb3d a3ce 7f3d 1e07 993d 898d 223e
000001d0: 564a 6e3d 2669 27be 030b f3bc 09e3 893d
000001e0: db33 b53d e815 f3b7 bf31 c53d cdfc bb3d
000001f0: 7d0b d03d eb37 203d 3b7e 2d3e a465 423d

se.fc.0.weight f4 [8, 128]
-0.04730406 0.14824633 0.17117496 0.08116289 5.7152476e-05 0.05746683 0.15640447 -0.21810684
0.19948179 0.2209507 0.13684139 0.00068557216 0.10797756 0.04356477 0.08546632 0.09233571
0.19683613 0.09057939 0.16668864 0.19791806 0.10884346 0.011156047 0.17087829 0.13916752
0.06920782 0.03287178 -0.06886045 -3.7075234e-27 0.03474026 0.07959107 0.06982763 0.10631387
-0.043744285 0.026292048 0.12386286 -0.039917953 0.12608214 -0.07801628 4.9188e-41 0.1459887
0.11578152 9.156361e-08 -2.4696727e-05 0.03926899 -6.2851e-41 -0.098658904 0.04270956 0.09729768
0.08328913 0.050969005 -4.919e-41 0.08299712 0.11646508 0.13150582 -0.096375436 -0.040307064
0.020574646 -0.036234815 0.19800586 -0.008930297 0.14292024 0.017991409 0.110685095 -0.050371256
0.07290565 0.10399087 0.07209561 0.102655105 0.11412439 0.220169 0.10257685 0.09595146
0.11520723 -0.1348313 0.1570071 0.067169145 0.01754549 0.035470758 2.6738986e-11 0.16026191
0.06235454 0.057442527 0.09140842 0.14789811 -0.07304348 0.14776266 0.16311482 0.07259992
0.052452266 0.16853012 0.17757384 0.0603406 -0.34604627 0.20282829 4.9064e-41 0.110477686
0.232254 -0.047597557 0.08827845 0.10278633 0.15335539 0.15455236 0.12068842 0.12060985
0.10072245 0.17755233 0.14553553 0.11512144 0.07573544 -0.025822068 -0.067989476 -0.06381355
0.20856982 0.17120013 0.10689631 0.16892157 0.2002321 0.10845987 0.10767951 0.10968249
0.185006 4.9471e-41 0.188237 0.2030385 0.11360912 0.16182216 0.09134054 0.14220528
0.11617567 0.12759694 0.108412586 0.12968022 0.010534482 0.13249828 0.11887262 0.45254874
0.12968576 -0.013292645 0.16298316 -0.01621008 0.13372415 0.19514608 0.065554425 0.14415361
0.12792473 0.1518108 0.14666404 0.09941145 0.16870612 0.19118923 0.18711294 0.117240235
0.20250888 0.009157893 -0.0572713 0.017709149 0.15060954 0.13725978 0.14173141 0.16069098
-0.0011228743 0.11514256 0.18046731 0.10041514 0.15047285 0.2530201 1.1948173e-05 0.21500666
0.07821821 0.020764 -0.021794999 0.07856797 -4.9130855e-09 0.20769249 0.16523306 0.12774086
0.1324012 0.1562576 -5.046782e-31 0.17639677 0.140059 0.07250531 -0.069482505 0.06634769
0.13268465 0.0059561413 0.0342585 0.057904735 0.058455102 0.11698485 0.13845612 -0.021415705
0.21703109 0.16807991 0.20376435 0.17427017 0.2074993 0.15236671 0.1572563 0.18032467
0.19370854 0.27585182 0.2002905 0.2544634 0.11023745 0.0994447 0.013389777 0.07673666
0.12961532 0.03429361 0.33892393 0.027774496 0.043329008 0.11811501 0.16524456 0.15104277
-0.0049307807 0.12758447 0.13549292 0.18714881 0.48736936 0.06965513 -5.34232e-09 0.08196481
0.08538454 0.08221484 0.04383451 0.09974025 0.16389978 0.09249207 0.13529885 0.11811057
0.16754895 0.043287676 0.15321007 0.11703934 0.043988664 0.051593132 0.11422831 -0.022792695
0.16768861 0.08107318 0.17761947 0.1815007 0.13379966 0.19713515 0.14964071 0.1261825
0.14656751 0.0070398366 0.13595337 0.1362257 0.17363049 0.025607241 0.1708706 0.10932508
00000000: e7c1 41bd e3cd 173e 7d48 2f3e bb38 a63d
00000010: 01b7 6f38 5762 6b3d 7e28 203e 6657 5fbe
00000020: f444 4c3e e640 623e 2620 0c3e f8b7 333a
00000030: 5723 dd3d f970 323d f708 af3d 811a bd3d
00000040: 698f 493e b081 b93d 6db0 2a3e 08ab 4a3e
00000050: 52e9 de3d dac7 363c b8fa 2e3e ee81 0e3e
00000060: d4bc 8d3d 8fa4 063d b506 8dbd c1de 9293
00000070: ce4b 0e3d a500 a33d ca01 8f3d 16bb d93d
00000080: 352d 33bd 6c62 d73c d0ab fd3d 0281 23bd
00000090: ad1b 013e 00c7 9fbd 1e89 0000 107e 153e
000000a0: dd1e ed3d a0a1 c433 d12b cfb7 85d8 203d
000000b0: 34af 0080 ae0d cabd 38f0 2e3d 0244 c73d
000000c0: 7e93 aa3d e0c4 503d 1f89 0080 65fa a93d
000000d0: 3e85 ee3d 76a9 063e 7c60 c5bd 0519 25bd
000000e0: 298c a83c f56a 14bd 0cc2 4a3e 6150 12bc
000000f0: af59 123e b862 933c deae e23d 1752 4ebd
00000100: 8f4f 953d 2af9 d43d dda6 933d d73c d23d
00000110: 0cba e93d fb73 613e d013 d23d 3382 c43d
00000120: c5f1 eb3d 3711 0abe 78c6 203e fa8f 893d
00000130: 8fbb 8f3c c949 113d d832 eb2d b31b 243e
00000140: 7967 7f3d db48 6b3d 5634 bb3d 9a72 173e
00000150: d297 95bd 184f 173e 9207 273e 44af 943d
00000160: 30d8 563d 2993 2c3e ebd5 353e b427 773d
00000170: fa2c b1be 38b2 4f3e c588 0000 2042 e23d
00000180: fed3 6d3e a8f5 42bd 55cb b43d a481 d23d
00000190: 3209 1d3e f942 1e3e 7e2b f73d 4c02 f73d
000001a0: 9247 ce3d 47d0 353e 4407 153e cac4 eb3d
000001b0: 2f1b 9b3d cd88 d3bc 113e 8bbd aeb0 82bd
000001c0: 5493 553e 164f 2f3e 74ec da3d c7f9 2c3e
000001d0: a509 4d3e 3520 de3d 1387 dc3d 37a1 e03d
000001e0: 3672 3d3e e889 0000 33c1 403e 53e9 4f3e
000001f0: e6ab e83d b5b4 253e c010 bb3d 439e 113e
00000200: 82ed ed3d c6a8 023e 6b07 de3d e4ca 043e
00000210: d298 2c3c a1ad 073e 7d73 f33d 78b4 e73e
00000220: 58cc 043e 65c9 59bc 0fe5 263e 00cb 84bc
00000230: fcee 083e 60d4 473e 6641 863d 019d 133e
00000240: b3fe 023e 4a74 1b3e 192f 163e 3b98 cb3d
00000250: 4cc1 2c3e 1cc7 433e 899a 3f3e a61b f03d
00000260: 7d5e 4f3e fd0a 163c 5095 6abd c712 913c
00000270: 6339 1a3e d48d 0c3e 0a22 113e 2d8c 243e
00000280: 692d 93ba ddcf eb3d 6ccc 383e 74a6 cd3d
00000290: 8e15 1a3e da8b 813e 0375 4837 b52a 5c3e
000002a0: de30 a03d 4419 aa3c 6d8b b2bc 3ee8 a03d
000002b0: f5cf a8b1 57ad 543e db32 293e 80ce 023e
000002c0: 2e94 073e fe01 203e 06c7 238d 5ba1 343e
000002d0: a06b 0f3e aa7d 943d d84c 8ebd 4ce1 873d
000002e0: 7cde 073e bc2b c33b a452 0c3d 842d 6d3d
000002f0: 9e6e 6f3d c195 ef3d 71c7 0d3e fd6f afbc
00000300: 663d 5e3e 241d 2c3e 9aa7 503e e173 323e
00000310: b27a 543e 0506 1c3e cc07 213e 08a7 383e
00000320: 885b 463e 733c 8d3e f418 4d3e 0749 823e
00000330: 2cc4 e13d aaa9 cb3d cc60 5b3c 1c28 9d3d
00000340: e1b9 043e 7577 0c3d 7087 ad3e 5787 e33c
00000350: c279 313d 48e6 f13d df35 293e f5aa 1a3e
00000360: 6392 a1bb 81a5 023e a8be 0a3e f0a3 3f3e
00000370: 7a88 f93e 59a7 8e3d 8b8f b7b1 2bdd a73d
00000380: 17de ae3d 4160 a83d d18b 333d 9e44 cc3d
00000390: 58d5 273e 7b6c bd3d c88b 0a3e f4e3 f13d
000003a0: f491 2b3e 6b4e 313d 1ae3 1c3e 52b2 ef3d
000003b0: 752d 343d 5253 533d 88f0 e93d bfb7 babc
000003c0: 90b6 2b3e b209 a63d e1e1 353e 52db 393e
000003d0: c702 093e ccdd 493e 6a3b 193e fc35 013e
000003e0: cb15 163e 6eae e63b 5c37 0b3e c07e 0b3e
000003f0: 31cc 313e 47c6 d13c b4f8 2e3e d4e5 df3d

se.fc.0.bias f4 [8]
0.2917537 0.07109897 0.21601616 0.015180097 -4.3852762e-07 0.08510413 -2.4850752e-15 -0.00029979876
00000000: be60 953e 569c 913d 5733 5d3e f1b5 783c
00000010: c76e ebb4 134b ae3d 8c11 33a7 4f2e 9db9

se.fc.2.weight f4 [128, 8]
0.16017424 0.47214985 0.22357707 0.15063079 8.655819e-08 0.13464756 -5.2407e-41 -4.933e-41
-0.17448731 -0.3329846 0.26622596 0.14428829 -8.8954565e-08 -0.25268844 1.0601854e-30 -4.5409166e-07
0.01908477 -0.3889977 -0.016347056 -0.13987087 -6.26365e-08 0.14023691 -9.335138e-34 -1.9457686e-05
0.2544791 0.053656403 0.2395485 0.18583779 -3.761262e-08 0.11524019 -5.1142e-41 4.9197e-41
-0.007985627 -0.017703151 -0.008881308 -0.012656632 -4.0662e-40 -0.010516467 4.9103e-41 4.9204e-41
0.24690962 -0.32559115 -0.18100093 -0.25496057 -2.9966078e-08 -0.36424306 -4.9075e-41 -3.9404728e-07
-0.17733058 0.10844559 -0.38273588 -0.11623517 -6.824813e-08 -0.03032223 -4.9492e-41 -2.0285341e-08
-0.18202123 -0.5139121 -0.14844002 -0.3175246 5.93516e-09 0.023619179 4.9312e-41 -6.819438e-08
-0.15466623 -0.31569707 0.3427877 -0.1338314 -5.2607493e-08 -0.34727526 -4.394539e-33 4.409784e-07
0.13923895 -0.3799458 0.04877443 -0.38562742 -5.8981396e-08 -0.4048037 -4.9422e-41 -4.042447e-05
0.1770341 -0.2222183 -0.014223987 -0.30471689 -1.869694e-08 -0.09083131 4.9539e-41 -8.5820295e-07
-0.009264708 -0.021362774 -0.007449627 -0.016112179 -4.9257e-41 -0.013182278 -5.3877e-41 4.9191e-41
0.03614956 -0.32135597 -0.030608663 0.16016816 -1.932488e-07 -0.024681045 4.904896e-37 -5.0142397e-08
0.17248598 0.1988571 0.18635122 -0.28850016 -5.268413e-08 -0.35407135 4.9057e-41 -2.3333876e-14
0.09821487 -0.0154635785 -0.32229233 -0.13055436 -8.3536726e-08 0.223365 -4.9577e-41 -3.349213e-07
0.22638568 -0.1759041 0.16026251 -0.19646078 -1.01494955e-07 0.03255983 4.9467e-41 2.6462075e-08
0.048892282 -0.16598737 0.031243375 -0.24359319 -3.9814875e-08 0.13871552 4.9586e-41 -1.3243507e-05
-0.19940035 -0.12668736 0.123123616 -0.0071492568 -9.259375e-08 -0.08196289 -4.9176e-41 -5.3968535e-07
-0.13982593 -0.19320673 0.41636673 -0.09084639 -7.9564316e-08 0.09460914 -4.9546e-41 3.628126e-09
0.11621354 -0.35205978 -0.012514437 -0.19093122 -6.352267e-08 -0.21368054 2.0850509e-30 -1.7910385e-06
0.19745979 -0.19446252 -0.2529927 -0.10631324 -2.0647818e-07 -0.09841878 -4.9302e-41 -6.95388e-05
0.13099588 -0.021958089 0.37154442 -0.16305389 -4.944504e-08 -0.011928735 4.9574e-41 -6.034662e-14
0.1421426 -0.01689738 0.047409147 0.17846748 -4.360026e-08 0.3370988 5.0413e-41 -8.984482e-35
0.3280261 -0.023115413 0.09609947 0.14310141 9.9175335e-09 0.18972042 -4.9442e-41 -7.778758e-12
0.267707 -0.0017502917 0.32030848 -0.29210275 -1.0231257e-08 -0.008363024 5.5175e-41 -5.338739e-18
0.12013352 0.48992252 0.10477819 0.21009363 -9.541609e-08 0.15803504 -5.0123e-41 5.0538e-41
0.2717216 0.25324765 0.41709247 0.013944575 -1.45165036e-08 0.17970502 -5.0649e-41 4.9392e-41
-2.2638834e-23 -0.00011138635 -2.4056154e-16 -5.294526e-08 4.9246e-41 -2.8395694e-10 4.967e-41 -5.0227e-41
0.13918012 -0.117664374 -0.14298749 -0.121271245 2.9938816e-09 0.026106447 -4.9146e-41 -2.9889232e-08
0.13868208 -0.072231136 0.13863014 -0.021134235 -1.1219638e-08 -0.06893917 -4.9526e-41 6.9293726e-08
0.1372733 0.3187391 0.08741753 0.19409688 -2.2568784e-08 0.15889856 -4.9452e-41 -4.9123e-41
0.13576722 -0.28870276 0.111017 -0.41288713 -1.0172122e-08 0.15212628 2.8372393e-35 -5.265832e-09
00000000: b704 243e a0bd f13e 63f1 643e f53e 1a3e
00000010: dee1 b933 0de1 093e 1792 0080 8389 0080
00000020: cdac 32be f57c aabe c54e 883e 4fc0 133e
00000030: 4a07 bfb3 6160 81be 6106 ac0d e2c9 f3b4
00000040: aa57 9c3c b52a c7be 43ea 85bc 4f3a 0fbe
00000050: c882 86b3 449a 0f3e 491b 9b88 1039 a3b7
00000060: 164b 823e d1c6 5b3d 344c 753e 434c 3e3e
00000070: 838b 21b3 0c03 ec3d 908e 0080 2489 0000
00000080: 26d6 02bc 3306 91bc e882 11bc c35d 4fbc
00000090: 7e6d 0480 424d 2cbc e188 0000 2989 0000
000000a0: e0d5 7c3e e2b3 a6be 4f58 39be 318a 82be
000000b0: 0db4 00b3 117e babe cd88 0080 728d d3b4
000000c0: 2696 35be b918 de3d f5f5 c3be b40c eebd
000000d0: ce8f 92b3 5366 f8bc f789 0080 f03f aeb2
000000e0: c663 3abe be8f 03bf a900 18be 9692 a2be
000000f0: 38ee cb31 027d c13c 7689 0000 4272 92b3
00000100: d360 1ebe 0ca3 a1be df81 af3e 190b 09be
00000110: 8df2 61b3 10ce b1be c18a b689 9cbf ec34
00000120: a894 0e3e 4288 c2be b2c7 473d f570 c5be
00000130: bb52 7db3 6e42 cfbe c589 0080 728d 29b8
00000140: 6d48 353e 328d 63be ba0b 69bc da03 9cbe
00000150: 029b a0b2 c405 babd 188a 0000 425f 66b5
00000160: 00cb 17bc fc00 afbc 001c f4bb b0fd 83bc
00000170: 4f89 0080 7bfa 57bc 3096 0080 2089 0000
00000180: 9011 143d c588 a4be 05bf fabc 1f03 243e
00000190: d37f 4fb4 e72f cabc ace7 2603 265c 57b3
000001a0: 2aa0 303e 32a1 4b3e dbd2 3e3e 4bb6 93be
000001b0: d046 62b3 d748 b5be c088 0000 412c d2a8
000001c0: e124 c93d f35a 7dbc 8003 a5be 0bb0 05be
000001d0: cd64 b3b3 cbb9 643e 338a 0080 3ccf b3b4
000001e0: a6d1 673e 3420 34be db1b 243e 042d 49be
000001f0: 71f5 d9b3 755d 053d e589 0000 b84e e332
00000200: 4643 483d 98f8 29be 1bf2 ff3c 7e70 79be
00000210: eb00 2bb3 710b 0e3e 3a8a 0000 6e30 5eb7
00000220: 9b2f 4cbe 55ba 01be 3c28 fc3d 5044 eabb
00000230: f4d7 c6b3 29dc a7bd 1589 0080 e5de 10b5
00000240: 872e 0fbe fcd7 45be 052e d53e ac0d babd
00000250: f2dc aab3 70c2 c13d 1d8a 0080 ab52 7931
00000260: 5d01 ee3d 2e41 b4be 5a09 4dbc 7983 43be
00000270: f569 88b3 12cf 5abe d028 290e 9d63 f0b5
00000280: e632 4a3e 2f21 47be 4288 81be c2ba d9bd
00000290: 4ab4 5db4 c98f c9bd 6f89 0080 5cd5 91b8
000002a0: c923 063e 73e1 b3bc 123b be3e 99f7 26be
000002b0: 655d 54b3 be70 43bc 318a 0000 75e3 87a9
000002c0: d48d 113e 606c 8abc 1830 423d 2ec0 363e
000002d0: fe42 3bb3 3798 ac3e 888c 0000 37d9 ee86
000002e0: 09f3 a73e 895c bdbc cdcf c43d 2d89 123e
000002f0: c661 2a32 1246 423e d389 0080 69d8 08ad
00000300: e410 893e 0b6a e5ba 79ff a33e 7e8e 95be
00000310: 8bc5 2fb2 1105 09bc ce99 0000 f7f6 c4a2
00000320: 9008 f63d 20d7 fa3e f395 d63d c922 573e
00000330: 8de7 ccb3 f0d3 213e b98b 0080 e18c 0000
00000340: 181f 8b3e ada9 813e 258d d53e c977 643c
00000350: 4264 79b2 9804 383e 308d 0080 af89 0000
00000360: 0af3 da99 1798 e9b8 9eac 8aa5 ee65 63b3
00000370: 4789 0000 631b 9caf 768a 0000 038c 0080
00000380: 3c85 0e3e 05fa f0bd 506b 12be 0f5d f8bd
00000390: ecbc 4d31 30dd d53c 0089 0080 8f5f 00b3
000003a0: ad02 0e3e ebed 93bd 0ff5 0d3e b421 adbc
000003b0: 7dc0 40b2 fb2f 8dbd 0f8a 0080 a1ce 9433
000003c0: 5f91 0c3e c531 a33e f607 b33d 55c1 463e
000003d0: 48dd c1b2 4eb6 223e da89 0080 ef88 0080
000003e0: 9006 0b3e d9d0 93be e25c e33d f165 d3be
000003f0: 77c1 2eb2 fec6 1b3e 80da 1606 c0ee b4b1

se.fc.2.bias f4 [128]
0.103548534 -0.22372162 0.26709914 0.15451615 -0.0067157606 -0.14013405 0.07843437 0.0027917302
0.23896839 -0.048256356 0.2069797 -0.00715875 -0.014001984 -0.07861793 -0.29602775 -0.09921223
0.071877226 -0.07783955 -0.19262321 0.06581211 0.15291683 0.017601788 -0.0035906115 0.26518664
0.110369235 0.110972255 0.13278517 -3.9620558e-18 0.20781057 -0.13514166 0.1380894 0.23794632
0.1113719 0.10482897 -0.027022919 0.050878238 -0.17184944 -0.21705322 -4.9219e-41 0.03337265
-0.043922268 -0.00015661074 -0.00024934838 0.056706227 4.9494e-41 0.06963875 0.107152574 0.14214782
0.198367 0.019465216 5.101e-41 -0.09228154 0.0881487 -0.29431525 0.14090322 0.13018246
0.050562307 0.18087567 -0.14097029 0.10081904 -0.18244304 0.05438519 -0.22803384 0.3477443
-0.074986055 0.14493227 -0.025132248 0.071588665 0.08519532 -0.1471035 -0.11670902 0.1223348
0.079541795 -0.36172017 0.04472296 0.08666305 -0.058684997 0.21820512 -1.913016e-10 0.2539385
0.03897599 0.12807287 0.06059131 -0.102916226 -0.049178805 0.05137055 0.1342967 0.15342653
0.10388566 -0.22106284 -0.2607195 0.042462356 -0.20217608 -0.053884596 -4.9093e-41 0.17064157
-0.1310477 -0.08885748 0.11878503 0.12434162 -0.27593097 -0.2267698 -0.12916479 -0.15109324
-0.21831712 -0.12930451 0.18873076 -0.15110053 0.10975278 0.09788686 0.12385406 0.10699452
0.22193038 -0.063124165 0.05910026 0.09154672 -0.06926929 0.13458441 0.031864338 -0.19418788
0.13055292 -1.0740726e-22 -0.018952673 -0.2808431 0.11580267 -0.07714879 0.18102892 -0.32796335
00000000: 4111 d43d 4817 65be 38c1 883e 7b39 1e3e
00000010: e20f dcbb 4d7f 0fbe 33a2 a03d 76f5 363b
00000020: 21b4 743e 75a8 45bd 7df2 533e f393 eabb
00000030: 9468 65bc 7002 a1bd f390 97be c82f cbbd
00000040: 5e34 933d 586a 9fbd 053f 45be 80c8 863d
00000050: 3b96 1c3e a031 903c 7750 6bbb 8bc6 873e
00000060: 4409 e23d 6c45 e33d d6f8 073e 8f2c 92a2
00000070: 4bcc 543e 9362 0abe 4f67 0d3e 33a8 733e
00000080: f316 e43d 92b0 d63d 2b5f ddbc b365 503d
00000090: 4df9 2fbe 3343 5ebe 3489 0080 c3b1 083d
000000a0: d6e7 33bd e037 24b9 f9ba 82b9 ca44 683d
000000b0: f889 0000 c39e 8e3d cf72 db3d 338f 113e
000000c0: b820 4b3e 8475 9f3c 328e 0000 1bfe bcbd
000000d0: 4e87 b43d 7db0 96be ef48 103e 8d4e 053e
000000e0: 6c1a 4f3d 7937 393e 845a 10be 367a ce3d
000000f0: 59d2 3abe 01c3 5e3d b481 69be 8a0b b23e
00000100: 4a92 99bd 2069 143e 25e2 cdbc 149d 923d
00000110: e27a ae3d 4da2 16be 2405 efbd ab8a fa3d
00000120: cfe6 a23d 6333 b9be 6c2f 373d 667c b13d
00000130: ae5f 70bd 2a71 5f3e 9d56 52af 3a04 823e
00000140: 4aa5 1f3d 8925 033e 982e 783d bec5 d2bd
00000150: b76f 49bd ed69 523d 1385 093e d81b 1d3e
00000160: 01c2 d43d 4c5e 62be 077d 85be 02ed 2d3d
00000170: 3f07 4fbe 18b6 5cbd da88 0080 aabc 2e3e
00000180: 5e31 06be e9fa b5bd 9145 f33d d2a6 fe3d
00000190: d346 8dbe 5836 68be c643 04be 30b8 1abe
000001a0: 868e 5fbe 6768 04be a342 413e 19ba 1abe
000001b0: 11c6 e03d e878 c83d 33a7 fd3d f11f db3d
000001c0: b841 633e 3e47 81bd 1d13 723d d97c bb3d
000001d0: 0fdd 8dbd 7fd0 093e 2e84 023d 30d9 46be
000001e0: aaaf 053e f0d8 019b a342 9bbc abca 8fbe
000001f0: f329 ed3d 2f00 9ebd a55f 393e d0ea a7be

embedding.weight f4 [2, 8]
-0.4188788 -0.60871845 -0.61891854 0.46590707 -0.5569178 0.4682531 0.34974512 -0.2732793
-0.46388698 -0.5024536 -0.87553763 0.41510388 -0.14608817 0.3493544 0.75824004 -0.3632542
00000000: 4877 d6be f9d4 1bbf 7271 1ebf 5f8b ee3e
00000010: 2a92 0ebf dfbe ef3e cb11 b33e 44eb 8bbe
00000020: 9882 edbe cda0 00bf 3c23 60bf 7f88 d43e
00000030: 2398 15be 94de b23e 051c 423f 74fc b9be
