checkpoints_kfold/fold2_best_model.pth (torch, 228335 bytes, 23 tensors)

conv1.weight f4 [32, 1, 5]
0	0x3ec2a348	0.380152
1	0x3e2b4c0c	0.16728228
2	0xbe5cf7b6	-0.21578869
3	0xbe3d9446	-0.18513593
4	0xbd445711	-0.047934595
5	0x3d866257	0.065617256
6	0xbe9f0357	-0.31057236
7	0x3dd50211	0.10400785
8	0xbebdbace	-0.37056583
9	0xbe964774	-0.2935139
10	0xbd4b0201	-0.049562458
11	0xbd373368	-0.04472676
12	0xbeb08427	-0.34475824
13	0x3ead5640	0.33854866
14	0x3ee50e62	0.44737536
15	0x3db782a1	0.08960462
16	0xbe3b274c	-0.1827671
17	0xbeae84a3	-0.3408557
18	0xbe5dc22d	-0.21656103
19	0xbe7c06a2	-0.24611905
20	0x3d57cd71	0.05268616
21	0xbe834e51	-0.25645688
22	0x3e5567e5	0.20840414
23	0x3e4eccee	0.20195362
24	0x3e844970	0.25837278
25	0xbe8d7d30	-0.27634573
26	0xbca5a199	-0.020218657
27	0x3e850451	0.25979856
28	0xbe1aee7a	-0.15130034
29	0xbeae3122	-0.3402186
30	0x3e8fa7ca	0.280577
31	0x3e9f2b6b	0.31087813
32	0xbe8bd137	-0.27308056
33	0x3e8e4ac9	0.27791432
34	0xbed15b43	-0.4088994
35	0xbe415906	-0.18881616
36	0x3e19ca25	0.15018518
37	0xbec64beb	-0.38729796
38	0x3d5629fd	0.052286137
39	0x3e31143e	0.17292878
40	0x3e94747e	0.28995126
41	0x3e1172ee	0.14203998
42	0xbd9332b2	-0.07187404
43	0xbedd697b	-0.43244538
44	0x3e8e600d	0.27807656
45	0x3e4820d4	0.19543773
46	0xbf17e210	-0.5932932
47	0xbee6ccb6	-0.45078057
48	0x3e4dda89	0.20102896
49	0xbe9158ad	-0.28387967
50	0x3e6b4d15	0.22978623
51	0x3e8dd95e	0.277049
52	0xbe891caf	-0.26779696
53	0xbea02eb8	-0.31285644
54	0xbebf520c	-0.37367284
55	0x3e31e21d	0.17371412
56	0x3d041c04	0.03225328
57	0xbec65410	-0.3873601
58	0xbecf156a	-0.40446025
59	0xbeb9e966	-0.3631088
60	0xbed79513	-0.42105922
61	0xbe489531	-0.19588162
62	0xbe9ea005	-0.3098146
63	0x3ebea202	0.37232977
64	0x3e7a39e7	0.2443615
65	0xbedc1bf9	-0.4299009
66	0xbec817e3	-0.39080724
67	0xbd96c02c	-0.073608726
68	0xbe33cdd6	-0.17558989
69	0xbebced57	-0.36899826
70	0x3df8f2fc	0.121557206
71	0xbf0e7651	-0.55649287
72	0x3ed56984	0.41682065
73	0x3c28d7e1	0.010305376
74	0x3e8d5279	0.27601984
75	0x3e067df1	0.1313398
76	0xbd71ced2	-0.05903513
77	0x3d22c235	0.03973599
78	0xbcdae4d2	-0.026720438
79	0xbec557c0	-0.3854351
80	0xbf0793a4	-0.52959657
81	0x3e3e9d5e	0.18614718
82	0xbe55882e	-0.2085273
83	0x3e9489f7	0.2901151
84	0x3e3b3317	0.18281208
85	0xbe7735f9	-0.24141683
86	0xbe86a9ec	-0.26301515
87	0xbd4ce1dd	-0.050020088
88	0x3ebb482c	0.365785
89	0xbed7e7ba	-0.4216898
90	0x3eaa47d9	0.3325794
91	0xbe831fee	-0.25610298
92	0xbebd5db1	-0.36985543
93	0x3b9796ed	0.004626146
94	0xbefb1149	-0.49036625
95	0xbe733d51	-0.23753859
96	0x3de687a8	0.11256343
97	0x3bc13adc	0.005896909
98	0xbe378194	-0.17920524
99	0xbd3de926	-0.046364926
100	0xbead16a0	-0.33806324
101	0x3ed44aa5	0.414632
102	0xbf02ce8a	-0.51096404
103	0xbe297501	-0.1654854
104	0x3b063c7c	0.002048283
105	0xbe83ea14	-0.25764525
106	0x3e0356df	0.12826107
107	0xbdf2d1e3	-0.11856439
108	0x3e8fcbc4	0.28085148
109	0xbeeafdfa	-0.45896894
110	0xbd059513	-0.03261287
111	0x3e22e6db	0.15908377
112	0x3de68b4a	0.11257036
113	0xbd987664	-0.07444456
114	0xbeca03f8	-0.39456153
115	0x3d2f58c6	0.04280927
116	0x3e93f761	0.28899673
117	0xbeda25de	-0.42607015
118	0x3ea94c47	0.33066007
119	0x3e9c91ba	0.3057993
120	0x3d018819	0.031623933
121	0xbe81f80d	-0.2538456
122	0xbdb0dc7e	-0.086358055
123	0x3eae5ce8	0.34055257
124	0xbe2fad9a	-0.17156067
125	0x3e7c5873	0.24643116
126	0x3ea73bb6	0.32662743
127	0xbf0cba6d	-0.54971963
128	0x3e617958	0.22018945
129	0x3e265b03	0.16245656
130	0x3dc41fd2	0.09576382
131	0x3ebb9ad7	0.3664157
132	0x3dc62644	0.09675267
133	0xbe02974b	-0.12753026
134	0xbeb0ad49	-0.34507206
135	0xbcc9775b	-0.024593046
136	0x3eba218e	0.36353725
137	0xbd8cf8b8	-0.06883377
138	0xbef9f29e	-0.48817915
139	0x3ea577c2	0.3231793
140	0xbe904515	-0.28177705
141	0xbe3505b3	-0.17677955
142	0xbe09cd1a	-0.13457146
143	0xbe72d77a	-0.2371501
144	0xbe534ad9	-0.20634021
145	0x3e9c3f16	0.3051688
146	0x3ed6fef0	0.41991377
147	0x3e92ed83	0.28696832
148	0x3ec1ff18	0.37889934
149	0x3e5c2829	0.21499695
150	0x3e7a2748	0.24429047
151	0xbee140e0	-0.43994808
152	0xbeab9099	-0.33508757
153	0x3e0281fa	0.12744895
154	0x3ea54f72	0.32287174
155	0xbcd473b6	-0.025934082
156	0x3ed4b489	0.41543987
157	0x3bdacb30	0.006677054
158	0x3dd56284	0.10419181
159	0x3e9d5179	0.3072622

conv1.bias f4 [32]
0	0x3a7fcc6c	0.0009757939
1	0x3b0b6fa1	0.0021276253
2	0x3ac9c14a	0.0015392688
3	0xbb1e4524	-0.0024150098
4	0xbb0642ac	-0.0020486517
5	0x3b184dd2	0.0023239744
6	0x3a90f06d	0.0011057981
7	0x3b504a8d	0.0031782717
8	0x3a00e271	0.0004916555
9	0xbb9beedd	-0.0047586993
10	0xba857e1b	-0.0010184677
11	0x3a57bb14	0.0008229476
12	0xbb430a14	-0.0029760646
13	0x39c36d95	0.00037274943
14	0xba90205d	-0.0010995973
15	0x37b3b3a2	2.142211e-05
16	0x3b239fe2	0.0024967124
17	0x3b682013	0.0035419508
18	0x39291102	0.00016123432
19	0xbabe183c	-0.0014503072
20	0xb9c74987	-0.0003801102
21	0xbaf2b0ed	-0.0018515863
22	0x399a012b	0.0002937404
23	0xb96fcd3b	-0.0002286927
24	0xbb42910a	-0.00296885
25	0x3a103abe	0.00055019173
26	0xba028394	-0.0004978713
27	0x3b99a4c5	0.0046888315
28	0x39a7f6c1	0.00032036568
29	0xbabd8618	-0.0014459519
30	0xbb27c00f	-0.0025596654
31	0x3ab3d6d9	0.0013720646

bn1.weight f4 [32]
0	0x3f4d19d2	0.80117524
1	0x3fd99a7b	1.7000269
2	0x3f3f46b6	0.7471727
3	0x3fad2166	1.3525817
4	0x3f2924ec	0.66071963
5	0x3fa7b370	1.3101635
6	0x3f4dc5ce	0.8037995
7	0x3f67c82a	0.905398
8	0x3f49d6d9	0.78843457
9	0x3f9b6c14	1.2142358
10	0x3f78627b	0.9702527
11	0x3fc9f224	1.577702
12	0x3f72f08e	0.9489831
13	0x3f980996	1.1877925
14	0x3f530fdf	0.8244609
15	0x3f973274	1.1812272
16	0x3f5dcc8e	0.8664025
17	0x3f8f682b	1.1203665
18	0x3f9fa1e7	1.2471284
19	0x3fa8bbed	1.318235
20	0x3f921503	1.1412662
21	0x3f7e8ed0	0.99436665
22	0x3f6791d2	0.9045688
23	0x3f381698	0.71909475
24	0x3f6147d9	0.88000256
25	0x3f294960	0.66127586
26	0x3f5962e6	0.8491653
27	0x3f78ff89	0.97264916
28	0x3f9b8e66	1.2152832
29	0x3f19d816	0.60095346
30	0x3f819ce3	1.0126003
31	0x3f36b118	0.71363974

bn1.bias f4 [32]
0	0x3f08c286	0.5342182
1	0x3e8d69d1	0.27619794
2	0xbc078559	-0.008271539
3	0x3e91e872	0.28497654
4	0xbeaabf94	-0.33349288
5	0x3e808239	0.25099352
6	0xbea89b8b	-0.3293117
7	0xbe9642c1	-0.29347804
8	0xbeb9b988	-0.36274362
9	0x3e05916d	0.13043757
10	0x3e8c232f	0.27370593
11	0x3e5a4db0	0.21318698
12	0x3e43f2ce	0.19135591
13	0x3e81bb9e	0.25338453
14	0xbe8384c9	-0.25687245
15	0x3eba2076	0.3635289
16	0xbe898bc7	-0.26864454
17	0x3e717e01	0.23583223
18	0x3e456158	0.19275415
19	0x3ec0b4ab	0.3763784
20	0x3ed11349	0.40835026
21	0x3f13696e	0.5758275
22	0x3ecd83e7	0.40139696
23	0xbed66a62	-0.4187804
24	0x3e8c5b25	0.27413288
25	0xbea83452	-0.32852417
26	0x3bb24740	0.0054406226
27	0xbe80a7df	-0.25128075
28	0x3e8bb6b4	0.2728783
29	0xbf1b5199	-0.60671383
30	0xbdcebd18	-0.100946605
31	0xbf1409d5	-0.578275

bn1.running_mean f4 [32]
0	0x3b09454b	0.0020945843
1	0xbbc1d22f	-0.0059149484
2	0x3ae6f83d	0.0017621588
3	0xbbf12f76	-0.007360394
4	0x3ab65158	0.001390974
5	0xbaad3450	-0.0013214443
6	0x3b442aec	0.002993281
7	0x3aa2276e	0.001237137
8	0x3b2af6d9	0.0026087074
9	0xbbf8789a	-0.007582736
10	0xbad98d26	-0.0016597852
11	0xbbe0968f	-0.0068538855
12	0xbbc55476	-0.0060220314
13	0xbc2df2dd	-0.010616985
14	0x3a7e56ad	0.0009702247
15	0xbb53940b	-0.0032284285
16	0x3a2f48ff	0.00066865975
17	0xbb2d2135	-0.0026417498
18	0xbb9d1320	-0.0047935396
19	0xbb71a3ee	-0.0036871391
20	0xbb5443e5	-0.00323891
21	0xbb6eda6c	-0.0036446108
22	0xbab2f45d	-0.0013653148
23	0x3b96415a	0.004585427
24	0xbb102243	-0.0021993078
25	0x3b9e92e7	0.0048392895
26	0x398161f7	0.00024677787
27	0x3b46758a	0.003028246
28	0xbbf29f0c	-0.007404214
29	0x3c268c22	0.010165246
30	0xbaf543c1	-0.0018712209
31	0x3be49a27	0.006976384

bn1.running_var f4 [32]
0	0x3983b32b	0.00025119758
1	0x3a23455e	0.0006228293
2	0x39ee2afd	0.00045426926
3	0x3a28d9f8	0.0006441171
4	0x39a410a9	0.0003129293
5	0x39b17f47	0.000338549
6	0x3a0d6f0c	0.00053952704
7	0x3986b1e7	0.0002569102
8	0x39b62c0b	0.0003474656
9	0x3a8c672d	0.0010711901
10	0x3a0f7e02	0.0005473794
11	0x3a6ff05a	0.00091529416
12	0x3a183586	0.00058063155
13	0x3ab6a69c	0.0013935152
14	0x3a206dfc	0.00061199046
15	0x395b9d93	0.00020944169
16	0x3a07781f	0.0005167741
17	0x3a10d16c	0.00055243704
18	0x3a5e365d	0.00084767287
19	0x39151229	0.00014216512
20	0x3a3f198c	0.00072898786
21	0x39e8e1bd	0.00044418676
22	0x3955096d	0.00020316774
23	0x3a11e4fe	0.00055654335
24	0x3952def8	0.00020110223
25	0x3a115b16	0.0005544884
26	0x3998226c	0.00029017346
27	0x39dcf9f8	0.0004214791
28	0x3a37878e	0.0007001095
29	0x3ae12b04	0.0017178957
30	0x39dd821b	0.0004224934
31	0x3a13caaa	0.0005637804

conv2.weight f4 [64, 32, 5]
0	0xbea44897	-0.32086632
1	0xbe297351	-0.16547896
2	0x3d0747d5	0.03302749
3	0xbd5c5a60	-0.053797126
4	0x3aaf2f74	0.0013365583
5	0xbeacb97e	-0.3373527
6	0x3d38030b	0.044924777
7	0x3d3c4bb4	0.045970634
8	0x3dccd36a	0.100012615
9	0xbd832544	-0.06403592
10	0xbcaf2ab0	-0.02138266
11	0x3caffc9a	0.021482754
12	0x3cd2dd90	0.025740415
13	0x3b839e45	0.00401667
14	0x3d991919	0.0747549
15	0xbe03aa90	-0.12858033
16	0xbe5fb009	-0.21844496
17	0xbc2a73cc	-0.010403585
18	0xbdff2544	-0.1245828
19	0xbdef0cc5	-0.116723575
20	0xbb554c63	-0.003254675
21	0xbc87a679	-0.016558873
22	0xbd080266	-0.033205412
23	0x3d83ea15	0.06441132
24	0x3dad73dc	0.08469364
25	0xbd5763f5	-0.05258556
26	0x3e06dabd	0.1316938
27	0x3dd9d9b0	0.10637224
28	0xbe13ce53	-0.14434175
29	0x3d5b65f7	0.053564038
30	0xbd8d8a87	-0.069111876
31	0xbdac2bbf	-0.084067814
32	0xbc1e02fc	-0.009644266
33	0xbd52b27d	-0.05143975
34	0xbd66682c	-0.05625169
35	0x3d8b2d91	0.067958005
36	0x3a700402	0.00091558706
37	0xbd2c3bda	-0.042049266
38	0xbbe33409	-0.0069336933
39	0xbda9db1f	-0.08293747
40	0xbdcb5034	-0.09927407
41	0xbdc1b48c	-0.09458265
42	0x3d5c38d6	0.05376514
43	0xbc3708fa	-0.011171574
44	0x3d845db9	0.06463189
45	0xbcf95386	-0.030435335
46	0xbe5fc6bc	-0.21853155
47	0x3e0fe1a9	0.14050926
48	0x3df1f8fc	0.11815068
49	0xbd64e553	-0.055882763
50	0xbdcffeca	-0.10156019
51	0x3d9b60f2	0.0758685
52	0xbe3e42e3	-0.18580203
53	0xbd2ed38b	-0.04268221
54	0x3c8b1e22	0.016982142
55	0xbe559be9	-0.20860256
56	0x3d882ff4	0.06649771
57	0x3cd751e9	0.026284175
58	0xbe33a65f	-0.17543934
59	0xbe6b4317	-0.22974811
60	0x3dbcad43	0.092127346
61	0x3d7c525e	0.06160199
62	0xbc31f5be	-0.010861812
63	0xbd05773e	-0.03258442
64	0xbd015c96	-0.031582437
65	0xbe87b6cc	-0.2650665
66	0xbe3e1d14	-0.1856578
67	0xbe5c54e6	-0.21516761
68	0xbe166544	-0.14687067
69	0xbb4dc0e5	-0.0031395492
70	0xbe02a3b0	-0.12757754
71	0x3d9418d3	0.07231297
72	0xbc4c0e63	-0.012454602
73	0x3d6fe438	0.058567256
74	0x3c79f4e9	0.015256145
75	0xbbbef748	-0.005827818
76	0xbe1c5f18	-0.1527065
77	0x3d6692c4	0.05629231
78	0xbd316977	-0.04331347
79	0xbc45c4d3	-0.012070852
80	0xbb44bb88	-0.0030019004
81	0x3cf45884	0.029827364
82	0x3d91c82a	0.071182564
83	0xbe06adfa	-0.13152304
84	0x3aecc1ba	0.0018063106
85	0xbd734c64	-0.059399024
86	0x3d2ceed5	0.042219955
87	0xbe2a112e	-0.16608116
88	0xbdf270d0	-0.118379235
89	0xbec60876	-0.3867833
90	0xbdce2122	-0.10064913
91	0xbdd0a85d	-0.10188363
92	0x3d0ac4cb	0.033879083
93	0x3da5376d	0.08067212
94	0xbd22135e	-0.03956925
95	0xbe5f3132	-0.2179611
96	0x3e698130	0.22803187
97	0xbd132d98	-0.035932153
98	0xbd6ecaca	-0.058298863
99	0xbe609649	-0.21932329
100	0x3e0463d3	0.12928705
101	0x3d14e273	0.03634877
102	0x3bb55e33	0.005534911
103	0x3de3ddd3	0.11126294
104	0xbe0ac16d	-0.13550349
105	0x3dd61ef0	0.104551196
106	0xbd368153	-0.044556927
107	0x3db00d3b	0.085962735
108	0xbc2f57f6	-0.010702124
109	0xbd306b23	-0.043070924
110	0x3c8b0932	0.016972158
111	0xbe222417	-0.1583408
112	0xbda11a9d	-0.07866404
113	0xbc2ade32	-0.010428952
114	0xbdb214d4	-0.08695379
115	0xbd18b769	-0.03728429
116	0x3d76cb1e	0.0602523
117	0xbc9e459d	-0.019320304
118	0x3d80537c	0.062659234
119	0xbc9c3543	-0.019068366
120	0x3d4e8aee	0.050425462
121	0xbe054b4d	-0.13017006
122	0xbd8da9f6	-0.06917183
123	0xbc49ad9e	-0.01230946
124	0xbce3fd52	-0.027830753
125	0xbd4f0555	-0.050542194
126	0xbd338565	-0.043828387
127	0xbcee3e6d	-0.029082501
128	0xbb788e42	-0.003792659
129	0xbceeb60a	-0.029139537
130	0x3d10a813	0.035316538
131	0xbcd52d0d	-0.026022458
132	0xbd5c287c	-0.053749546
133	0x3d32fe3c	0.043699488
134	0xbe090aa6	-0.13382968
135	0xbb9cf1d7	-0.0047895717
136	0xbdb30228	-0.08740646
137	0xbb861eea	-0.0040930407
138	0xbd255fd0	-0.040374577
139	0xbdf34591	-0.11878503
140	0xbe57274d	-0.21011086
141	0xbe21d48b	-0.15803735
142	0xbe3cf180	-0.184515
143	0xbda00e1e	-0.07815193
144	0xbd329747	-0.0436013
145	0xbdf1708d	-0.117890455
146	0xbce90e01	-0.02844906
147	0xbd4942bb	-0.049135905
148	0x3da60dde	0.08108114
149	0x3cb4a604	0.022051819
150	0x3bd4227c	0.0064738374
151	0x3dcaa952	0.098955765
152	0x3d86eaaf	0.06587731
153	0xbd9ca33a	-0.076483205
154	0x3e1abb61	0.15110542
155	0xbdfb8f50	-0.12283194
156	0x3c863333	0.016381836
157	0x3d896e91	0.06710542
158	0xbd5b1c3c	-0.053493723
159	0x3d83b23b	0.06430479
160	0x3db055bb	0.08610102
161	0xbdca6672	-0.09882821
162	0xbc61104e	-0.0137367975
163	0x3b64fdfc	0.0034941426
164	0x3c97cf99	0.018531607
165	0x3e4668a8	0.1937586
166	0xbe5255b5	-0.20540507
167	0xbd88d1db	-0.06680652
168	0x3d325d2d	0.04354589
169	0x3cfddea2	0.030989949
170	0x3d74f9c2	0.0598085
171	0x3c744437	0.014908842
172	0xbc95b4a2	-0.018274609
173	0xbdedebf1	-0.11617268
174	0x3c4112cf	0.0117842695
175	0xbde25fce	-0.110534295
176	0x3d4c703a	0.049911715
177	0xbe4d86f6	-0.20071015
178	0xbe18cb07	-0.14921199
179	0xbd9061f4	-0.07049933
180	0xbc8ca097	-0.017166419
181	0xbdaf62de	-0.08563779
182	0xbce579de	-0.028012212
183	0x3db77310	0.08957493
184	0x3c7838ba	0.015150243
185	0xbc8c9094	-0.017158784
186	0x3e0631cb	0.13104932
187	0xbe273ef8	-0.16332614
188	0xbce6000b	-0.028076192
189	0x3e11338b	0.14179818
190	0x3ccc40c1	0.02493322
191	0xbe59fc5d	-0.21287675
192	0xbd23f89b	-0.04003201
193	0x3de641e4	0.112430364
194	0x3bc201ed	0.0059206397
195	0x3deba1ba	0.11505456
196	0x3c2cd04a	0.010547707
197	0xbbb567d2	-0.005536058
198	0x3d07d604	0.033163086
199	0xbcf8b6b8	-0.030360565
200	0x3dd96a42	0.1061597
201	0xbd1a645f	-0.037693378
202	0xbd9a9caf	-0.07549416
203	0xbd2e5128	-0.042557865
204	0xbcd9cf1d	-0.026588017
205	0xbc760168	-0.015014984
206	0x3d1289dc	0.035776004
207	0xbd534d81	-0.051587585
208	0x3e265064	0.16241604
209	0xbc75e32c	-0.015007775
210	0x3e7a9c54	0.24473697
211	0x3d272d0a	0.040814437
212	0x3e072338	0.13197029
213	0xbc971ac0	-0.018445373
214	0x3e059b9e	0.13047644
215	0xbe8f17b0	-0.2794776
216	0xbe0d7ebb	-0.13817875
217	0xbe879c74	-0.26486552
218	0xbd91932e	-0.071081504
219	0x3e353a05	0.17697914
220	0x3e1053e1	0.14094497
221	0xbc313ea2	-0.0108181555
222	0x3dedfcac	0.11620459
223	0xbcacc1e8	-0.021088555
224	0xbe095396	-0.13410792
225	0x3d33db19	0.04391012
226	0xbe7cb25c	-0.24677414
227	0xbe668404	-0.22511297
228	0xbe59bd9f	-0.21263741
229	0xbdb3c3bf	-0.0877757
230	0xbd1d1a51	-0.038355175
231	0x3d23591b	0.0398799
232	0xbdaabcbe	-0.08336781
233	0xbc3b3d82	-0.011428239
234	0x3d63a473	0.055576753
235	0x3e2845a0	0.1643281
236	0xbca00083	-0.019531494
237	0xbc97524b	-0.018471858
238	0xbd1a4f82	-0.03767348
239	0xbcf2d994	-0.029644765
240	0x3e16c429	0.14723267
241	0x3d9522cf	0.0728203
242	0xbe049d01	-0.12950517
243	0xbdb1bd34	-0.08678666
244	0xbc1e78e0	-0.0096723735
245	0x3d138386	0.036014102
246	0xbe56821d	-0.20948072
247	0xbe1bf52f	-0.15230249
248	0x3e0a5724	0.13509804
249	0xbe685a53	-0.22690706
250	0x3e1fb919	0.15597953
251	0xbd008001	-0.031372074
252	0xbd3331b2	-0.043748565
253	0x3d75f344	0.06004645
254	0xbe97a6b5	-0.29619375
255	0x3d21f24a	0.039537705

conv2.bias f4 [64]
0	0xb8c12491	-9.209768e-05
1	0x3938e8b4	0.00017634296
2	0xb9651b4d	-0.00021849312
3	0xb8b1a714	-8.4711384e-05
4	0xb8442c56	-4.6771333e-05
5	0x38977b14	7.223166e-05
6	0xb8e254ef	-0.0001079234
7	0x38916b3c	6.934113e-05
8	0x37e3d36a	2.7158956e-05
9	0xb90992cf	-0.00013120029
10	0xb8946909	-7.076754e-05
11	0xb97f0f15	-0.00024324314
12	0xb995e412	-0.0002858942
13	0x3884eb92	6.338129e-05
14	0x39ca1126	0.0003854122
15	0xb81f7511	-3.801758e-05
16	0xb81512dd	-3.5541936e-05
17	0x388bac89	6.660174e-05
18	0x37c02f49	2.2910202e-05
19	0xb975dbcf	-0.00023446906
20	0x390aa75a	0.00013223049
21	0xb814bc41	-3.5461275e-05
22	0xb780b986	-1.534518e-05
23	0xb900fa1e	-0.00012300207
24	0xb987b996	-0.0002588748
25	0xb90e36d6	-0.00013562603
26	0xb6d2e47f	-6.285088e-06
27	0x359c7f11	1.1659887e-06
28	0x38f4d74f	0.00011674931
29	0x3930d5b6	0.00016864281
30	0xb9575093	-0.00020534014
31	0xb81d97cc	-3.757309e-05
32	0x3839aa84	4.4266242e-05
33	0x37805b61	1.530134e-05
34	0x389b6ba4	7.4110256e-05
35	0x381fc1dd	3.8089103e-05
36	0x397de031	0.00024211478
37	0xb8808f46	-6.1302024e-05
38	0xb8cd134b	-9.778755e-05
39	0xb62be9a0	-2.5616973e-06
40	0x38e7db9d	0.000110558445
41	0xb8ab3c54	-8.1651524e-05
42	0xb8bb9a85	-8.9456364e-05
43	0xb99796f3	-0.0002891343
44	0x381e33a5	3.7718233e-05
45	0xb832c17f	-4.2618714e-05
46	0xb907c6ee	-0.0001294871
47	0xb88da86d	-6.754776e-05
48	0x3635454a	2.7011433e-06
49	0xb948a4be	-0.00019134858
50	0xb709d96f	-8.2164615e-06
51	0xb903a585	-0.00012554794
52	0xb92e29ae	-0.0001660946
53	0x38717c05	5.757438e-05
54	0xb940e3ca	-0.00018395405
55	0x392b9779	0.00016364259
56	0xb90e6b41	-0.0001358213
57	0xb9639db1	-0.00021707152
58	0x39090d19	0.00013070217
59	0x379b53e6	1.8516508e-05
60	0xb89a7066	-7.364228e-05
61	0x39530664	0.00020124909
62	0xb6e25c89	-6.7460974e-06
63	0x385dc797	5.287639e-05

bn2.weight f4 [64]
0	0x3f8e14dc	1.1100116
1	0x3f84c0f0	1.037138
2	0x3f95d684	1.170609
3	0x3f8b753b	1.0895151
4	0x3f945b8d	1.1590439
5	0x3f87e111	1.061556
6	0x3f834fdf	1.025875
7	0x3f84e2dc	1.0381732
8	0x3f8a2a4e	1.079416
9	0x3f7f7291	0.9978419
10	0x3f8dca86	1.107743
11	0x3f86661c	1.0499911
12	0x3f80f59c	1.0074954
13	0x3f833546	1.0250633
14	0x3f774a37	0.9659762
15	0x3f830580	1.0236053
16	0x3f8826dc	1.0636859
17	0x3f8af88e	1.0857103
18	0x3f88664b	1.0656217
19	0x3f97e436	1.186652
20	0x3f940a11	1.1565572
21	0x3f802912	1.0012534
22	0x3f8a49c5	1.0803763
23	0x3f99d62d	1.2018486
24	0x3f70c88c	0.9405601
25	0x3f847068	1.0346804
26	0x3f83f5c2	1.0309374
27	0x3f98d05f	1.193859
28	0x3f79a7f3	0.97521895
29	0x3f891f45	1.0712668
30	0x3f79964b	0.97494954
31	0x3f7264bb	0.9468495
32	0x3f8a1b3f	1.0789565
33	0x3f8a4551	1.0802404
34	0x3f83fdf0	1.031187
35	0x3f969996	1.1765621
36	0x3f8708e7	1.0549592
37	0x3f8fdc60	1.1239128
38	0x3f84955e	1.0358083
39	0x3f8def2b	1.1088613
40	0x3f82e972	1.0227492
41	0x3f8a5168	1.0806093
42	0x3f849a6e	1.0359628
43	0x3f7782b4	0.9668381
44	0x3f8bc8e6	1.0920684
45	0x3f864532	1.0489867
46	0x3f9914d0	1.1959476
47	0x3f8ceb78	1.1009359
48	0x3f72f8bd	0.94910794
49	0x3f807d7f	1.0038298
50	0x3f83f496	1.0309017
51	0x3f8cae0c	1.0990615
52	0x3f7a9ab1	0.9789229
53	0x3f8c1b13	1.0945762
54	0x3f81689d	1.011005
55	0x3f74cf56	0.9562887
56	0x3f7cc362	0.9873563
57	0x3fa56212	1.2920554
58	0x3f8ada76	1.0847919
59	0x3f8224df	1.0167502
60	0x3f9c3a06	1.2205207
61	0x3f80c5f9	1.0060416
62	0x3f91588a	1.1355145
63	0x3f8cb2eb	1.0992101

bn2.bias f4 [64]
0	0x3d788d79	0.060681794
1	0xbdef2c3e	-0.116783604
2	0x3d86a827	0.06575041
3	0x3e170123	0.14746527
4	0x3d3be8e0	0.045876384
5	0x3de6515d	0.112459876
6	0x3dfdc89c	0.12391779
7	0xbdef4e0a	-0.11684807
8	0x3dff839d	0.12476275
9	0x3d08b2c0	0.033373594
10	0x3dd7a921	0.10530306
11	0x3e3b0a8a	0.18265739
12	0xbdbd76ea	-0.09251197
13	0xbd92a6fe	-0.071607575
14	0xbe3dcb18	-0.18534505
15	0xbe1c3b4e	-0.15256998
16	0x3e068f16	0.1314052
17	0x3d481352	0.04884655
18	0x3dff35de	0.12461446
19	0x3e039d60	0.12853003
20	0xbb62ffad	-0.0034637258
21	0xbdb02948	-0.08601624
22	0x38ddf9be	0.00010584619
23	0xbe00b73e	-0.12569901
24	0x3dc879a0	0.09788823
25	0x3dfc2b5d	0.123129584
26	0x3d8f309e	0.06991695
27	0x3cb1ddca	0.021712203
28	0xbd90413c	-0.070436925
29	0x3da13326	0.07871084
30	0x3e0f84b4	0.14015466
31	0xbe09e8bc	-0.13467687
32	0x3dc73c7f	0.097283356
33	0x3e0be7eb	0.13662688
34	0x3e21324e	0.15741846
35	0xbc6ab983	-0.014326456
36	0xbc15b33b	-0.00913697
37	0x3de792bb	0.113072835
38	0xbc8fef00	-0.017570019
39	0xbe83da83	-0.2575265
40	0xbd015499	-0.03157482
41	0x3e0c9c4c	0.13731498
42	0xbe27f8b1	-0.16403462
43	0x3e2e4a3f	0.1702051
44	0x3d81f269	0.06345064
45	0x3e09b92a	0.1344954
46	0x3d1fe052	0.039032288
47	0xbd2b3aae	-0.04180401
48	0xbd4d89c1	-0.0501802
49	0xbe0a5ba6	-0.13511524
50	0xbe1f3fd2	-0.1555169
51	0x3e16c46f	0.14723371
52	0xbc820181	-0.015869858
53	0x3d7c7b0c	0.061640784
54	0xbd8f6c84	-0.070031196
55	0xbd06f073	-0.032944154
56	0xbe6d8eeb	-0.2319905
57	0xbcd8bccc	-0.026457213
58	0x3df8e2b8	0.12152618
59	0x3d8e35ac	0.06943831
60	0x3daf46ae	0.08558403
61	0x3df38335	0.1189026
62	0x3d5b78a3	0.053581845
63	0x3e04b1b6	0.12958416

bn2.running_mean f4 [64]
0	0xc0334a51	-2.801411
1	0xbf8180da	-1.0117447
2	0xbff8ee10	-1.9447651
3	0xbec4a24e	-0.3840508
4	0xc00c5007	-2.1923845
5	0xc004b8d9	-2.0737822
6	0xc066c7de	-3.605949
7	0xbda97454	-0.08274141
8	0xc000cb7e	-2.0124202
9	0xbf3b1cd1	-0.73090845
10	0xbf525b2a	-0.82170355
11	0xbfbb80a5	-1.4648634
12	0x4032748a	2.788363
13	0xc0355478	-2.8332806
14	0xbfe62ffc	-1.7983394
15	0xbd47ec0a	-0.04880909
16	0xbf04b542	-0.5183908
17	0xc00212d8	-2.0324001
18	0xc007be89	-2.1210043
19	0xbed1ac54	-0.40951788
20	0xbf0ecd51	-0.5578204
21	0xc010b7c7	-2.2612169
22	0xc010fec3	-2.2655494
23	0xc006614a	-2.099688
24	0xc01c18e2	-2.4390187
25	0xbfe75b56	-1.8074749
26	0xc02cc664	-2.6996088
27	0xbec8f057	-0.39245865
28	0xbf48ba0f	-0.784089
29	0xc07026dc	-3.7523718
30	0xbfe21f2b	-1.7665762
31	0xbf375e85	-0.716286
32	0xbfa091df	-1.2544516
33	0xc03b5c5e	-2.9275126
34	0xbf98ddb8	-1.1942663
35	0xc06176e9	-3.5228827
36	0xc0303614	-2.7533007
37	0xbefec183	-0.49757013
38	0x40189155	2.3838704
39	0xbf8d404d	-1.1035248
40	0x3dbeb9c8	0.09312779
41	0xbfe6685a	-1.8000596
42	0xbfca5ef8	-1.5810232
43	0xbffb4262	-1.9629633
44	0xc0707b41	-3.7575228
45	0xc054128e	-3.3136325
46	0xc0131441	-2.2981112
47	0xbf403c4c	-0.75092006
48	0xc00dedbb	-2.217635
49	0x3f8b2a72	1.0872328
50	0xc00f4ffc	-2.2392569
51	0xbf8fb73e	-1.1227796
52	0xc0331660	-2.7982407
53	0xc06c575c	-3.692832
54	0x402779f7	2.6168191
55	0xc00621b9	-2.0958083
56	0xbfbabb91	-1.4588491
57	0xbff40966	-1.9065368
58	0xbfaef50d	-1.3668534
59	0xc01f33da	-2.4875398
60	0xc017adea	-2.3699899
61	0xc038df8c	-2.8886442
62	0xc002442a	-2.0354104
63	0xbfb92a06	-1.446595

bn2.running_var f4 [64]
0	0x3f48cbd4	0.7843602
1	0x3f15a4a4	0.58454347
2	0x3fbb2cd2	1.4623053
3	0x4007935b	2.1183689
4	0x3f87516b	1.0571722
5	0x3f9c6163	1.221722
6	0x402c0859	2.6880095
7	0x3f38d35b	0.721975
8	0x3fa85105	1.3149725
9	0x3ea9668d	0.33086053
10	0x3f8d88a5	1.1057326
11	0x3eb9308b	0.36169848
12	0x3f18f33e	0.5974616
13	0x3f037421	0.51349074
14	0x3ec746ee	0.38921303
15	0x3ed70291	0.41994146
16	0x3fbed323	1.4908184
17	0x3f7eb292	0.99491227
18	0x3fcdd9ef	1.6082133
19	0x3f7f3b18	0.99699545
20	0x3f69f94e	0.91396034
21	0x3f70c0fb	0.94044465
22	0x3f22bc7e	0.63568866
23	0x3f063c3f	0.5243568
24	0x3ecdab94	0.40169966
25	0x4036099e	2.844337
26	0x3fa9f5d2	1.3278143
27	0x3fbcfeff	1.4765319
28	0x3f300b1b	0.68766946
29	0x3f95a9ab	1.1692404
30	0x3eff77b7	0.49896023
31	0x3f0b48c0	0.5440788
32	0x3fcff905	1.624787
33	0x3fad64f2	1.3546431
34	0x3e97e158	0.2966411
35	0x3efc6b82	0.49300772
36	0x3f539d84	0.82662225
37	0x4023dcaa	2.5603433
38	0x3f598d73	0.8498146
39	0x3f4f34c6	0.809399
40	0x3f3244ad	0.6963604
41	0x40515365	3.270715
42	0x3f94b21a	1.1616852
43	0x3ec9c0b5	0.39404836
44	0x3fa9e580	1.3273163
45	0x407d9ca3	3.9626853
46	0x3f82d394	1.0220819
47	0x3fc5c795	1.5451533
48	0x3f03c639	0.5147434
49	0x3ee48368	0.44631505
50	0x3f08e6ac	0.5347698
51	0x3fcd0d65	1.6019713
52	0x3ef608c9	0.48053578
53	0x3fe555d5	1.7916819
54	0x3f0984b2	0.537181
55	0x3f0e4eae	0.55588806
56	0x3f0a2a50	0.53970814
57	0x3f884530	1.0646114
58	0x401000c7	2.2500474
59	0x3f7d6ee0	0.98997307
60	0x3fba0653	1.453318
61	0x3ec46bcb	0.3836349
62	0x3f83cf4d	1.0297638
63	0x3fa59787	1.2936867

conv3.weight f4 [128, 64, 3]
0	0x3c6387cd	0.013887358
1	0xbbe231a0	-0.0069028884
2	0xbd14dcf3	-0.036343526
3	0xbc87a9bd	-0.01656043
4	0xbd17a5fe	-0.037023537
5	0xbd5a0f21	-0.053237084
6	0xba87b98a	-0.0010354978
7	0x3dabc412	0.08387007
8	0x3d4204ff	0.047368046
9	0x3d86d589	0.06583697
10	0x3e2889be	0.16458794
11	0x3dc8bb0d	0.09801302
12	0xbb3cb7e0	-0.0028796121
13	0xbd6cb05d	-0.05778538
14	0xbe0b821e	-0.13623855
15	0xbd34bf06	-0.044127487
16	0x3d101d16	0.03518399
17	0xbd10c83f	-0.03534722
18	0xbc000ac6	-0.007815069
19	0xbd22f91f	-0.03978836
20	0xbd128044	-0.035766855
21	0x3dd69513	0.104776524
22	0xbe04f5ce	-0.12984392
23	0xbe22d279	-0.15900601
24	0x3dd57952	0.10423531
25	0xbc839ed3	-0.016066944
26	0xbc3db6d0	-0.01157923
27	0x3e00506f	0.12530683
28	0x3d35d181	0.04438925
29	0x3d8496c8	0.06474072
30	0xbd87e1a5	-0.06634835
31	0xbd98660d	-0.0744134
32	0x3d28727c	0.041124806
33	0xbb97af69	-0.004629065
34	0x3d133d27	0.03594699
35	0x3ca9d798	0.020732686
36	0xbdf4b88a	-0.119492605
37	0x3d91efa5	0.07125787
38	0x3d26c56b	0.040715616
39	0xbd91f289	-0.07126338
40	0xbda5c0e7	-0.08093434
41	0xbc949a06	-0.01813985
42	0xbd456079	-0.048187707
43	0xbce051ad	-0.027382696
44	0x3d584b30	0.05280608
45	0xbcbecedb	-0.023291996
46	0xbd76d768	-0.06026402
47	0xbd786dfe	-0.06065177
48	0x3df34b3e	0.11879586
49	0xbcf27f31	-0.029601665
50	0xbd077d73	-0.033078622
51	0x3da44341	0.0802064
52	0x3ce4fd75	0.027952889
53	0xbc827f6d	-0.015929902
54	0x3da49c7b	0.08037659
55	0xbc269145	-0.010166471
56	0xbd1e5f30	-0.038664997
57	0x3d463569	0.04839078
58	0xbdde4d15	-0.10854546
59	0x3d94165f	0.072308294
60	0xbdc0f6f1	-0.094221
61	0xbd3e550d	-0.04646783
62	0x3d7c3d52	0.061581917
63	0xbc9ab8ea	-0.018887002
64	0x3d92e70d	0.07172976
65	0x3c923e84	0.017852075
66	0xbe02ba37	-0.12766348
67	0xbdf7df60	-0.12103152
68	0x3b9502dd	0.0045474605
69	0xbd209fe9	-0.039215002
70	0x3d104fec	0.03523247
71	0x3d9190a2	0.07107665
72	0xbd005cc0	-0.031338453
73	0xbc418d9b	-0.0118135465
74	0xbe139bf3	-0.14414959
75	0x3d0fe62f	0.03513163
76	0xbcbcbda1	-0.02303964
77	0xbcb71205	-0.02234746
78	0xbd26a439	-0.04068396
79	0xbc8d2084	-0.017227419
80	0xbd49f9e0	-0.049310565
81	0xbc6fe8bb	-0.01464289
82	0xbca7f077	-0.020500405
83	0x3ca91fdf	0.02064508
84	0xbd1ff770	-0.039054334
85	0x3d5031f8	0.050828904
86	0x3c5cb5db	0.013471092
87	0xbd3c07fc	-0.045906052
88	0x3d246fdc	0.04014574
89	0x3d8a827a	0.06763168
90	0x3a4557fc	0.00075280643
91	0x3d925961	0.07145954
92	0x3da275e0	0.07932639
93	0x3cd72ea4	0.026267357
94	0x3d29ee9c	0.04148732
95	0xbe0dcfa4	-0.1384874
96	0x3c82f400	0.015985489
97	0xbd965174	-0.07339755
98	0xbd6c5caf	-0.057705577
99	0x3d2dea0b	0.04245953
100	0xbd23522f	-0.0398733
101	0xbc2de3f8	-0.010613434
102	0x3d4d306c	0.050095007
103	0x3c836ea9	0.016043978
104	0xbd62c1e8	-0.055360705
105	0x3c1414db	0.009038175
106	0xbe39d7f5	-0.18148787
107	0x3d3cc3c8	0.04608515
108	0xbda6f748	-0.08152634
109	0xbe2632c5	-0.16230305
110	0x3d95f93d	0.07322929
111	0xbb2aaf2b	-0.002604435
112	0x3caa87d5	0.020816723
113	0x3d1a6349	0.037692342
114	0x3d76f50b	0.060292285
115	0xbd87db40	-0.066336155
116	0xbd3f4167	-0.046693232
117	0xbdc245e0	-0.09485984
118	0xbc897bad	-0.016782606
119	0xbe052f35	-0.1300629
120	0x3cdb219f	0.02674943
121	0x3cc92c82	0.024557356
122	0xbc26aef7	-0.010173551
123	0x3d5a00ee	0.053223543
124	0xbdad65b7	-0.08466666
125	0x3d4ec13e	0.05047726
126	0x3d4b8920	0.04969132
127	0xbacb9d60	-0.0015534572
128	0x3de5cf43	0.11221173
129	0x3d9198c7	0.07109218
130	0x3d165f60	0.03671205
131	0x3c26fdac	0.010192316
132	0x3c60dbe4	0.013724301
133	0xbd7a285d	-0.06107365
134	0xbda22b95	-0.07918469
135	0xbcb99e8a	-0.022658605
136	0x3c4a7ff8	0.012359612
137	0x3c25523f	0.01009041
138	0xbc31a7a2	-0.010843189
139	0x3d6553a6	0.055987976
140	0xbc219a5b	-0.009863461
141	0xbe3f1739	-0.18661202
142	0xbd639331	-0.055560295
143	0xbe49b628	-0.19698393
144	0x3e1d9913	0.15390424
145	0x3c99e221	0.018784584
146	0xbcc4e4cb	-0.024034878
147	0xbe23279c	-0.15933079
148	0xbccfdbb5	-0.02537332
149	0x3d318bf8	0.043346375
150	0x3d4278ba	0.047478415
151	0xbda3c004	-0.079956084
152	0x3c31965a	0.010839069
153	0x3d2d7817	0.042350855
154	0xbd812267	-0.0630539
155	0xbd148583	-0.03626014
156	0xbc45d4d0	-0.012074664
157	0x3e0192f1	0.1265371
158	0xbd7c407d	-0.06158494
159	0xbd9f2ad6	-0.07771842
160	0x3cc9a0d9	0.024612831
161	0xbc222869	-0.00989733
162	0xbd80330f	-0.06259739
163	0xbd70edef	-0.05882066
164	0xbcac08de	-0.021000322
165	0x3d9ea3e0	0.077461004
166	0x3b9a6130	0.0047112927
167	0xbd2e939d	-0.042621244
168	0xbe15a167	-0.14612351
169	0x3aaff326	0.0013423904
170	0x3d7c71b5	0.061631877
171	0xbb463514	-0.003024404
172	0xbdbcadea	-0.09212859
173	0x3cfbb7dc	0.03072732
174	0x3d8445ec	0.06458649
175	0x3e0c4171	0.13696839
176	0x3dd3c45a	0.103401855
177	0x3d9b1676	0.075726435
178	0xbd016685	-0.03159191
179	0xbd1572dd	-0.036486495
180	0x3b7dc1cf	0.0038720255
181	0x3c77cdfc	0.015124794
182	0x3ded7efd	0.11596487
183	0xbdab4585	-0.08362869
184	0x3daf7d45	0.08568815
185	0xbc9f2da7	-0.019430948
186	0x3dfd1db1	0.12359179
187	0xbda00015	-0.07812516
188	0x3dd56e17	0.104213886
189	0x3de21b00	0.11040306
190	0x3c9bb544	0.019007333
191	0xbce1093c	-0.027470224
192	0xbd29b604	-0.04143335
193	0xbe03f3d0	-0.12885976
194	0xbe1a260c	-0.15053576
195	0xbe76237c	-0.24036974
196	0xbd912ba5	-0.07088403
197	0x3e0c416f	0.13696836
198	0x3d731a41	0.05935121
199	0x3d2a2fe8	0.041549593
200	0xbcbde372	-0.023179743
201	0x3e19aeb8	0.15008056
202	0x3e15fc36	0.14646992
203	0x3e0b7838	0.13620079
204	0x3c589114	0.013218183
205	0x3cf5813c	0.02996885
206	0xbd139a6d	-0.036035944
207	0x3ca12abc	0.019673698
208	0x3d920c1a	0.071312144
209	0xbdf22d46	-0.118250415
210	0xbd873412	-0.066017285
211	0x3dd405a0	0.103526354
212	0x3cfd6ae1	0.030934753
213	0x3dd196ce	0.10233842
214	0x3cc192f2	0.02362964
215	0x3d51deaf	0.05123776
216	0xbd1f9749	-0.038962636
217	0x3dc272fe	0.09494589
218	0x3d679985	0.056542892
219	0xbc943cda	-0.018095423
220	0xbc75a78b	-0.014993559
221	0xbd0d6751	-0.03452236
222	0x3d5ff04f	0.054672536
223	0xbdfecf91	-0.12441934
224	0x3d0b1e82	0.03396464
225	0x3d612dd5	0.05497535
226	0x3cd5e79a	0.026111413
227	0x3bc7fed3	0.0061033755
228	0xbda6942c	-0.0813373
229	0xbd4270b6	-0.04747077
230	0xbdf854c3	-0.12125542
231	0x3c972795	0.018451491
232	0xbd29da5e	-0.041468017
233	0xbd8c37dc	-0.06846592
234	0xbb27d063	-0.0025606386
235	0x3dbeae11	0.09310544
236	0x3d27be94	0.040953234
237	0xbe0fb85e	-0.14035174
238	0x3d402e63	0.046919238
239	0x3d44dc3a	0.048061587
240	0x3dbec9ee	0.09315859
241	0xbc84ba5a	-0.01620214
242	0xbd0eaa3a	-0.03483031
243	0xbe0973e0	-0.13423109
244	0xbc8fccaa	-0.017553646
245	0xbcad469f	-0.021151839
246	0x3e4dae23	0.20085959
247	0xbd01dab1	-0.0317027
248	0x3d835d64	0.06414297
249	0xbbc790dc	-0.0060902666
250	0x3beb99a7	0.0071899476
251	0xbd07e048	-0.033172876
252	0x3cc7e768	0.024402335
253	0xbdb21bdb	-0.08696719
254	0xbe064c0c	-0.13114947
255	0xbcbcb042	-0.023033265

conv3.bias f4 [128]
0	0x3deaa855	0.11457888
1	0x3df901b7	0.1215853
2	0x3d247ecd	0.04015999
3	0x3df60c10	0.120140195
4	0x3d839fc3	0.064269565
5	0x3e0ded86	0.13860139
6	0xad33a122	-1.0210751e-11
7	0x3d733499	0.059376333
8	0x3deafd9c	0.114741534
9	0x3d76266e	0.060095243
10	0x3dce52bb	0.10074373
11	0xbc723fc1	-0.014785708
12	0x3e1758ad	0.14779921
13	0x3da008b8	0.07814163
14	0xbb9b20c7	-0.004734132
15	0x3e09b574	0.13448125
16	0x3db8f97e	0.09031962
17	0x3d2c28cd	0.0420311
18	0xafeaa97a	-4.2684772e-10
19	0x3dd8487f	0.105607025
20	0x3e4b0a81	0.19828226
21	0x3d6d1c96	0.05788859
22	0x3d89ad24	0.06722477
23	0x3d9523f9	0.07282252
24	0x3e01404d	0.12622185
25	0x3dea3109	0.11435134
26	0x3de7836c	0.113043636
27	0x3e27cda2	0.16387036
28	0x3e1a431c	0.15064663
29	0x3dab2322	0.083563104
30	0x3d0351d9	0.032060478
31	0x3d1fc94e	0.03901034
32	0x3dca028c	0.09863767
33	0x3d4b441f	0.049625512
34	0x3de54bbe	0.11196087
35	0xa957294e	-4.7775416e-14
36	0x3df5bd13	0.11998954
37	0x3e01b797	0.1266769
38	0x3ddd57df	0.10807776
39	0x3d98cd32	0.07461013
40	0x3debf1d8	0.115207374
41	0x3d6b38b0	0.05742711
42	0x3e1ab311	0.15107371
43	0x3dfdac66	0.12386398
44	0x3dadc8af	0.08485543
45	0x3e0aef6f	0.13567899
46	0x3e144176	0.14478096
47	0x3e1e6373	0.15467624
48	0x3e04de4f	0.12975429
49	0x3dbb0587	0.09131914
50	0x3e432722	0.19057897
51	0x3e15f1a9	0.14642967
52	0x3e3bb0c3	0.18329148
53	0x3d8ed99a	0.06975098
54	0x3e4b53ce	0.19856188
55	0x3e277d82	0.16356471
56	0x3dbd6d53	0.092493676
57	0x3e0efb50	0.13963056
58	0xbe55d875	-0.20883353
59	0x3e498666	0.19680175
60	0x3d97211f	0.07379364
61	0xbdafca1f	-0.085834734
62	0x3e3b364a	0.18282428
63	0xb7c26d51	-2.3177507e-05
64	0x3dc0b428	0.09409362
65	0x3e419729	0.1890532
66	0xa31602de	-8.1321234e-18
67	0x3df3cabc	0.11903903
68	0x3e345cfb	0.17613594
69	0x3e08098a	0.13284889
70	0x3e2111d8	0.15729463
71	0xb4613db2	-2.0977203e-07
72	0x3e3dd9e0	0.18540144
73	0x3e15ef05	0.1464196
74	0x3e15e8d1	0.14639594
75	0x3d959fde	0.07305883
76	0x3da817d7	0.08207672
77	0x3e380fa3	0.17974715
78	0x3d7573f9	0.059925053
79	0x3dabeed4	0.08395162
80	0x3da8b1da	0.082370475
81	0x3c88834c	0.01666417
82	0xbd8ae1f6	-0.0678138
83	0xb6de72ed	-6.6294947e-06
84	0x3d3de229	0.04635826
85	0x3dad89f2	0.084735766
86	0x3dcde13e	0.10052727
87	0x3db65d46	0.08904509
88	0x3dddae6a	0.108242825
89	0x3db7601c	0.08953878
90	0x3e189158	0.14899194
91	0x3d3e682a	0.046486057
92	0x3de654cd	0.11246643
93	0x3e1c98f7	0.15292726
94	0x3df2372b	0.11826929
95	0x3d695b27	0.056971695
96	0x3e05bcf1	0.13060357
97	0xaa94d1b4	-2.6435592e-13
98	0x3dd09440	0.101845264
99	0xbcc6a818	-0.024250075
100	0x3deb1eb9	0.11480469
101	0x3e239638	0.15975273
102	0x3e3134b3	0.1730526
103	0xadd84996	-2.4589036e-11
104	0x3e14054f	0.1445515
105	0xb23ea028	-1.1095871e-08
106	0xbca8870c	-0.020572208
107	0x3dfef865	0.12449721
108	0xbe170abc	-0.14750189
109	0xbd30a066	-0.043121718
110	0x3dfac401	0.12244416
111	0x3de63d2e	0.11242138
112	0x3dcef304	0.10104945
113	0x3d15c292	0.03656251
114	0x3dbdb8ff	0.09263801
115	0x3e1cdb54	0.15318042
116	0x3e1520b0	0.1456325
117	0x3d9551ed	0.07291017
118	0x3d939885	0.07206825
119	0x3dc87038	0.09787029
120	0x3d442738	0.047888964
121	0xbdc8d435	-0.098061
122	0x3e23ac46	0.15983686
123	0x3dc98389	0.098395415
124	0x3d228695	0.03967913
125	0xbadaf348	-0.0016704584
126	0xbd76f176	-0.06028887
127	0x3dd4cfc1	0.103911884

se.fc.0.weight f4 [8, 128]
0	0xacadc2f7	-4.938601e-12
1	0xb160128e	-3.2606837e-09
2	0xa8019aea	-7.19453e-15
3	0xb107eea8	-1.9780746e-09
4	0x80007714	-4.2717e-41
5	0xb2354b3d	-1.0552694e-08
6	0x00008e2a	5.0999e-41
7	0xa35b8f5c	-1.1902371e-17
8	0xb384da4f	-6.186439e-08
9	0xb255237f	-1.2406303e-08
10	0xb1a5bc00	-4.823505e-09
11	0x8000962c	-5.3872e-41
12	0xb19323a5	-4.2823154e-09
13	0xaf085bc0	-1.2401724e-10
14	0x0000a8d7	6.0568e-41
15	0x91a1fd7c	-2.5557543e-28
16	0xb03454e3	-6.560425e-10
17	0x000098c0	5.4796e-41
18	0x80008e24	-5.099e-41
19	0xae828304	-5.9349886e-11
20	0x9ca9490a	-1.1202362e-21
21	0xaefe15c4	-1.1554449e-10
22	0xb175b86f	-3.575703e-09
23	0xb305fb26	-3.1194894e-08
24	0xb491bdbd	-2.7146407e-07
25	0xad364350	-1.0360449e-11
26	0x80008c31	-5.0291e-41
27	0xac0fba78	-2.0425033e-12
28	0xa776377e	-3.416944e-15
29	0xa172dc8b	-8.2284675e-19
30	0xb2a11b16	-1.8755184e-08
31	0xafb1f780	-3.2371972e-10
32	0xaf0ba92b	-1.2702077e-10
33	0xa6ef6839	-1.6612206e-15
34	0xad67e971	-1.3182664e-11
35	0x0000905c	5.1786e-41
36	0xa8c32f00	-2.1669732e-14
37	0xa0a4af86	-2.7898832e-19
38	0xb35c7494	-5.132877e-08
39	0xb1246c34	-2.3926647e-09
40	0xb3017756	-3.014369e-08
41	0xb224a0d3	-9.582624e-09
42	0xb1ae680e	-5.075896e-09
43	0xaf019ac1	-1.1787461e-10
44	0xb3864504	-6.252415e-08
45	0x962b57d1	-1.384098e-25
46	0xb304b278	-3.089596e-08
47	0xad253357	-9.390564e-12
48	0xb0b0272b	-1.2816818e-09
49	0xb361bf73	-5.2561017e-08
50	0xad00b979	-7.317141e-12
51	0xb091bc7b	-1.0603708e-09
52	0xb28c7b56	-1.6354232e-08
53	0xb00fc7d6	-5.230708e-10
54	0xaf16ab82	-1.3703352e-10
55	0xac94d5e6	-4.2301605e-12
56	0xb30d8779	-3.2952332e-08
57	0xb2048f25	-7.7159585e-09
58	0x0000ab2f	6.1409e-41
59	0xb19f09c0	-4.6286175e-09
60	0xaff890e8	-4.52139e-10
61	0x80008a26	-4.9558e-41
62	0xaffbecd9	-4.5824924e-10
63	0x80009459	-5.3217e-41
64	0xb2ed86e0	-2.7651765e-08
65	0x94377097	-9.261343e-27
66	0x800090b1	-5.1905e-41
67	0xab9b1d3c	-1.1021527e-12
68	0xb21bc1a7	-9.066219e-09
69	0xaf85a722	-2.4311314e-10
70	0xae002575	-2.91371e-11
71	0x00009f74	5.7201e-41
72	0xb000df17	-4.688316e-10
73	0xae4f1560	-4.7085336e-11
74	0xb2fddccd	-2.9553485e-08
75	0xa4628c8a	-4.912498e-17
76	0xa48d2ab7	-6.1221364e-17
77	0xb08bfba2	-1.0185099e-09
78	0xaf947d5e	-2.7010122e-10
79	0x80008916	-4.9177e-41
80	0xaa136f6d	-1.3094881e-13
81	0x0000896a	4.9295e-41
82	0x00008958	4.927e-41
83	0x80008c5b	-5.035e-41
84	0xac3d2892	-2.6881036e-12
85	0x8b5eebd1	-4.2933053e-32
86	0xb1638086	-3.3105905e-09
87	0xad437faa	-1.1112814e-11
88	0xa9744dee	-5.4246477e-14
89	0x9fa8e691	-7.153221e-20
90	0xb03e78aa	-6.929307e-10
91	0xb1192f37	-2.2291269e-09
92	0xb2f41d2f	-2.841861e-08
93	0x80008920	-4.9191e-41
94	0xb04320d4	-7.098724e-10
95	0xb0d76092	-1.5670756e-09
96	0xaf2437fd	-1.4935604e-10
97	0x800091a9	-5.2253e-41
98	0xb3872ea2	-6.29491e-08
99	0x80008908	-4.9158e-41
100	0xae515a6b	-4.7601405e-11
101	0xada42b90	-1.8663987e-11
102	0xb2e98bf4	-2.7188413e-08
103	0x80008af0	-4.9841e-41
104	0xb1c7c3cc	-5.813922e-09
105	0x00009731	5.4237e-41
106	0x800089fa	-4.9497e-41
107	0xb111c332	-2.1211233e-09
108	0x0000a7ea	6.0236e-41
109	0x000088de	4.9099e-41
110	0xb386b48f	-6.272705e-08
111	0xa53d483b	-1.641761e-16
112	0xafc84036	-3.6425413e-10
113	0x00008989	4.9338e-41
114	0xb08b5cfe	-1.0140011e-09
115	0xaf027117	-1.1863609e-10
116	0xaec8c650	-9.1301744e-11
117	0xb1a8e6d5	-4.915686e-09
118	0xb308f294	-3.188559e-08
119	0xb240c0cf	-1.12197105e-08
120	0xa3002d65	-6.9485066e-18
121	0x000089f3	4.9487e-41
122	0xa7db7032	-6.0906353e-15
123	0xb0885077	-9.918172e-10
124	0x8000910e	-5.2036e-41
125	0x800088d2	-4.9082e-41
126	0x000089ed	4.9478e-41
127	0xb0d3df6b	-1.541577e-09
128	0xb7d0c36d	-2.4886534e-05
129	0x3b8c4e6f	0.004281811
130	0xb4d13734	-3.896945e-07
131	0x3ac35ea9	0.001490553
132	0x800089aa	-4.9385e-41
133	0x3aa80aec	0.0012820638
134	0x80008a4e	-4.9614e-41
135	0xb302a9b6	-3.0422335e-08
136	0xb9f41bda	-0.00046560058
137	0xb95b3244	-0.00020904193
138	0x3a211c14	0.00061458466
139	0x00008a3f	4.9593e-41
140	0x3b39de61	0.0028361308
141	0xb71fbf0d	-9.521621e-06
142	0x0000a6f0	5.9886e-41
143	0x8000b62b	-6.535e-41
144	0xba46255e	-0.0007558669
145	0x240c6924	3.044672e-17
146	0x8bf876a8	-9.570466e-32
147	0xb9d7e504	-0.00041178626
148	0xab5e1568	-7.889995e-13
149	0xb6b73907	-5.460464e-06
150	0xba1efd60	-0.00060649775
151	0x0000897d	4.9322e-41
152	0xbb3c3e37	-0.0028723606
153	0x3a92d0e0	0.0011201166
154	0xabf2b58a	-1.7245521e-12
155	0xb8bc3c97	-8.975824e-05
156	0x1b5d8f0e	1.8326915e-22
157	0xb78d8ebc	-1.6874976e-05
158	0xb894a6db	-7.088269e-05
159	0xb8d26f28	-0.00010034285
160	0xba5ca6d4	-0.00084171933
161	0x80008957	-4.9268e-41
162	0xb593d157	-1.1013279e-06
163	0x8000a07d	-5.7572e-41
164	0x80007954	-4.3524e-41
165	0x1d4ae32e	2.6851927e-21
166	0xb9105b30	-0.0001376688
167	0xba19bd98	-0.00058647385
168	0x375a6911	1.3018275e-05
169	0x395d6d8e	0.00021117015
170	0xbb011a9e	-0.0019699703
171	0xb855e8fe	-5.100015e-05
172	0x39e81f77	0.0004427393
173	0x314c2e7c	2.971233e-09
174	0x3a165c6f	0.00057358196
175	0x95e426c7	-9.2149646e-26
176	0xb623fb74	-2.4435258e-06
177	0xbacab737	-0.0015465979
178	0xb924b387	-0.00015707138
179	0x3a054518	0.0005083843
180	0x019d6e40	5.783089e-38
181	0x3b72a275	0.0037023101
182	0xb7431d85	-1.1629779e-05
183	0xb989f92c	-0.00026316324
184	0x38afdca4	8.385748e-05
185	0x39f90063	0.0004749327
186	0x00009092	5.1862e-41
187	0xba4437e4	-0.0007485135
188	0xba2b8152	-0.00065424026
189	0x000088ef	4.9123e-41
190	0xba232d8d	-0.0006224744
191	0x00008911	4.917e-41
192	0xba83e9b1	-0.0010064152
193	0xb21b57e4	-9.0421715e-09
194	0x800088f3	-4.9128e-41
195	0xba2f5638	-0.0006688568
196	0xbba1521e	-0.004923119
197	0xba84e1bd	-0.0010138076
198	0x39e031ff	0.0004276186
199	0x8000890d	-4.9165e-41
200	0xbad6ae96	-0.0016378935
201	0x3b382d40	0.0028103143
202	0xb74fd598	-1.2387893e-05
203	0xb0cc45b0	-1.486276e-09
204	0x07034f92	9.878728e-35
205	0xba2f0d4c	-0.00066777016
206	0x3b00276a	0.0019554743
207	0x8000893f	-4.9235e-41
208	0xb84d4097	-4.8935963e-05
209	0x1941c4d0	1.0017612e-23
210	0x00008b47	4.9963e-41
211	0x800088da	-4.9093e-41
212	0x37b25974	2.1260908e-05
213	0x31d10bf1	6.084058e-09
214	0x38513ee6	4.988806e-05
215	0x3b0a3a1e	0.002109177
216	0x3a2a93ea	0.0006507026
217	0xb059a13e	-7.917328e-10
218	0x380b669d	3.323575e-05
219	0x3b155fb9	0.002279265
220	0xbabfa5c6	-0.0014621548
221	0xa2ac998c	-4.6783267e-18
222	0xb44b7178	-1.8947128e-07
223	0xb9d644c0	-0.00040868483
224	0xba86393f	-0.0010240449
225	0x0000896b	4.9296e-41
226	0xba3cb0b3	-0.0007197961
227	0x80008b6f	-5.002e-41
228	0x367c9c7c	3.7642012e-06
229	0x3a4b8b6b	0.00077646103
230	0x3a8a75d6	0.0010563682
231	0x8000a20f	-5.8136e-41
232	0xbaad20d3	-0.0013208635
233	0x00009d50	5.6433e-41
234	0x00008967	4.929e-41
235	0x39216f14	0.00015395536
236	0x00008ae1	4.982e-41
237	0x0000af78	6.2946e-41
238	0x3ac82205	0.0015268928
239	0x80008a15	-4.9534e-41
240	0xb8f2f10a	-0.00011584356
241	0x00008a35	4.958e-41
242	0x8000892d	-4.921e-41
243	0xb9dae24d	-0.00041748807
244	0x800088c0	-4.9057e-41
245	0x3777aa50	1.4762001e-05
246	0x3b4b4fac	0.003102283
247	0xba1c9060	-0.0005972441
248	0x365e546f	3.3129725e-06
249	0x80009c2f	-5.6028e-41
250	0xb60e582e	-2.1210976e-06
251	0x39bd5b0f	0.00036116733
252	0x0000893a	4.9228e-41
253	0x000089ae	4.939e-41
254	0x000088ea	4.9116e-41
255	0x39d10ea4	0.00039874495

se.fc.0.bias f4 [8]
0	0xaab7cb52	-3.2648412e-13
1	0xbac0963a	-0.0014693209
2	0x9b17733a	-1.2527659e-22
3	0x3d8af0f0	0.067842364
4	0xa39906e4	-1.6591212e-17
5	0x3db19cb8	0.0867247
6	0x3cffd31e	0.031228598
7	0x3cea3ae7	0.02859254

se.fc.2.weight f4 [128, 8]
0	0xb6531c8e	-3.145807e-06
1	0x2cae7ef7	4.9594734e-12
2	0x000089f1	4.9484e-41
3	0x3e8d6990	0.276196
4	0xa0edcd37	-4.0285161e-19
5	0x3e55fbca	0.20896831
6	0x3d87ad1f	0.06624817
7	0x3a47840e	0.0007610925
8	0x377ab30c	1.4942849e-05
9	0x2d43cd78	1.113009e-11
10	0x8000472d	-2.5533e-41
11	0x3c257a42	0.010099949
12	0x2231d1d8	2.4099063e-18
13	0x3d9903a7	0.074714
14	0xbc043d8b	-0.008071314
15	0x3ca115b4	0.01966367
16	0x34832894	2.4430176e-07
17	0x800088d0	-4.9079e-41
18	0x00008972	4.9306e-41
19	0x3ee836c5	0.45354286
20	0x9f41af7c	-4.1014497e-20
21	0x3ef452bb	0.47719368
22	0x3e7893b2	0.24275091
23	0x33fe43fd	1.1840164e-07
24	0x37b89fa0	2.200884e-05
25	0xb71ff0f9	-9.533244e-06
26	0x88f633d6	-1.4817773e-33
27	0x3cf3325c	0.0296871
28	0x213507da	6.1335577e-19
29	0xbccecaa7	-0.025243117
30	0xbcf9290f	-0.030415086
31	0x3cc5b4ff	0.024134157
32	0xb451a994	-1.9526334e-07
33	0x000088d8	4.909e-41
34	0x000088e0	4.9101e-41
35	0x3e927acf	0.2860932
36	0xa186bd23	-9.130257e-19
37	0x3eb5feaf	0.3554587
38	0xbc93bcdb	-0.01803439
39	0x3627ad90	2.4985966e-06
40	0xb800c520	-3.0701165e-05
41	0xa92727dc	-3.711602e-14
42	0x800089ea	-4.9474e-41
43	0x3e82c8c3	0.25543794
44	0x2174cbc9	8.2940123e-19
45	0xbe4a4534	-0.19752961
46	0xbe4be84b	-0.19912831
47	0x39977412	0.00028887443
48	0x800089b0	-4.9393e-41
49	0x800089fb	-4.9498e-41
50	0x00008aff	4.9862e-41
51	0x89e9d1a0	-5.628984e-33
52	0x0000a0eb	5.7726e-41
53	0x89a5a431	-3.987671e-33
54	0x094a09de	2.4319505e-33
55	0x000088c1	4.9058e-41
56	0x2fce3a2c	3.7512515e-10
57	0xaf039816	-1.1968412e-10
58	0x80008a05	-4.9512e-41
59	0xbd6270e6	-0.05528345
60	0x21bb2408	1.268115e-18
61	0xbe64982b	-0.22323672
62	0x3e0bc198	0.13648069
63	0x39344114	0.00017190381
64	0xb691dc61	-4.3469922e-06
65	0x9ebef1c7	-2.021703e-20
66	0x8717e021	-1.1425843e-34
67	0xbe784f62	-0.24249032
68	0x21888ed6	9.253527e-19
69	0x3eb53c78	0.35397696
70	0xbdab023b	-0.08350035
71	0xbbf85931	-0.007578992
72	0x35696949	8.6952474e-07
73	0x3058fffe	7.894413e-10
74	0x069ac7fc	5.822221e-35
75	0x3e17fc0b	0.1484224
76	0x2211a215	1.973697e-18
77	0xbe4f9c8d	-0.20274563
78	0xbd9a2b38	-0.075277746
79	0xbb5d0a50	-0.003372807
80	0x37b97b59	2.2111157e-05
81	0x96dff702	-3.6183477e-25
82	0x800088f1	-4.9125e-41
83	0xbe8a0dd2	-0.2696367
84	0x21169f7d	5.103306e-19
85	0x3dc716e9	0.09721167
86	0xbce08d84	-0.02741123
87	0xbad61f3a	-0.001633621
88	0x00008a35	4.958e-41
89	0x80008acc	-4.9791e-41
90	0x000089e8	4.9471e-41
91	0xbcbffb4a	-0.023435254
92	0x00008ac4	4.978e-41
93	0xbcbabf9f	-0.02279645
94	0xbcc5efae	-0.02416214
95	0x8000897d	-4.9322e-41
96	0x34f1374b	4.492998e-07
97	0xb0c6512d	-1.4429468e-09
98	0x00008947	4.9246e-41
99	0x3e9bf526	0.3046047
100	0x22476590	2.7023296e-18
101	0x3de8ec23	0.113731645
102	0xbd904b84	-0.070456535
103	0xbae65ad0	-0.0017574672
104	0x373538f1	1.0801698e-05
105	0x29748f00	5.4302916e-14
106	0x8000894e	-4.9256e-41
107	0x3ea03003	0.3128663
108	0xa1863af6	-9.0958e-19
109	0xbe4fd318	-0.2029537
110	0xbc90c1c2	-0.017670516
111	0xbb4968ce	-0.0030732634
112	0x00008d54	5.0699e-41
113	0x000089a9	4.9383e-41
114	0x80008c10	-5.0245e-41
115	0xba30823b	-0.0006733273
116	0x8000a7ff	-6.0266e-41
117	0xb9ae7feb	-0.00033283173
118	0xba8e9e78	-0.0010880968
119	0x80008903	-4.915e-41
120	0x3492d4c6	2.7349432e-07
121	0x00008990	4.9348e-41
122	0x80008a0a	-4.9519e-41
123	0x3ed9290c	0.4241413
124	0x9f0c2f87	-2.9685467e-20
125	0x3ecffb53	0.40621433
126	0x3e787fca	0.24267498
127	0x1dcc4912	5.4073903e-21
128	0x35c6bb98	1.4806747e-06
129	0xa58051af	-2.2259811e-16
130	0x000089d0	4.9438e-41
131	0x3d2b8e12	0.041883536
132	0x217a739c	8.48563e-19
133	0x3e91662c	0.28398263
134	0xbd88c241	-0.06677676
135	0xbae5fac9	-0.0017546053
136	0x00008926	4.92e-41
137	0x9bfb60e5	-4.1587083e-22
138	0x0000892b	4.9207e-41
139	0x3e8b8eff	0.27257535
140	0x20d16116	3.5470223e-19
141	0x3dfc52b0	0.12320459
142	0x3e090554	0.13380939
143	0x345e9b9e	2.0731974e-07
144	0x80008b0d	-4.9882e-41
145	0x80008a2d	-4.9568e-41
146	0x80008913	-4.9173e-41
147	0x000089c6	4.9424e-41
148	0x00008969	4.9293e-41
149	0x00008a2e	4.957e-41
150	0x00008917	4.9179e-41
151	0x00008932	4.9216e-41
152	0x354e2576	7.6795493e-07
153	0xb587e186	-1.012392e-06
154	0x08686c62	6.9942364e-34
155	0xbd75dbcd	-0.06002407
156	0x225324a7	2.8615236e-18
157	0xbd80a606	-0.062816665
158	0xbe4af70f	-0.19820808
159	0xbbc3e272	-0.005977922
160	0xb7bfd1fc	-2.2866756e-05
161	0x00008909	4.9159e-41
162	0x00008996	4.9357e-41
163	0xbe54ca85	-0.2078038
164	0xa0a3f6e8	-2.7776663e-19
165	0xbb72f801	-0.0037074091
166	0x3b4060d8	0.0029354598
167	0xb55581a6	-7.9537347e-07
168	0x35837a1c	9.795799e-07
169	0x0686845a	5.059967e-35
170	0x00008947	4.9246e-41
171	0x3d892b6d	0.06697736
172	0x22755da9	3.3253275e-18
173	0x3e2a9283	0.16657452
174	0xbe52eae3	-0.20597415
175	0x3a6ddb1f	0.0009073484
176	0x3581cafa	9.670323e-07
177	0xac3e0d84	-2.7008127e-12
178	0x810e13e4	-2.6095552e-38
179	0xbe6b1e41	-0.2296076
180	0x9dcefd81	-5.4789863e-21
181	0x3e9e33ba	0.3089884
182	0x3e05409b	0.13012926
183	0xbc008795	-0.007844825
184	0x39c253a9	0.00037064895
185	0x00008aa0	4.9729e-41
186	0x1867b402	2.994693e-24
187	0xbe1955c2	-0.1497412
188	0xa22d4302	-2.3481346e-18
189	0x3e8a368a	0.26994735
190	0xbd08cbfc	-0.03339766
191	0xb63c13fc	-2.8025815e-06
192	0x3890c664	6.903408e-05
193	0xb3ae7adb	-8.124854e-08
194	0x19a9e224	1.7565528e-23
195	0xbd0afa1f	-0.03392994
196	0x2246b496	2.6929605e-18
197	0xbd5fdaae	-0.05465191
198	0xbd5f4f5e	-0.05451905
199	0xbcfd7754	-0.03094069
200	0xb875e0b2	-5.8621816e-05
201	0x370b33c6	8.2971e-06
202	0x10b2db1c	7.054621e-29
203	0xbdec5e00	-0.115413666
204	0xa251e265	-2.8444634e-18
205	0xbe096457	-0.13417183
206	0xbdd883a0	-0.105719805
207	0x3b977606	0.004622224
208	0x000089d8	4.9449e-41
209	0x156f1acb	4.8286802e-26
210	0x00008a86	4.9693e-41
211	0x3e6e28b3	0.23257713
212	0xa18b616b	-9.444793e-19
213	0xbe3c566b	-0.18392341
214	0x3d05b130	0.032639682
215	0x32ae3fa8	2.0285214e-08
216	0x348bf5ee	2.6069705e-07
217	0x8000756e	-4.2126e-41
218	0x800089cd	-4.9434e-41
219	0x3e9c3f26	0.30516928
220	0xa1f65289	-1.6691455e-18
221	0xbc0fa70e	-0.008767856
222	0xbd0d06f9	-0.034430478
223	0x38206128	3.8237456e-05
224	0x34444bcb	1.8281496e-07
225	0x0000899b	4.9364e-41
226	0x800089da	-4.9452e-41
227	0x3e66a5bf	0.22524165
228	0x1fc4256b	8.307113e-20
229	0x3ea5642b	0.32302985
230	0x3e6a0d7e	0.2285671
231	0xa7239382	-2.2700758e-15
232	0x34268f45	1.5512076e-07
233	0xabb09695	-1.2547347e-12
234	0x80008999	-4.9361e-41
235	0x3e5023c4	0.20326144
236	0x1fbe59b5	8.061654e-20
237	0x3ed7e068	0.42163396
238	0x3de169fc	0.11006543
239	0x394fe3f6	0.0001982598
240	0xb5e29ea3	-1.6884482e-06
241	0xa17df122	-8.603887e-19
242	0x181a386f	1.9932525e-24
243	0xbdcfd921	-0.10148836
244	0x207c6a47	2.1380394e-19
245	0x3d243c74	0.040096715
246	0xbd800ee1	-0.06252838
247	0xbb6c6ff4	-0.0036077471
248	0x364a883b	3.0179642e-06
249	0x271b6164	2.1563367e-15
250	0x107200f6	4.7726825e-29
251	0xbe570e7f	-0.21001624
252	0x207ee8ad	2.1591623e-19
253	0x3df4bb29	0.119497605
254	0x3d312cb4	0.043255523
255	0x38c1d29c	9.242186e-05
