checkpoints_kfold/fold3_best_model.pth (torch, 228335 bytes, 23 tensors)

conv1.weight f4 [32, 1, 5]
0	0x3ec43705	0.38323227
1	0xbd07742c	-0.033069775
2	0xbd76a774	-0.06021829
3	0xbe847b94	-0.25875533
4	0x3e828810	0.25494432
5	0x3d080b43	0.033213865
6	0x3e6338f0	0.22189689
7	0xbd2c77a6	-0.042106293
8	0x3ddc0a17	0.10744112
9	0x3eb1594f	0.3463845
10	0xbede150b	-0.4337543
11	0xbea46b5e	-0.32113165
12	0x3ecd55cd	0.40104523
13	0x3e1d998f	0.15390609
14	0xbea9e225	-0.33180347
15	0x3d8ee891	0.06977952
16	0xbdedf55f	-0.116190664
17	0xbee5d6ae	-0.4489035
18	0xbe66eef8	-0.22552097
19	0x3e8f3f78	0.2797811
20	0x3e66394f	0.22482799
21	0xbec4e2f6	-0.38454407
22	0x3e77bbc3	0.24192719
23	0xbd4dced3	-0.05024607
24	0xbe473c36	-0.19456562
25	0x3e8c94bc	0.27457225
26	0x3ea83a32	0.328569
27	0x3ed670a3	0.4188281
28	0x3df8c1b7	0.12146323
29	0x3d95a840	0.07307482
30	0xbedab898	-0.4271896
31	0x3e800d8a	0.2501033
32	0x3e4fa656	0.20278296
33	0xbef7fa80	-0.48433304
34	0x3e99976d	0.2999834
35	0xbdc42a6f	-0.09578406
36	0x3e5db4f2	0.21651056
37	0xbe960a1e	-0.29304594
38	0xbbb2e390	-0.0054592565
39	0xbe9c8256	-0.30568188
40	0xbed781c3	-0.42091188
41	0x3d03719a	0.03209076
42	0xbd91f46d	-0.07126699
43	0x3ea8aeda	0.329459
44	0x3ea01ce5	0.31272045
45	0x3e9d15f2	0.30680805
46	0xbd829268	-0.06375581
47	0x3dfd3686	0.12363915
48	0x3e5acac1	0.21366407
49	0xbef4a65f	-0.4778318
50	0x3ea1eded	0.31626835
51	0x3ebf978f	0.37420318
52	0x3ee758fc	0.45185077
53	0x3eb5cc1b	0.35507283
54	0xbd7f92d0	-0.06239587
55	0x3e723bba	0.23655596
56	0x3e7c39ac	0.24631375
57	0xbf0de9be	-0.5543479
58	0x3e9fd5d8	0.31217837
59	0x3d7097f3	0.05873866
60	0x3d8b8a94	0.06813541
61	0x3e81daef	0.25362346
62	0xbc4da766	-0.012552118
63	0x3ebe8b4d	0.37215653
64	0x3ea6a84c	0.32550275
65	0xbe1b9ed6	-0.1519731
66	0xbecdb628	-0.40178037
67	0xbdb007b2	-0.08595218
68	0x3ea5eb9d	0.3240632
69	0xbe52e164	-0.20593792
70	0xbeb3fdc1	-0.35154536
71	0xbe9e0e41	-0.3087025
72	0x3de2113b	0.11038443
73	0xbebbef49	-0.36705998
74	0x3dff95e9	0.12479765
75	0xbe91ab66	-0.2845108
76	0xbe971571	-0.29508546
77	0xbe0c1d7c	-0.13683122
78	0xbe2ef188	-0.17084324
79	0xbdad8d46	-0.084742114
80	0x3eb554dc	0.35416305
81	0x3eba36e4	0.36370003
82	0x3cedfaf5	0.02905033
83	0x3dcdc983	0.10048201
84	0xbe75ea21	-0.24015094
85	0x3dcee2c4	0.10101846
86	0x3e0cdaf7	0.13755403
87	0xbdfe83ee	-0.12427507
88	0xbdfd04ae	-0.12354408
89	0x3d315e5e	0.043302886
90	0x3ecfd0d6	0.40589017
91	0xbec52141	-0.38501933
92	0xbe850486	-0.25980014
93	0xbeaec863	-0.34137258
94	0xbea0e6b7	-0.3142602
95	0x3e4661ec	0.19373292
96	0xbbaa6369	-0.005199839
97	0xbe907764	-0.28216088
98	0x3ecab3d6	0.3959033
99	0x3ed0eadb	0.4080418
100	0xbdd3e091	-0.10345567
101	0x3e241406	0.16023263
102	0xbeb59f8a	-0.3547328
103	0xbe12cc5d	-0.14335771
104	0x3e8fab4e	0.28060383
105	0x3bbea95c	0.005818529
106	0xbeaf8fa6	-0.34289283
107	0x3e4097bb	0.1880788
108	0x3c8d095d	0.017216379
109	0xbc834d80	-0.016028166
110	0x3d065215	0.032793123
111	0x3e36b3c6	0.17842016
112	0xbed24a1b	-0.41072163
113	0x3e9388f0	0.28815413
114	0xbe9adbf0	-0.30245924
115	0xbe9f46c5	-0.3110868
116	0xbe929c9b	-0.28635105
117	0xbe80c93f	-0.2515354
118	0xbeaedc0a	-0.3415225
119	0x3ea719a4	0.3263675
120	0xbeae523e	-0.3404712
121	0xbe500174	-0.20313054
122	0xbe16991a	-0.14706841
123	0xbe94a019	-0.29028395
124	0xbe8ac7c0	-0.27105522
125	0xbe84765d	-0.25871554
126	0x3e09a80c	0.13443011
127	0xbde2c271	-0.11072243
128	0x3e82e902	0.25568396
129	0xbe86c6c1	-0.26323512
130	0xbea67ce9	-0.32517174
131	0xbedd0c18	-0.4317329
132	0x3d08593a	0.033288218
133	0x3eb5c5c2	0.3550244
134	0x3db1523d	0.08658264
135	0xbe170431	-0.14747693
136	0xbe6bcba6	-0.23026904
137	0x3de0b1e0	0.10971427
138	0x3df16eda	0.117887214
139	0x3ec21b81	0.3791161
140	0x3d2fff5a	0.04296813
141	0xbea41dc8	-0.3205397
142	0xbedaa4fd	-0.42704
143	0x3eb7e1bc	0.3591441
144	0xbea443b8	-0.32082915
145	0x3e8d9230	0.27650595
146	0xbde4f950	-0.11180365
147	0xbee9d5cc	-0.45670927
148	0x3e7dd04a	0.24786487
149	0x3ba50694	0.0050361846
150	0x3ebe69c8	0.3719008
151	0xbd859306	-0.06522183
152	0xbed89c12	-0.42306572
153	0xbd53392b	-0.05156819
154	0xbe9dc5cc	-0.3081497
155	0xbeaab11b	-0.33338246
156	0xbe3b7503	-0.18306355
157	0xbe1bb033	-0.15203933
158	0xbe6e0fe3	-0.23248248
159	0xbe76db6d	-0.24107142

conv1.bias f4 [32]
0	0xba85787e	-0.0010183004
1	0x3b0683ed	0.0020525411
2	0xbb04afc7	-0.0020246373
3	0xb94fdf6c	-0.0001982429
4	0xb9dd21fe	-0.0004217773
5	0x37ea202b	2.7909953e-05
6	0x3b2a5e98	0.0025996324
7	0xbb1be5c9	-0.0023788086
8	0x3a1802f7	0.00057987816
9	0xbb0dbe52	-0.0021628332
10	0x39849970	0.00025291322
11	0xbade92b6	-0.0016980979
12	0x3b2afef6	0.002609191
13	0x3bac1602	0.005251647
14	0x3a084d36	0.00051994936
15	0x3b623389	0.003451558
16	0xba4fda8b	-0.0007928989
17	0x3b55d3c3	0.003262744
18	0x3a842ca1	0.0010084101
19	0xbaa49d99	-0.0012559175
20	0x3b52944a	0.0032131844
21	0xba8dec40	-0.0010827854
22	0x3aa4b28a	0.0012565416
23	0x3add1bab	0.0016869208
24	0xba803788	-0.0009782175
25	0xbaf6022a	-0.0018768955
26	0x3a13c2fb	0.00056366593
27	0x3b01b0e0	0.0019789264
28	0x3b1a4310	0.0023538508
29	0x3a0933b7	0.00052338414
30	0x3a4c125e	0.00077847193
31	0xb9cd5b67	-0.00039168747

bn1.weight f4 [32]
0	0x3f5f356a	0.8719088
1	0x3f49a96f	0.7877416
2	0x3f86a946	1.0520408
3	0x3f89091a	1.0705903
4	0x3f7304db	0.94929284
5	0x3f3f15e5	0.74642783
6	0x3f878207	1.0586556
7	0x3f9a9413	1.2076439
8	0x3f7254b8	0.9466052
9	0x3f7a35e2	0.9773847
10	0x3f3bd3f1	0.7337027
11	0x3f61d238	0.88211393
12	0x3f491ce8	0.7855973
13	0x3f9737bf	1.1813887
14	0x3faa2b53	1.3294472
15	0x3f9a0c41	1.203499
16	0x3f3b78d6	0.73231256
17	0x3f635694	0.8880398
18	0x3f9eeeab	1.2416586
19	0x3f627f4e	0.884755
20	0x3f80248c	1.0011153
21	0x3f724724	0.946398
22	0x3f57d97a	0.8431622
23	0x3fa4e95d	1.2883717
24	0x3f956b85	1.1673437
25	0x3f761e10	0.9613962
26	0x3f89037d	1.070419
27	0x3f6b1354	0.9182637
28	0x3f943d5f	1.1581229
29	0x3f4da2be	0.8032645
30	0x3f8588ed	1.0432411
31	0x3f989728	1.1921129

bn1.bias f4 [32]
0	0xbe2f669a	-0.17128983
1	0xbea149f8	-0.31501746
2	0x3e8bab92	0.27279335
3	0x3e3f9996	0.18710932
4	0x3e708b6e	0.23490688
5	0xbed97b79	-0.42477015
6	0x3eb869c8	0.36018205
7	0x3ec26bf5	0.3797299
8	0xbe69c7ad	-0.22830077
9	0xbe54a1e9	-0.20764889
10	0xbee84d07	-0.45371267
11	0xbe90f9a0	-0.2831545
12	0xbe87e1f9	-0.2653959
13	0x3e780bf0	0.24223304
14	0x3e91d2c5	0.28481117
15	0x3e885080	0.26623917
16	0xbcd31ad3	-0.025769627
17	0xbe387292	-0.18012455
18	0x3e7a764f	0.24459194
19	0xbe96958a	-0.29410964
20	0x3e9dce9f	0.30821702
21	0x3eec6402	0.4617005
22	0x3f1959c5	0.599026
23	0x3e66cc22	0.22538808
24	0x3e6565db	0.22402136
25	0x3f057bda	0.5214211
26	0x3e5cb65a	0.21553937
27	0x3d8108f4	0.06300536
28	0x3e85175b	0.2599438
29	0xbd4890dc	-0.048966274
30	0x3e9a3f16	0.30126256
31	0x3e803bad	0.2504553

bn1.running_mean f4 [32]
0	0x37beaa30	2.2729015e-05
1	0x3be33781	0.006934107
2	0xbba8cd2d	-0.005151412
3	0xbb8e7f65	-0.0043486827
4	0xba870fe9	-0.0010304424
5	0x3c0b6120	0.008507043
6	0x3af42cd5	0.0018629084
7	0xbb6d862c	-0.0036243303
8	0x3b0a55f9	0.0021108373
9	0xbaeb261d	-0.0017940436
10	0x3c279016	0.010227224
11	0x3a748321	0.0009327401
12	0x3c13ef8b	0.009029279
13	0xb932f062	-0.00017064952
14	0xbb90b7ef	-0.004416458
15	0xbb929817	-0.004473697
16	0x3b8daf57	0.0043238807
17	0x3b6ea1af	0.003641229
18	0xbba7f359	-0.005125445
19	0x3ba9a70c	0.0051773842
20	0xba805fed	-0.0009794213
21	0xb97c54b6	-0.0002406415
22	0xba8b9ee2	-0.0010652209
23	0xbb8ff15b	-0.0043927855
24	0xbc2f4b5f	-0.010699122
25	0xbb11ccc7	-0.00222473
26	0xba500da8	-0.0007936605
27	0x3b31fcb7	0.0027158686
28	0xbb1272ca	-0.0022346252
29	0x3a386953	0.00070347375
30	0xbb51dcd9	-0.0032022505
31	0xbc1eb704	-0.009687189

bn1.running_var f4 [32]
0	0x39967234	0.00028695317
1	0x39bfd790	0.00036590965
2	0x3a1d4da0	0.0006000642
3	0x39d533ea	0.00040665205
4	0x39a0c78d	0.00030666255
5	0x3a8ca1c6	0.0010729365
6	0x3a17e0f7	0.0005793715
7	0x39b72aa0	0.00034936238
8	0x39e68c59	0.00043973586
9	0x39ced170	0.00039447425
10	0x3acb19bf	0.0015495344
11	0x3a08a372	0.00052123435
12	0x3a47e1ea	0.00076249114
13	0x39df34ae	0.00042573124
14	0x3a2f1900	0.00066794455
15	0x3a2afaa3	0.0006522333
16	0x3a091531	0.0005229293
17	0x38655c1b	5.4683635e-05
18	0x3a82c046	0.0009975515
19	0x3a1ba110	0.0005936781
20	0x3982d45a	0.00024953746
21	0x3924ea24	0.00015727483
22	0x39d613bc	0.00040831964
23	0x3a59dd3f	0.00083108613
24	0x3a86ce0d	0.0010284797
25	0x3982dd2d	0.0002496032
26	0x39eaf6a9	0.00044815734
27	0x39925ca3	0.0002791631
28	0x3a35b38f	0.00069313584
29	0x39a5f8ac	0.00031656527
30	0x3a0d4bad	0.000539
31	0x3a60830a	0.0008564448

conv2.weight f4 [64, 32, 5]
0	0xbd4d0312	-0.050051756
1	0xbd32beb2	-0.043638892
2	0x3c583398	0.013195895
3	0x3d4f29ce	0.050576977
4	0x3d594533	0.05304451
5	0x3d3726a4	0.044714585
6	0xbd27a3e9	-0.0409278
7	0x3d06092b	0.032723587
8	0x3d5b3ba5	0.05352368
9	0x3d1eee7a	0.038801648
10	0x3be5291a	0.006993425
11	0xbd71fb13	-0.059077334
12	0x3d29a647	0.04141834
13	0xbd36b991	-0.044610564
14	0xbda549bf	-0.080707066
15	0x3cb94e81	0.022620441
16	0xbcf7475b	-0.030185392
17	0x3d1b8307	0.037966754
18	0xbe487842	-0.19577125
19	0xbb9e6451	-0.004833736
20	0xbdc3108d	-0.09524641
21	0xbbf60e5d	-0.0075090365
22	0x3bdfb6e0	0.0068272203
23	0xbe4f9bf0	-0.20274329
24	0x3d3ebed8	0.04656872
25	0xbc0fe5ae	-0.008782787
26	0xbd2d8424	-0.042362347
27	0xbd1369dd	-0.03598963
28	0x3d2acc20	0.041698575
29	0x3d163e49	0.036680494
30	0xbd2b2c01	-0.041790012
31	0xbda99321	-0.08280016
32	0xbd6c99a8	-0.057763726
33	0x3c5979ec	0.013273697
34	0x3ce7c71d	0.028293187
35	0x3d836b78	0.064169824
36	0x3dc81aa5	0.09770707
37	0xbda02736	-0.07819979
38	0x3cde41b8	0.027130947
39	0x3d1dba6d	0.038507868
40	0x3de449ce	0.111468896
41	0xbe1b4fd6	-0.15167174
42	0x3d1ba025	0.037994523
43	0x3d8893a8	0.06668788
44	0xbdf6aad3	-0.12044301
45	0xbbf9dc27	-0.007625121
46	0x3d1ba0cc	0.037995145
47	0x3ceb2247	0.028702868
48	0xbdb8a37c	-0.09015557
49	0x3d8b2cf2	0.06795682
50	0x3b27ec5a	0.0025623054
51	0x3d80f4a6	0.06296663
52	0xbcc2a9ab	-0.023762545
53	0x3d92a107	0.0715962
54	0xbd77dfab	-0.06051604
55	0xbdd1b4df	-0.102395765
56	0xbd8e2475	-0.069405474
57	0xbc462593	-0.012093919
58	0x3df5933b	0.119909726
59	0xbcca1ac1	-0.02467096
60	0xbdb5989e	-0.08867
61	0xbdbecbaf	-0.09316193
62	0x3cf79d35	0.03022633
63	0x3dc34a6e	0.09535681
64	0xbdcf9ef8	-0.10137743
65	0xbd69de20	-0.0570966
66	0xbc9ed7cb	-0.019390007
67	0x3dd3a1fa	0.10333629
68	0xbdb70a43	-0.08937504
69	0xbe49aada	-0.19694081
70	0x3e974c7b	0.29550537
71	0xbbaf5173	-0.0053502857
72	0xbe20cce2	-0.15703157
73	0x3d82099d	0.0634949
74	0xbdde51bf	-0.108554356
75	0xbcfcf648	-0.030879155
76	0xbd3c1fe1	-0.04592884
77	0xbdaec5f7	-0.085338525
78	0xbe0d0b17	-0.13773762
79	0xbdfe1260	-0.124058485
80	0xbe0a51bb	-0.1350774
81	0xbda631a9	-0.08114941
82	0xbdb85391	-0.09000314
83	0x3c8cba70	0.017178744
84	0x3dab6dd8	0.083705604
85	0xbdf15da2	-0.11785437
86	0xbdaf8ed9	-0.08572168
87	0x3d091b59	0.033473346
88	0xbaccabc3	-0.0015615154
89	0xbccfe219	-0.025376366
90	0x3df71d77	0.12066167
91	0xbe2e1996	-0.17001948
92	0xbd6d1375	-0.057879884
93	0xbdfd9494	-0.12381855
94	0xbdb59677	-0.088665895
95	0xbdbcb586	-0.0921431
96	0xbc6717a5	-0.014104758
97	0x3da3183b	0.07963606
98	0x3c727856	0.014799198
99	0xbdc3ef04	-0.09567073
100	0x3c6df204	0.014523033
101	0xbdcda5ae	-0.100413665
102	0x3cf1e4e1	0.029528083
103	0x3cec8e4b	0.028876444
104	0xbcc991c0	-0.024605632
105	0x3d2b1ca1	0.04177535
106	0xbc0d7794	-0.008634467
107	0xbbc16f80	-0.0059031844
108	0x3c5ece73	0.013599026
109	0x3c9e7a3f	0.0193454
110	0xbd93c671	-0.07215584
111	0x3cec7f76	0.028869372
112	0xbd101ff8	-0.035186738
113	0x3df5edaf	0.12008225
114	0xbcada82c	-0.021198355
115	0x3cb2be4c	0.021819256
116	0xbdc55c22	-0.096367136
117	0xbcb7e1cb	-0.022446534
118	0x3d683e23	0.056699883
119	0xbe2821a5	-0.16419084
120	0x3d3dd132	0.046342082
121	0xbd9e2be0	-0.07723212
122	0xbe18cdb0	-0.14922214
123	0xbda5551c	-0.08072874
124	0xbdb21a14	-0.0869638
125	0x379ff508	1.9068379e-05
126	0x39bc5dec	0.00035928132
127	0x3d504b82	0.05085326
128	0x3d8e7771	0.069563754
129	0xbd52425c	-0.051332816
130	0xbd41e885	-0.04734089
131	0xbd9bcd3d	-0.076075055
132	0x3ddeba18	0.10875338
133	0xbd083bad	-0.033260036
134	0xbe1a4fd9	-0.15069522
135	0x3cc28328	0.02374418
136	0xbdfde4df	-0.12397169
137	0x3d2cb6a0	0.042166352
138	0x3e0613d3	0.130935
139	0x3d26636e	0.040622167
140	0xbd8456c4	-0.06461862
141	0x3d79fffc	0.06103514
142	0x3df5459f	0.1197617
143	0x3d6807d4	0.05664809
144	0xbe043ecb	-0.12914579
145	0xbe101346	-0.14069852
146	0xbc1c6ff1	-0.009548173
147	0x3cea1408	0.028574005
148	0x3d8a7867	0.06761246
149	0xbe29f8f8	-0.1659888
150	0xbd25a569	-0.04044095
151	0xbda87971	-0.08226288
152	0xbe1ad16c	-0.1511895
153	0xbdd52f98	-0.104094684
154	0xbdb194c9	-0.08670957
155	0x3d4ebc8b	0.050472777
156	0xbd6cd339	-0.057818625
157	0xbe034f92	-0.12823322
158	0xbd816dd4	-0.06319776
159	0xbd60a240	-0.054842234
160	0xbd2b1991	-0.04177243
161	0x3d8ad5ee	0.06779085
162	0xbd7957ea	-0.060874857
163	0x3c258880	0.010103345
164	0x3d1bbed7	0.038023796
165	0xbda62046	-0.081116244
166	0xbdb4b2de	-0.08823179
167	0x3db2cb76	0.08730213
168	0x3d4c3a2a	0.049860157
169	0xbd4b8017	-0.049682703
170	0xbd53ac2b	-0.051677864
171	0x3dc0621f	0.09393715
172	0xbdf03112	-0.117281094
173	0x3ca069cd	0.0195817
174	0xbe648d1f	-0.22319458
175	0xbd8f8294	-0.07007328
176	0xbdc4164e	-0.09574567
177	0xbde1c8ac	-0.11024603
178	0xbe08ec31	-0.1337135
179	0x3d7fdda0	0.062467217
180	0xbd86f134	-0.065889746
181	0x3d1f3d06	0.038876556
182	0xbceca909	-0.028889196
183	0xbd303ea7	-0.0430285
184	0x3c2e0d46	0.010623282
185	0xbd9498b2	-0.07255687
186	0xbb8baae0	-0.0042623132
187	0xbbda6062	-0.0066643218
188	0x3cdf241d	0.0272389
189	0x3b3c23cf	0.0028707867
190	0xbcedfa0e	-0.0290499
191	0xbdf5904b	-0.11990412
192	0xbb7119a5	-0.0036788967
193	0x3d9d3506	0.07676129
194	0x3d33a5d4	0.043859318
195	0x3dbb2d3a	0.09139486
196	0x3d5c3814	0.053764418
197	0x3cfca2a4	0.030839272
198	0x3d58b318	0.052905172
199	0xbd8d9d53	-0.06914773
200	0xbda8b8ce	-0.08238374
201	0xbd34c552	-0.04413349
202	0xbd82f2df	-0.0639398
203	0xbd9ebea8	-0.077512085
204	0x3d7df232	0.061998554
205	0x3c6b5c4e	0.014365269
206	0xbdcc2c2a	-0.09969361
207	0x3dc97050	0.09835875
208	0xbd4ea82d	-0.050453354
209	0xbd98587d	-0.07438753
210	0xbd3ed011	-0.046585146
211	0x3d57d8a2	0.05269683
212	0xbd0d49a6	-0.034494065
213	0xbcf4b5c9	-0.029871838
214	0xbd8a984d	-0.0676733
215	0x3b874b23	0.00412883
216	0xba9e5e19	-0.0012082487
217	0xbc8267a8	-0.015918568
218	0xbd1aa36e	-0.037753515
219	0xbc93d744	-0.018046983
220	0xbd5fd783	-0.054648887
221	0x3b20c180	0.0024529397
222	0xbcdbb621	-0.026820244
223	0xbcf94ea6	-0.03043301
224	0x3c0e411b	0.008682515
225	0x3d60984b	0.054832738
226	0xbc5940d7	-0.013260088
227	0xbe60f83c	-0.21969694
228	0x3c8149d1	0.015782269
229	0xbe0af599	-0.1357025
230	0x3d8031d8	0.06259507
231	0xbdceb25d	-0.10092614
232	0x3d688e60	0.056776404
233	0xbe6ffe62	-0.23436883
234	0x3dc659c4	0.0968509
235	0xbe363f24	-0.17797524
236	0xbcfdfca1	-0.031004252
237	0xbdfc25a0	-0.12311864
238	0xbe3d8235	-0.18506701
239	0xbdb6da9c	-0.08928415
240	0xbd0ddeeb	-0.03463642
241	0xbc5b8e79	-0.013400667
242	0x3da34660	0.07972407
243	0x3d08cdee	0.033399515
244	0xbddf117d	-0.108920075
245	0xbdca8671	-0.09888924
246	0x3d523301	0.051318172
247	0xbd131647	-0.035909917
248	0xbd99976b	-0.07499584
249	0x3d59a897	0.053139295
250	0x3e17b4c6	0.14815053
251	0xbede54b9	-0.43424013
252	0xbc953d9d	-0.018217856
253	0x3d508caf	0.050915416
254	0x3dfdb0c2	0.123872295
255	0xbdd489b4	-0.10377827

conv2.bias f4 [64]
0	0x376c6cc4	1.409202e-05
1	0x37473fb0	1.1876153e-05
2	0x38905655	6.882536e-05
3	0xb81ab41d	-3.6884205e-05
4	0x37040a1c	7.870167e-06
5	0x3836485d	4.3459575e-05
6	0xba08479f	-0.00051986607
7	0xb944a19a	-0.00018752218
8	0x39209623	0.0001531472
9	0xb9a3e2b2	-0.00031258684
10	0x3678a722	3.7052164e-06
11	0xb9511914	-0.00019941136
12	0x383d700d	4.5165467e-05
13	0xb91576bf	-0.00014253984
14	0xb8aa58a1	-8.12274e-05
15	0x38aeb88a	8.3313396e-05
16	0x37db3ca8	2.613508e-05
17	0x38506ceb	4.9692502e-05
18	0xba70f783	-0.00091921556
19	0xb6e9036e	-6.9443404e-06
20	0x364b6e5e	3.03136e-06
21	0x38f2cb75	0.00011577356
22	0xb9ef93e6	-0.00045695825
23	0xb89cef58	-7.483241e-05
24	0x38b27f63	8.511429e-05
25	0x38300f15	4.1975716e-05
26	0xb8bec934	-9.097383e-05
27	0x3a1f50db	0.0006077417
28	0x364aad13	3.0201088e-06
29	0xb91c213e	-0.00014889703
30	0x38490864	4.792995e-05
31	0xb6051fdc	-1.983709e-06
32	0x3823cae0	3.905117e-05
33	0x3a398c22	0.00070780714
34	0xb8cf565f	-9.886617e-05
35	0x383cb28f	4.498899e-05
36	0x38852d5c	6.350383e-05
37	0xb807da86	-3.2390024e-05
38	0xb85b2c0b	-5.2254687e-05
39	0xb84b0f7d	-4.8413396e-05
40	0xb8988a2e	-7.273663e-05
41	0x35960686	1.117777e-06
42	0x389eb5b3	7.567871e-05
43	0x393bb725	0.00017901936
44	0xb957809e	-0.00020551911
45	0x383a79df	4.4459357e-05
46	0x3846abf8	4.7367037e-05
47	0xb7a8af2a	-2.0108728e-05
48	0xb8e795f3	-0.000110428686
49	0xb8d56433	-0.00010175295
50	0x37cfef8f	2.4787876e-05
51	0xb7e63d22	-2.7446604e-05
52	0xb75510e2	-1.269972e-05
53	0x3942ba15	0.00018570603
54	0xb6978626	-4.5157676e-06
55	0x3852dfd8	5.0276372e-05
56	0xb6e808cb	-6.9151624e-06
57	0xb7edb544	-2.833701e-05
58	0xb5ba454d	-1.3878249e-06
59	0xb84ca4d6	-4.8790906e-05
60	0x3874c01d	5.8353053e-05
61	0xb7f0471c	-2.8643342e-05
62	0xb883c468	-6.28315e-05
63	0xb4fc085d	-4.6944743e-07

bn2.weight f4 [64]
0	0x3f8aed7a	1.0853722
1	0x3f86a7df	1.051998
2	0x3f91498a	1.1350567
3	0x3f9065a7	1.1281022
4	0x3f8ea9a1	1.1145517
5	0x3f85b9e8	1.0447359
6	0x3f85e346	1.0459983
7	0x3f8faaa6	1.1223953
8	0x3f8cb037	1.0991277
9	0x3f8b9449	1.0904628
10	0x3f8f8efa	1.1215508
11	0x3f7ae58d	0.98006517
12	0x3f991fda	1.1962845
13	0x3f77fec4	0.96873116
14	0x3f6a0eb1	0.9142867
15	0x3f8b6710	1.0890827
16	0x3f918df5	1.1371447
17	0x3f8dff14	1.1093469
18	0x3f7fb5ad	0.9988659
19	0x3f88ec3b	1.0697092
20	0x3f8eaf3e	1.114723
21	0x3f8b37ff	1.0876464
22	0x3f7e5d2f	0.99360937
23	0x3f9add7d	1.2098843
24	0x3f92261e	1.1417882
25	0x3f89a665	1.0753905
26	0x3f8dc636	1.1076114
27	0x3f82f961	1.0232354
28	0x3f8d9f2b	1.1064199
29	0x3f7b8443	0.9824869
30	0x3f92763b	1.1442331
31	0x3f83fe4f	1.0311984
32	0x3f8d60e0	1.1045189
33	0x3f872f64	1.0561337
34	0x3f806d65	1.0033385
35	0x3f8a7aab	1.0818685
36	0x3f8afdf1	1.0858747
37	0x3f8dc00f	1.1074237
38	0x3f8d3380	1.1031342
39	0x3f8d2757	1.102763
40	0x3f893935	1.0720583
41	0x3f866def	1.0502299
42	0x3f8377ce	1.0270936
43	0x3f946e2e	1.1596124
44	0x3f901991	1.1257802
45	0x3f8bf558	1.0934248
46	0x3f93fbe4	1.1561246
47	0x3f824856	1.0178325
48	0x3f869f23	1.0517315
49	0x3f8eb9d2	1.1150458
50	0x3f7fb48e	0.9988488
51	0x3f8cb22f	1.0991877
52	0x3f95f67f	1.171585
53	0x3f8e4834	1.1115785
54	0x3f88927d	1.0669705
55	0x3f9d9a9e	1.231281
56	0x3f7bdb47	0.98381466
57	0x3f907cd4	1.1288095
58	0x3f8bfefe	1.0937192
59	0x3f93226e	1.1494882
60	0x3f8a62eb	1.0811437
61	0x3f8c3378	1.0953207
62	0x3f84599f	1.033985
63	0x3f91b5e4	1.1383634

bn2.bias f4 [64]
0	0x3d8ab2b8	0.06772369
1	0x3e1ce7d2	0.15322807
2	0x3dbf045e	0.09327005
3	0x3debaff1	0.115081675
4	0x3e2a6986	0.16641816
5	0x3de78b45	0.113058604
6	0x3d089a86	0.03335049
7	0x3e178e62	0.14800408
8	0x3e2fe656	0.1717771
9	0x3d9222bc	0.07135531
10	0x3df7e0b9	0.12103409
11	0xbde14866	-0.11000137
12	0x3dbf1eaf	0.09332024
13	0xbe2ea833	-0.1705635
14	0x3b0cba99	0.0021473526
15	0x3e038b57	0.12846123
16	0x3debb768	0.11509591
17	0x3ddb4072	0.10705651
18	0x3e57c10d	0.21069737
19	0x3e00d2df	0.12580441
20	0xbc11ce9d	-0.008899358
21	0x3e1d4578	0.15358531
22	0x3e0205f7	0.12697588
23	0x3e0f09db	0.13968603
24	0x3e1580b4	0.14599878
25	0xbcff0f16	-0.031135123
26	0x3dea56c5	0.11442331
27	0x3e64cc51	0.22343566
28	0x3e2598a0	0.16171503
29	0x3cf04e9e	0.029334363
30	0x3e1b7ca7	0.1518427
31	0x3db975aa	0.09055646
32	0x3da713b6	0.081580564
33	0xbd2e0f2a	-0.04249493
34	0x3d9c1ffa	0.076232865
35	0xbd49d3b5	-0.049274165
36	0x3e31cef1	0.17364098
37	0x3e1ac6a3	0.15114836
38	0x3dbad041	0.091217525
39	0x3e0f83e2	0.14015153
40	0x3d06eb27	0.032939103
41	0x3dc2fe4b	0.09521159
42	0x3d9beacf	0.076131456
43	0x3df390dd	0.11892865
44	0x3e2d78ee	0.16940662
45	0x3d5dc1b1	0.054139797
46	0x3e1d3bc3	0.15354829
47	0xbd933413	-0.07187667
48	0xbc6c0d59	-0.014407479
49	0x3ceae21b	0.028672269
50	0xbd5f0c6a	-0.0544552
51	0x3e0a0b0e	0.1348078
52	0xbd7c7acd	-0.06164055
53	0xbd660d71	-0.056165162
54	0x3e13f167	0.14447556
55	0x3de5d80e	0.1122285
56	0xbd58b72b	-0.052909058
57	0x3d333b8a	0.043757953
58	0x3e20547d	0.1565723
59	0x3db1908a	0.08670147
60	0x3dfeeb75	0.124472536
61	0x3db55858	0.08854741
62	0x3c8e9f17	0.017409844
63	0x3ddd4634	0.10804406

bn2.running_mean f4 [64]
0	0xbfbe8642	-1.4884722
1	0xbffb3446	-1.9625328
2	0xbfd6d7ce	-1.6784608
3	0x3f049e98	0.51804495
4	0xc0158e49	-2.3368094
5	0xbfa532c0	-1.2906113
6	0xc042f8f1	-3.0464442
7	0xc04e6824	-3.2251062
8	0xc05a210a	-3.4082665
9	0xbffd985e	-1.9812124
10	0xbff1ba8b	-1.8885053
11	0xc00c5fec	-2.1933546
12	0xc0246e42	-2.5692296
13	0xbf1db650	-0.6160631
14	0xbf9bdbf2	-1.2176497
15	0xc01770a9	-2.3662512
16	0xbff2f7ab	-1.8981832
17	0xc04c3033	-3.1904418
18	0xc02d08a4	-2.7036524
19	0xbfb5126d	-1.4146248
20	0xbff76d9f	-1.9330329
21	0xbff7ee1d	-1.9369541
22	0xbff3c6bb	-1.9045023
23	0xc0252939	-2.580641
24	0xbfc64a42	-1.5491412
25	0x3fc1c5d3	1.5138496
26	0xbf8664d5	-1.0499521
27	0xc004aad2	-2.072926
28	0xc0580586	-3.3753371
29	0xc01aab4d	-2.4167054
30	0xbf9914cd	-1.1959473
31	0xbf978f3e	-1.1840589
32	0xc021d865	-2.5288327
33	0xc0110fb5	-2.2665837
34	0xbffba744	-1.966042
35	0xbf949c4c	-1.1610198
36	0xc011fc7f	-2.2810361
37	0xbe79a04b	-0.24377553
38	0xbf83c238	-1.0293646
39	0xbf0cc143	-0.54982394
40	0xc0200b5a	-2.5006928
41	0xbf895a47	-1.0730675
42	0xc00656d2	-2.099049
43	0xbfbf93a0	-1.4966927
44	0xc00646df	-2.0980756
45	0xbea49823	-0.3214732
46	0xc04cf3b2	-3.202374
47	0xc0360b4e	-2.84444
48	0xbf97893c	-1.1838756
49	0xbeb5b72c	-0.35491312
50	0x3fe22608	1.7667856
51	0xbfe4a28f	-1.7862109
52	0xbfdaf8c0	-1.7107162
53	0xbff4a457	-1.9112653
54	0xbf717bc4	-0.94329476
55	0xc0299180	-2.6495056
56	0xc001498e	-2.0201144
57	0xc0270111	-2.60944
58	0x3f209a2e	0.6273526
59	0xc021a57b	-2.5257251
60	0xbfab21d6	-1.3369701
61	0xc0089318	-2.133978
62	0xbe513092	-0.20428684
63	0xbfa3fd49	-1.2811671

bn2.running_var f4 [64]
0	0x3fb606ad	1.4220787
1	0x3f582ebf	0.8444633
2	0x3f86bbaa	1.052602
3	0x4017e49e	2.3733287
4	0x3f9bfa87	1.218583
5	0x3fada44c	1.3565764
6	0x3ead89bf	0.33894154
7	0x3f85fd15	1.046786
8	0x4020ef7b	2.5146167
9	0x3f117aa5	0.56827766
10	0x4005b619	2.0892394
11	0x3ee0be9b	0.4389542
12	0x3f873b07	1.0564889
13	0x3e9c6df7	0.30552647
14	0x3f017d1e	0.5058154
15	0x3fb9760d	1.4489151
16	0x402286be	2.539474
17	0x3f2359ee	0.63809097
18	0x3ea8e455	0.32986704
19	0x3fd8ff33	1.6952881
20	0x3f6cffa5	0.9257758
21	0x40336661	2.8031237
22	0x3e9a36d8	0.30119967
23	0x3f834124	1.0254254
24	0x4011d4a9	2.2786047
25	0x3f2536bf	0.6453666
26	0x3fb170d1	1.3862554
27	0x3ec934f0	0.392982
28	0x40066988	2.100191
29	0x3f08436c	0.5322788
30	0x40437c79	3.0544722
31	0x3fa36503	1.2765201
32	0x3f266711	0.65001017
33	0x3eb79f6a	0.3586381
34	0x3f05adfe	0.52218616
35	0x3f88bed2	1.0683234
36	0x3fa1e4d3	1.2647957
37	0x4064d705	3.5756238
38	0x3f836d2f	1.0267695
39	0x3fedd7e7	1.8581513
40	0x3f431e99	0.76218563
41	0x3fc625b0	1.5480251
42	0x3eed5551	0.46354154
43	0x3f2b70ae	0.6696881
44	0x3f3b7ca6	0.73237073
45	0x401e123e	2.4698634
46	0x401aa267	2.4161623
47	0x3ea2ddf3	0.3180996
48	0x3f314e7f	0.692604
49	0x3f6ad7f1	0.9173575
50	0x3f7272b0	0.9470625
51	0x3f93a9c3	1.1536182
52	0x3f0f80e2	0.56056035
53	0x3f0cd7c8	0.55016756
54	0x400d4767	2.207483
55	0x3fcf0bce	1.6175478
56	0x3f168a62	0.58804905
57	0x402bb45c	2.6828833
58	0x3f439549	0.76399666
59	0x3f8e1bf0	1.1102276
60	0x3fabd384	1.3423924
61	0x3f372d8e	0.71553886
62	0x3f830770	1.0236645
63	0x3ffecdf0	1.9906597

conv3.weight f4 [128, 64, 3]
0	0x3d0f1d52	0.03494007
1	0xbc541aa5	-0.012945806
2	0xbc4db70d	-0.01255585
3	0x3c9502cf	0.018189816
4	0x3cd2a3a5	0.025712797
5	0x3d61801e	0.055053823
6	0xbdc71ef9	-0.097227044
7	0xbd7195c3	-0.058980715
8	0x3d814d91	0.06313623
9	0x3d5d401a	0.05401621
10	0x3dd20346	0.102545306
11	0xbdad44ee	-0.08460413
12	0x3d9ac610	0.07557309
13	0xbd0c936e	-0.034320287
14	0xbd0d0522	-0.034428723
15	0x3d31931a	0.043353178
16	0x3d27efb8	0.041000098
17	0xbd1b9c02	-0.037990578
18	0x3c986538	0.018602952
19	0x3d429f09	0.04751495
20	0x3e113c3c	0.14183134
21	0xbc085695	-0.008321424
22	0x3d7736c0	0.060354948
23	0xbc383135	-0.011242201
24	0x3d9935f2	0.074809924
25	0x3db1866e	0.086682186
26	0x3c3716d9	0.011174881
27	0x3c5c03ed	0.01342867
28	0x3cb7c267	0.022431565
29	0xbb26e27f	-0.0025464592
30	0x3d7eeb52	0.062236138
31	0x3dc0c493	0.094124936
32	0x3cfc9234	0.030831434
33	0xbcb71bb4	-0.022352077
34	0xbd4e48e8	-0.050362498
35	0x3dda0f6e	0.10647474
36	0x3d6956a4	0.056967393
37	0xbdce0693	-0.10059848
38	0xbe11e722	-0.14248326
39	0x3ca94442	0.02066243
40	0xbda2ff3d	-0.07958839
41	0x3e097923	0.13425116
42	0xbd94540a	-0.07242592
43	0x3cc23d63	0.023710912
44	0xbd2db757	-0.042411175
45	0xbc327914	-0.010893125
46	0xbcc7c678	-0.02438663
47	0x3c6f27a8	0.014596857
48	0x3cc7cfc4	0.024391063
49	0x3bd577de	0.0065145334
50	0x3b9ca366	0.004780221
51	0x3d832428	0.06403381
52	0xbdfd91bd	-0.12381313
53	0xbd1e422a	-0.038637318
54	0x3d99a13a	0.07501455
55	0xb97b3559	-0.00023957099
56	0x3e11a146	0.14221677
57	0xbb1fa64e	-0.00243606
58	0xbd8fb2cb	-0.07016524
59	0x3cdb9187	0.026802791
60	0xbceae4d5	-0.028673569
61	0xbc2c789a	-0.0105268005
62	0xbdb3c2c3	-0.08777382
63	0x3dc28722	0.09498431
64	0x3ce8ad40	0.028402925
65	0xbd85c152	-0.065310135
66	0x3c87c3f4	0.01657293
67	0xbd39959b	-0.04530869
68	0x3d92eac3	0.071736835
69	0x3d11373d	0.03545307
70	0x3c8c7791	0.017146857
71	0x3d5edc0a	0.054409064
72	0x3da2d129	0.079500504
73	0x3cdaa833	0.026691532
74	0x3dec6a62	0.115437284
75	0xbe12fe9c	-0.14354938
76	0x39131641	0.00014027303
77	0x3cde174c	0.027110718
78	0x3d43f85e	0.047844283
79	0x3d609a15	0.054834444
80	0x3d4fbc2a	0.050716557
81	0xb92c5774	-0.00016435777
82	0x3d90e74c	0.070753664
83	0x3d2d1ad3	0.04226191
84	0xbda2cd36	-0.07949297
85	0xbbb5f609	-0.0055530113
86	0xbd1eec4b	-0.038799565
87	0xbbcb868b	-0.006211107
88	0xbce604c5	-0.028078446
89	0xba8fdf1f	-0.001097653
90	0x3de0159e	0.10941623
91	0x3bf4d5a2	0.007471756
92	0x3da1940a	0.07889564
93	0x3b53dc73	0.0032327443
94	0x3d264cc1	0.040600542
95	0xbd3a3332	-0.04545898
96	0xbe11fd27	-0.14256726
97	0xbc19d8a8	-0.009390034
98	0x3d825f93	0.063658856
99	0x3db32c80	0.08748722
100	0xbd4437d7	-0.047904816
101	0xbe0680e4	-0.13135105
102	0x3d4f4560	0.05060327
103	0xbdc46244	-0.09589055
104	0xbce9cb0e	-0.028539207
105	0x3d5c5925	0.053795952
106	0x3c12cbb0	0.008959696
107	0xbe3f8bc9	-0.18705668
108	0x3cf3d7df	0.029766021
109	0xbd8192bb	-0.06326815
110	0xbd38b4eb	-0.04509441
111	0x3e13360a	0.14376083
112	0x3d6d35d7	0.057912674
113	0x3dc5810f	0.096437566
114	0x3d962de3	0.07332971
115	0xbd937dd7	-0.072017364
116	0x3e16d7d9	0.14730777
117	0x3ca0b1ad	0.019615972
118	0x3c81e989	0.015858429
119	0xbd1ca4c0	-0.038243055
120	0xbd805506	-0.06266217
121	0x3ac33222	0.001489226
122	0x3dbd367d	0.092389084
123	0x3cecfd87	0.028929485
124	0xbd90ae30	-0.07064474
125	0xbd82bf4f	-0.063841455
126	0x3b10a923	0.002207347
127	0x3bba5db4	0.00568744
128	0xbcaec25a	-0.021332908
129	0xbc7a9873	-0.015295136
130	0x3de89155	0.11355845
131	0x3c9738d4	0.018459715
132	0xbda7a2ca	-0.081853464
133	0x3d56171c	0.052268133
134	0xbd4486ec	-0.047980234
135	0x3ca5ad8f	0.02022436
136	0x3c192dd4	0.009349305
137	0x3d126f90	0.035750926
138	0xbd338aa4	-0.04383339
139	0x3df1f6a7	0.11814623
140	0x3d2343b7	0.0398595
141	0xbdd5aee8	-0.10433751
142	0x3c70c9a5	0.014696513
143	0xbc81adee	-0.015830006
144	0x3d9a7527	0.07541876
145	0xbda5e07c	-0.080994576
146	0xbd43a0c7	-0.04776075
147	0xbe5fdd81	-0.21861841
148	0xbc979030	-0.018501371
149	0xbb906e0e	-0.004407651
150	0x3d5a05df	0.053228255
151	0xb9af9cd7	-0.00033495456
152	0xbce44c1a	-0.02786832
153	0x3b057296	0.0020362488
154	0x3cf0955a	0.029368091
155	0xbc5e6aad	-0.013575238
156	0xbdc2a61d	-0.0950434
157	0xbcae39c6	-0.021267783
158	0x3d000346	0.03125312
159	0x3bdba29b	0.0067027337
160	0x3d09bc57	0.03362688
161	0xbdc4f931	-0.09617842
162	0x3d189b0e	0.037257247
163	0x3e1ad47e	0.15120122
164	0xbbca5ffe	-0.006175994
165	0x3c4e9d49	0.012610742
166	0xbd0a6fa1	-0.033797864
167	0xbd0023c5	-0.031284112
168	0x3d9ef2b9	0.077611394
169	0x3d2a90b8	0.04164192
170	0xbda31a35	-0.07963983
171	0x3dc2fb76	0.095206186
172	0xbcc93f9a	-0.02456646
173	0xbc0e18e1	-0.008672924
174	0x3def123b	0.11673399
175	0x3d5db744	0.054129854
176	0x3e0493fa	0.12947074
177	0xbd3af8ed	-0.04564755
178	0x3dc2c44c	0.09510097
179	0x3d98f153	0.07467904
180	0x3d98ffb0	0.074706435
181	0xbc5ce49c	-0.013482239
182	0xbca626bd	-0.020282144
183	0x3de59fe9	0.11212141
184	0x3c77cc14	0.01512434
185	0x3c60217b	0.013679857
186	0xbd61c354	-0.05511792
187	0xbd9c97d9	-0.0764615
188	0xbdaefe7a	-0.08544631
189	0x3c0e781e	0.00869563
190	0xbd92c21e	-0.07165931
191	0xbca0f76d	-0.019649232
192	0x3e08a260	0.13343191
193	0xbdaa746f	-0.08322989
194	0x3d52ca84	0.051462665
195	0x3d36f871	0.044670526
196	0x3d9db320	0.07700181
197	0x3d74e450	0.05978805
198	0x3e71ed92	0.23625782
199	0xbe58a627	-0.21157132
200	0x3bbfd75e	0.005854531
201	0xbcaeaa57	-0.021321459
202	0xbe9c45e9	-0.30522087
203	0x3d305129	0.04304615
204	0x3e348b2b	0.17631213
205	0xbe0e9395	-0.13923486
206	0xbd77c9c3	-0.06049515
207	0xbcb15cba	-0.02165066
208	0xbd0c81dd	-0.034303535
209	0xbe90b567	-0.282634
210	0x3d5d9a92	0.054102488
211	0xbc277d9a	-0.010222817
212	0x3dc5418d	0.096316434
213	0xbd17f4e3	-0.037098777
214	0xbd746eb1	-0.059675876
215	0x3c2fb37e	0.010723947
216	0x3e1533ba	0.14570513
217	0x3d9c985e	0.07646249
218	0x3ec5780b	0.38568148
219	0x3cc322c0	0.023820281
220	0xbcb103cc	-0.021608256
221	0xbd34b682	-0.044119366
222	0xbe313ec6	-0.17309102
223	0xbe6a156b	-0.22859733
224	0x3d1265cc	0.035741612
225	0x3d0486f0	0.03235525
226	0xbc98fa43	-0.018674022
227	0xbccd6fe1	-0.025077762
228	0x3dcd85cd	0.10035286
229	0xbe4021e5	-0.1876293
230	0x3d8dea1a	0.06929417
231	0x3e063909	0.13107695
232	0x3d12a7dc	0.035804614
233	0x3de3b156	0.111178085
234	0xbd9ffc72	-0.07811822
235	0xbdab9dc6	-0.08379702
236	0xbd8a09b1	-0.0674013
237	0xbd8a68f6	-0.06758301
238	0x3d736b23	0.059428345
239	0xbe766418	-0.2406162
240	0x3e0988f3	0.13431148
241	0xbe1c2c8b	-0.15251367
242	0xbe31bcd2	-0.17357185
243	0x3d605f1f	0.054778215
244	0x3e453ba3	0.19261031
245	0x3e06c8e8	0.13162577
246	0xbce9c58a	-0.028536577
247	0x3c2bb477	0.010480038
248	0x3d146e7c	0.03623818
249	0x3d51ba98	0.05120334
250	0xbe30123b	-0.17194454
251	0x3ca11b22	0.019666258
252	0x3d3cfcfc	0.046139702
253	0x3d4628e4	0.04837884
254	0xbe903f78	-0.28173423
255	0x3e2ba0be	0.16760537

conv3.bias f4 [128]
0	0x3e1f7747	0.15572844
1	0x3d2438b6	0.040093146
2	0x3e2b8ee5	0.16753729
3	0x3e24b8ec	0.16086167
4	0x3deaf68a	0.11472805
5	0x3deeebe0	0.11666083
6	0x3dc829dc	0.09773609
7	0x3ce0cb46	0.027440678
8	0x3de35a77	0.11101239
9	0x3dbd43f4	0.09241477
10	0x3e2647c6	0.16238317
11	0x3d39049d	0.045170415
12	0x3d113cf4	0.03545852
13	0x3e20792a	0.1567122
14	0x3e4535bd	0.19258781
15	0xbcbf2739	-0.023334133
16	0x3dfd2b79	0.123618074
17	0xbe2a7dca	-0.16649547
18	0xbabb0ed5	-0.0014271388
19	0xbcd036a1	-0.025416674
20	0xbd844ab9	-0.06459565
21	0x3dd91308	0.10599333
22	0x3cfb723b	0.030694118
23	0x3d86de05	0.065853156
24	0x3d31c2b9	0.043398593
25	0xbdecef59	-0.115690894
26	0x3d8f9fda	0.07012911
27	0x3d0f7291	0.03502137
28	0x3e2a2005	0.16613777
29	0x3d79ac4b	0.060955327
30	0x3da7ffa1	0.08203054
31	0x3df21836	0.11821024
32	0x3de63a26	0.1124156
33	0x3d8ed43a	0.06974073
34	0x3cbba03a	0.02290355
35	0x3d694860	0.056953788
36	0x3e1f72df	0.15571164
37	0xbbe44abc	-0.006966917
38	0x3db9c2f9	0.09070391
39	0x3dc653d9	0.096839614
40	0x3e201d9b	0.15636294
41	0x3ded71af	0.11593949
42	0x3dc556a4	0.09635666
43	0x3db349fd	0.087543465
44	0x3df5514b	0.11978396
45	0xb0b54464	-1.3188921e-09
46	0x3d9171e6	0.071018025
47	0x3e10b52d	0.14131613
48	0xbc0f169f	-0.008733421
49	0x3e022333	0.1270874
50	0x3d96d80b	0.07365426
51	0x3d76ab57	0.060221996
52	0x3d1176ea	0.035513796
53	0x3e2651f2	0.16242197
54	0xbd8c00ab	-0.06836065
55	0x3da70c00	0.08156586
56	0x3e282ce5	0.16423376
57	0x3de6bf23	0.11266925
58	0xb9c93c04	-0.00038382423
59	0x3c4c0796	0.0124529805
60	0xbd403c23	-0.04693235
61	0x3da71e67	0.08160096
62	0x3d8f86d8	0.07008141
63	0x3e03693e	0.12833115
64	0x3e1bc082	0.15210155
65	0x3c20db31	0.009817884
66	0x3e205bc1	0.15660001
67	0xbd8cc893	-0.06874194
68	0x3e3341da	0.17505589
69	0x3d893f22	0.06701495
70	0xbe1fd5b5	-0.15608867
71	0x3dca732e	0.0988525
72	0x3d89e241	0.06732608
73	0x3d4e28f8	0.05033204
74	0x3e19c98c	0.1501829
75	0x3e16f949	0.14743532
76	0x3d97d69c	0.0741398
77	0x3dc29d89	0.09502704
78	0x3e191ff4	0.14953595
79	0x3e2ff51a	0.17183343
80	0x3dd3cbc7	0.10341602
81	0x3e20192f	0.15634607
82	0xb9bbb6bc	-0.00035803567
83	0x3d1f99ec	0.03896515
84	0x3e15e45b	0.14637892
85	0x3d6bf0b2	0.05760259
86	0x3e0897c8	0.1333915
87	0xbdb6bed2	-0.08923115
88	0x3df8196f	0.12114226
89	0x3e20cc3e	0.15702912
90	0xbdca071d	-0.09864638
91	0x3df5cbe3	0.12001779
92	0x3d9d443f	0.076790325
93	0x3e16025c	0.14649338
94	0x3de96d42	0.113977924
95	0x3ddc4a5f	0.10756373
96	0x3dd0d2fa	0.101964906
97	0x3e3177ae	0.1733081
98	0x3dfb8bfa	0.12282558
99	0x3de57d6d	0.11205564
100	0x3dda245b	0.106514655
101	0x3e04617d	0.12927814
102	0x3e0919db	0.1338877
103	0x3e1d0ba8	0.15336478
104	0x3de44370	0.11145675
105	0x3e678737	0.22610174
106	0x3b159724	0.0022825683
107	0x3d1a8b4a	0.037730493
108	0x3daae526	0.08344488
109	0xbc8c51b7	-0.017128808
110	0xb07fc65e	-9.3050356e-10
111	0xbc9a857a	-0.018862475
112	0xbcde94e7	-0.027170612
113	0xbe3c6c1a	-0.18400612
114	0xbe1c0028	-0.15234435
115	0x3d6d93ad	0.058002163
116	0x3e048db9	0.12944688
117	0x3dbbbb87	0.091666274
118	0x3c94cd31	0.01816425
119	0x3df1d488	0.11808115
120	0xbac923ed	-0.001534579
121	0x3db6c69b	0.089246
122	0xba83dbe1	-0.0010060036
123	0x3d3116c2	0.043234594
124	0x3d993a95	0.07481877
125	0x3dca3830	0.09873998
126	0x3e04d7d1	0.12972952
127	0xbddbed38	-0.10738605

se.fc.0.weight f4 [8, 128]
0	0x006e59a8	1.0134067e-38
1	0x00008980	4.9326e-41
2	0x80008902	-4.9149e-41
3	0x24579b88	4.6752434e-17
4	0x80008966	-4.9289e-41
5	0xa96b242c	-5.2211856e-14
6	0x80008a11	-4.9529e-41
7	0x223c59fa	2.5526384e-18
8	0x00008969	4.9293e-41
9	0x0000896d	4.9299e-41
10	0x800088b9	-4.9047e-41
11	0x000089d5	4.9445e-41
12	0xaba3cd2e	-1.1638795e-12
13	0x800088e4	-4.9107e-41
14	0x00008964	4.9286e-41
15	0x2296240c	4.0695748e-18
16	0x24a9e8be	7.368635e-17
17	0x00008d92	5.0786e-41
18	0x800088df	-4.91e-41
19	0x1883e2f2	3.4091863e-24
20	0x000088c3	4.9061e-41
21	0x800088c7	-4.9066e-41
22	0x00008945	4.9243e-41
23	0x891743dd	-1.8207873e-33
24	0x000089b8	4.9404e-41
25	0x00008f47	5.1398e-41
26	0x0000893e	4.9233e-41
27	0x19b2e2f6	1.8496437e-23
28	0x00008966	4.9289e-41
29	0x0000893e	4.9233e-41
30	0x000089cc	4.9432e-41
31	0x800089f8	-4.9494e-41
32	0x800088fa	-4.9138e-41
33	0x0000853a	4.7793e-41
34	0x80008969	-4.9293e-41
35	0x80008900	-4.9146e-41
36	0x00008d90	5.0783e-41
37	0x00041ea2	3.78331e-40
38	0x8000898a	-4.934e-41
39	0x11f80732	3.9131935e-28
40	0x0000893c	4.923e-41
41	0x00008937	4.9223e-41
42	0x8000a379	-5.8643e-41
43	0x80008930	-4.9214e-41
44	0x800089db	-4.9453e-41
45	0x000089a4	4.9376e-41
46	0x80008949	-4.9249e-41
47	0x96103409	-1.1648647e-25
48	0x0000a179	5.7925e-41
49	0x00008766	4.8572e-41
50	0x86bc00b6	-7.0718785e-35
51	0x000089e5	4.9467e-41
52	0x000089db	4.9453e-41
53	0x000089b4	4.9399e-41
54	0x00008c32	5.0293e-41
55	0x80006e31	-3.9529e-41
56	0x85e3cbe1	-2.142187e-35
57	0x00008937	4.9223e-41
58	0x8000a623	-5.9599e-41
59	0x80008ce5	-5.0543e-41
60	0x800088ea	-4.9116e-41
61	0x800089e7	-4.947e-41
62	0x8000896e	-4.93e-41
63	0x1c63d6cd	7.5385623e-22
64	0xa38f4c82	-1.5536493e-17
65	0x08cdb539	1.2380594e-33
66	0x2d572f16	1.223179e-11
67	0x80008a42	-4.9598e-41
68	0x00008996	4.9357e-41
69	0x00008968	4.9292e-41
70	0x8000897e	-4.9323e-41
71	0xa2501665	-2.8201112e-18
72	0x800089d5	-4.9445e-41
73	0x2f353734	1.6481466e-10
74	0x000200cb	1.83955e-40
75	0x80008a02	-4.9508e-41
76	0x800089e5	-4.9467e-41
77	0x800097d5	-5.4467e-41
78	0x207a784b	2.1215625e-19
79	0x28982333	1.6890655e-14
80	0x000089dc	4.9455e-41
81	0x800089b0	-4.9393e-41
82	0x0dbcad92	1.162818e-30
83	0x00008a07	4.9515e-41
84	0x80008974	-4.9309e-41
85	0xa0b910ec	-3.1351417e-19
86	0x1035789b	3.5788867e-29
87	0x000089ba	4.9407e-41
88	0xaa0aea6e	-1.2338196e-13
89	0x20c85ec6	3.3944034e-19
90	0x80008914	-4.9174e-41
91	0x0000899a	4.9362e-41
92	0x00008a41	4.9596e-41
93	0x800088c6	-4.9065e-41
94	0x000089e5	4.9467e-41
95	0x000089fd	4.9501e-41
96	0x800089c9	-4.9428e-41
97	0x862b194e	-3.2180116e-35
98	0x96bb192a	-3.022736e-25
99	0x00008a03	4.9509e-41
100	0x000089b4	4.9399e-41
101	0xa083fa52	-2.2357911e-19
102	0x80008a13	-4.9532e-41
103	0x800089df	-4.9459e-41
104	0x9f945b9c	-6.283199e-20
105	0x088161f4	7.786934e-34
106	0x80008b08	-4.9875e-41
107	0x80008929	-4.9204e-41
108	0x800088f8	-4.9135e-41
109	0x0000899f	4.9369e-41
110	0x80008a8e	-4.9704e-41
111	0x000088d1	4.908e-41
112	0x00008a30	4.9572e-41
113	0x80008a13	-4.9532e-41
114	0x16203150	1.2940257e-25
115	0x80008a90	-4.9707e-41
116	0x0cab0377	2.6348807e-31
117	0x00008903	4.915e-41
118	0x00008906	4.9155e-41
119	0x80008a32	-4.9575e-41
120	0x000088f3	4.9128e-41
121	0x000089c7	4.9425e-41
122	0x28a93050	1.8783721e-14
123	0x80008f48	-5.14e-41
124	0x18149216	1.9202306e-24
125	0x000089b5	4.94e-41
126	0x800088be	-4.9054e-41
127	0x80008964	-4.9286e-41
128	0xbd33b935	-0.0438778
129	0xb819731f	-3.6585257e-05
130	0xbd2f893f	-0.042855497
131	0xbd38cb8a	-0.045115985
132	0xbd305de9	-0.04305831
133	0xbd38ec34	-0.045147136
134	0xbd2d6be4	-0.04233922
135	0xbd32779b	-0.043571096
136	0xbd2c2731	-0.042029563
137	0xbd326738	-0.04355547
138	0xbd2f013d	-0.04272579
139	0xbd31e5e6	-0.04343214
140	0xbd3b5470	-0.045734823
141	0xbd2e4378	-0.042544812
142	0xbd257ed0	-0.04040414
143	0xb01cd078	-5.704872e-10
144	0xbd395233	-0.045244407
145	0xb70f8051	-8.55334e-06
146	0x87974d12	-2.2765253e-34
147	0xb78d758e	-1.686325e-05
148	0xab4c9f2c	-7.2696254e-13
149	0xbd23ecd0	-0.040020764
150	0xbd2e4b22	-0.04255212
151	0xb69f01f3	-4.738796e-06
152	0xb5f24ad1	-1.805218e-06
153	0xb178eda8	-3.6223842e-09
154	0xbd2941a7	-0.041322377
155	0xb9c3590e	-0.0003725965
156	0xbd2f7fb5	-0.0428464
157	0xbd28e5d5	-0.04123481
158	0xbd2e27c4	-0.042518392
159	0xbd2572de	-0.04039275
160	0xbd2a8172	-0.041627355
161	0xbd329d2d	-0.043606926
162	0xb7d6a32d	-2.5586773e-05
163	0xbd30cbef	-0.043163236
164	0xbd25c059	-0.04046664
165	0xb6a63a94	-4.954005e-06
166	0xb317c12d	-3.533312e-08
167	0xbd366df4	-0.044538453
168	0xbd2e9ee7	-0.04263201
169	0xbd2cd8bd	-0.042198885
170	0xbd2cfc3d	-0.04223274
171	0xbd261507	-0.040547397
172	0xbd2d2b4e	-0.042277627
173	0x000088f9	4.9137e-41
174	0xbd311c29	-0.043239746
175	0xbd36ab2e	-0.044596843
176	0x28da415c	2.4231207e-14
177	0xbd314c26	-0.04328551
178	0xbd33b8a7	-0.04387727
179	0x23ef9ebd	2.597966e-17
180	0xbd2a8c91	-0.04163796
181	0xbd2e3c84	-0.04253818
182	0xb586399c	-1.0000545e-06
183	0xbd33eeaa	-0.04392878
184	0xbd342765	-0.043982882
185	0xbd2da58d	-0.04239421
186	0x800088f4	-4.913e-41
187	0xbd0c0753	-0.034186672
188	0x28dc749f	2.4475483e-14
189	0xbd339ace	-0.043848805
190	0xbd33e12a	-0.043915905
191	0xbd36673e	-0.044532053
192	0xbd3898e4	-0.045067683
193	0xb5981dd6	-1.1333566e-06
194	0xbd3c2d30	-0.04594153
195	0x23e9d4c8	2.5352027e-17
196	0xbd2cfd50	-0.042233765
197	0xbd2f56e4	-0.042807475
198	0xab1ab488	-5.496233e-13
199	0xbd399a60	-0.04531324
200	0xbd3072ff	-0.04307842
201	0xbd3c2f17	-0.045943346
202	0xbd34dede	-0.044157855
203	0xbd31a8a0	-0.043373704
204	0xbd2fa5e7	-0.042882826
205	0xbd327d31	-0.043576423
206	0xbd38ec25	-0.04514708
207	0xbd3981be	-0.045289747
208	0xbd2f1618	-0.04274568
209	0xbd279253	-0.04091103
210	0xb6922086	-4.3549253e-06
211	0xbd1733c3	-0.0369146
212	0xbd2ec377	-0.04266688
213	0xbd3a5e15	-0.04549988
214	0xbd3579c3	-0.044305574
215	0xadf7c64d	-2.8168712e-11
216	0xbd3c4e0e	-0.045972876
217	0xbd39aa45	-0.045328397
218	0xa6b6c61b	-1.2682484e-15
219	0xbd24e6ab	-0.040259045
220	0xbd298ecc	-0.041395947
221	0xbd2e623d	-0.042574156
222	0xbd2a62b1	-0.041598026
223	0xbd2df709	-0.04247192
224	0xbd2b576e	-0.041831426
225	0xbd36a613	-0.044591974
226	0xbd376f08	-0.044783622
227	0xbd253485	-0.04033329
228	0xbd29c331	-0.041445915
229	0xbd376902	-0.044777878
230	0xbd2d793a	-0.04235194
231	0xbd2e0c0a	-0.04249195
232	0xbd395bbb	-0.045253497
233	0xb71f6eb1	-9.502911e-06
234	0xbbc499ff	-0.005999803
235	0xbd2f95ae	-0.042867355
236	0xbd340152	-0.04394657
237	0xb1f80b28	-7.2190183e-09
238	0x8000898b	-4.9341e-41
239	0x8002916b	-2.35837e-40
240	0xb5b1be38	-1.3242889e-06
241	0xb65214c8	-3.1304535e-06
242	0xb9068e4e	-0.00012832248
243	0xbd253a89	-0.040339027
244	0xbd3431fa	-0.043992974
245	0xbd32a254	-0.04361184
246	0xb3518d29	-4.878999e-08
247	0xbd29846f	-0.041386064
248	0x1ff9cb19	1.057916e-19
249	0xbd32a09c	-0.0436102
250	0x329e4e37	1.8429189e-08
251	0xbd2226ff	-0.03958797
252	0xbd38b2d9	-0.045092437
253	0xbd3079f8	-0.04308507
254	0xbd325ee1	-0.043547515
255	0xb901a11f	-0.00012362421

se.fc.0.bias f4 [8]
0	0xb6ec0d1b	-7.0348738e-06
1	0xbd3626d2	-0.044470616
2	0xbcf3967b	-0.02973484
3	0x00008a27	4.956e-41
4	0xb8c6ab5b	-9.473293e-05
5	0x3ce22409	0.027605074
6	0xba4562d8	-0.00075296825
7	0x3b1a4437	0.0023539194

se.fc.2.weight f4 [128, 8]
0	0x0000895e	4.9278e-41
1	0x3bf9b0ae	0.007619939
2	0x28d55100	2.3682879e-14
3	0x800089c6	-4.9424e-41
4	0x800089d5	-4.9445e-41
5	0xbdaa1aaf	-0.08305871
6	0x8002bd5f	-2.51605e-40
7	0xbae719dd	-0.0017631609
8	0x00008a3a	4.9586e-41
9	0x3c060920	0.0081808865
10	0x00008a07	4.9515e-41
11	0x00008be9	5.019e-41
12	0x80008910	-4.9169e-41
13	0x3e641a99	0.22275771
14	0x80008b1e	-4.9906e-41
15	0x398638bb	0.0002560074
16	0x80008a88	-4.9696e-41
17	0x3c1c17f0	0.0095271915
18	0x271ca2df	2.1737642e-15
19	0x000088dd	4.9097e-41
20	0x80008b7f	-5.0042e-41
21	0xbe08d25d	-0.13361497
22	0x00006dc4	3.9376e-41
23	0xbb0098ba	-0.0019622282
24	0x80008917	-4.9179e-41
25	0x3c792453	0.015206414
26	0x26074bdb	4.6940337e-16
27	0x00008a28	4.9561e-41
28	0x80008ac4	-4.978e-41
29	0xbdeb039b	-0.11475297
30	0x000089b9	4.9406e-41
31	0xbb8912c4	-0.0041831452
32	0x000089f9	4.9495e-41
33	0x3c688627	0.014192141
34	0x00008a02	4.9508e-41
35	0x800089a8	-4.9382e-41
36	0x80008a6e	-4.9659e-41
37	0xbd0465b7	-0.032323565
38	0x800089ef	-4.9481e-41
39	0xbb887483	-0.00416428
40	0x800089e7	-4.947e-41
41	0x3c326b64	0.010889862
42	0x00008914	4.9174e-41
43	0x800095f0	-5.3787e-41
44	0x80009dcd	-5.6608e-41
45	0x3df8682b	0.121292435
46	0x00008a57	4.9627e-41
47	0xbad5e130	-0.0016317721
48	0x000089f8	4.9494e-41
49	0x3c1ce89e	0.009576945
50	0x80008a28	-4.9561e-41
51	0x800089fb	-4.9498e-41
52	0x000089e7	4.947e-41
53	0xbe277077	-0.16351496
54	0x00008b0b	4.9879e-41
55	0xbbc7ea84	-0.0061009545
56	0x0000933b	5.2816e-41
57	0x3c06f284	0.008236531
58	0x399b84d3	0.00029662866
59	0x00008922	4.9194e-41
60	0x80008a1f	-4.9549e-41
61	0x3e27ec61	0.16398765
62	0xb663c2c2	-3.3939e-06
63	0x3b3d693d	0.0028901838
64	0x00008939	4.9226e-41
65	0x3c51b538	0.012799554
66	0x352d3922	6.453066e-07
67	0x8000891c	-4.9186e-41
68	0x000088ee	4.9121e-41
69	0xbc70ced9	-0.014697754
70	0x18a0b432	4.154098e-24
71	0xbad5da0e	-0.0016315596
72	0x80008a2d	-4.9568e-41
73	0x3c67d2b3	0.014149356
74	0x0e8d6d2d	3.4864316e-30
75	0x00008a60	4.964e-41
76	0x80008937	-4.9223e-41
77	0xbab05a27	-0.0013454602
78	0x00008948	4.9247e-41
79	0xbace6d7b	-0.001574918
80	0x8000899b	-4.9364e-41
81	0x3c0992ec	0.008396845
82	0x80008a47	-4.9605e-41
83	0x00008ba2	5.0091e-41
84	0x00008a20	4.955e-41
85	0xbe28a951	-0.16470839
86	0x000088ef	4.9123e-41
87	0xbb8b5594	-0.004252145
88	0x80008946	-4.9244e-41
89	0x3c60140e	0.013676656
90	0x924be432	-6.433678e-28
91	0x80008d0e	-5.0601e-41
92	0x80008a2e	-4.957e-41
93	0xbc5fd5b0	-0.013661787
94	0x80008985	-4.9333e-41
95	0xbb36db87	-0.0027901845
96	0x8000897d	-4.9322e-41
97	0x3c5440b1	0.012954877
98	0xb0d9497b	-1.5809712e-09
99	0x00008f3d	5.1384e-41
100	0x80008933	-4.9218e-41
101	0xbc9ef70d	-0.019404912
102	0x0000931f	5.2777e-41
103	0xbad95381	-0.0016580672
104	0x00008f54	5.1416e-41
105	0x3c30ad9f	0.010783582
106	0xb1d0fcdc	-6.0823435e-09
107	0x0000894e	4.9256e-41
108	0x0000891a	4.9183e-41
109	0xbe356537	-0.17714392
110	0x803077e6	-4.451115e-39
111	0xbb37b566	-0.0028031706
112	0x00008b4b	4.9969e-41
113	0x3bd0b9d0	0.006369807
114	0x15ef6e06	9.670492e-26
115	0x0000adad	6.2303e-41
116	0x800089be	-4.9413e-41
117	0xbd0288ed	-0.031868864
118	0x8000907b	-5.183e-41
119	0xbb2686cd	-0.0025409937
120	0x0000a926	6.0679e-41
121	0x000088d7	4.9089e-41
122	0x0000a1a0	5.798e-41
123	0x0000a510	5.9213e-41
124	0x0000894a	4.925e-41
125	0xbd23745b	-0.039905887
126	0x80008965	-4.9288e-41
127	0x89cea2ef	-4.9745918e-33
128	0x80008900	-4.9146e-41
129	0x3c818b2b	0.01581343
130	0x13a2ffa5	4.1146634e-27
131	0x00009cd2	5.6257e-41
132	0x00008cb3	5.0473e-41
133	0xbe431ce6	-0.19053993
134	0x8000898e	-4.9345e-41
135	0xbb818c0d	-0.003953463
136	0x000088bd	4.9052e-41
137	0xbc5aee3e	-0.013362465
138	0x00008d50	5.0693e-41
139	0x80008a05	-4.9512e-41
140	0x000088c0	4.9057e-41
141	0x3e499737	0.1968659
142	0x000089c7	4.9425e-41
143	0xba09e620	-0.00052604266
144	0x000088d9	4.9092e-41
145	0x80008a7f	-4.9683e-41
146	0x80008994	-4.9354e-41
147	0x000089a6	4.9379e-41
148	0x00008afc	4.9858e-41
149	0xbb9040e0	-0.004402265
150	0x80008a67	-4.965e-41
151	0x00008921	4.9193e-41
152	0x00008a14	4.9533e-41
153	0x39e83f7e	0.00044297794
154	0x80008bc1	-5.0134e-41
155	0x000088c4	4.9062e-41
156	0x800088fb	-4.914e-41
157	0x3eb5ef27	0.3553402
158	0x0000896a	4.9295e-41
159	0xb62427a1	-2.4460971e-06
160	0x00008a9f	4.9728e-41
161	0xbca739f5	-0.020413378
162	0x00008aa5	4.9736e-41
163	0x00009281	5.2556e-41
164	0x000089e0	4.946e-41
165	0x3e906a13	0.28205928
166	0x800088e5	-4.9109e-41
167	0x38b4c4a6	8.6196975e-05
168	0x800088d8	-4.909e-41
169	0x3c33a6e5	0.010965084
170	0x00008927	4.9201e-41
171	0x0000897c	4.932e-41
172	0x00008a0e	4.9525e-41
173	0x3df9f913	0.1220571
174	0x80008b6a	-5.0012e-41
175	0xb8c8926b	-9.5640156e-05
176	0x80008a3a	-4.9586e-41
177	0x3c125710	0.00893189
178	0x33dbea53	1.02406055e-07
179	0x000089ad	4.9389e-41
180	0x80009a0a	-5.5259e-41
181	0x3e4c4cc8	0.19951165
182	0x000089c0	4.9415e-41
183	0xb98e6a76	-0.0002716367
184	0x000089ef	4.9481e-41
185	0x3c2b73bb	0.010464604
186	0x00008b14	4.9892e-41
187	0x00008c23	5.0272e-41
188	0x80008c7d	-5.0398e-41
189	0x3e3a3c7c	0.18187135
190	0x80008bc8	-5.0144e-41
191	0xb9a08320	-0.00030615274
192	0x00008a71	4.9663e-41
193	0xba1531ce	-0.00056913204
194	0x0000894d	4.9254e-41
195	0x000089a4	4.9376e-41
196	0x80008a78	-4.9673e-41
197	0x3ec6799f	0.38764665
198	0x00008903	4.915e-41
199	0xb93edeb0	-0.0001820277
200	0x000088f8	4.9135e-41
201	0xb91e9838	-0.0001512476
202	0x00008b3c	4.9948e-41
203	0x8000a63e	-5.9636e-41
204	0x80008930	-4.9214e-41
205	0x3ea0ca8f	0.3140454
206	0x0000ad8f	6.2261e-41
207	0x3a31305d	0.0006759221
208	0x800089a1	-4.9372e-41
209	0x3c453f28	0.012038983
210	0x3375c75c	5.7224824e-08
211	0x800089a9	-4.9383e-41
212	0x80008a71	-4.9663e-41
213	0x3e55c742	0.20876792
214	0x800089ba	-4.9407e-41
215	0xba2e17cd	-0.000664112
216	0x80008a2a	-4.9564e-41
217	0x3cc98eeb	0.024604281
218	0x00008a19	4.954e-41
219	0x8000891d	-4.9187e-41
220	0x0000898b	4.9341e-41
221	0x3e42c8e5	0.19021948
222	0x80008905	-4.9153e-41
223	0xb963e0ee	-0.000217322
224	0x80008973	-4.9307e-41
225	0x3c110576	0.0088514
226	0x3536d182	6.810516e-07
227	0x8000a3ec	-5.8804e-41
228	0x00009e35	5.6754e-41
229	0xbc4bafc0	-0.012432039
230	0x26d829a3	1.4999296e-15
231	0xba19d40f	-0.0005868086
232	0x80008991	-4.935e-41
233	0x3c89a8f5	0.016804198
234	0x000088bf	4.9055e-41
235	0x800089c0	-4.9415e-41
236	0x00008a8a	4.9698e-41
237	0xbca0782a	-0.019588549
238	0x80008f95	-5.1508e-41
239	0xbb8fa0ce	-0.004383183
240	0x000089eb	4.9476e-41
241	0x3c0ccb49	0.008593389
242	0x8000d207	-7.5344e-41
243	0x00008a4b	4.961e-41
244	0x00008a4a	4.9609e-41
245	0xbdeac6b1	-0.11463679
246	0x00009740	5.4258e-41
247	0xbb72b895	-0.003703629
248	0x00008916	4.9177e-41
249	0x3c03cc22	0.0080442745
250	0xabe1026a	-1.5987882e-12
251	0x8000894b	-4.9251e-41
252	0x80008c84	-5.0408e-41
253	0xbdf027ba	-0.11726327
254	0x00008925	4.9198e-41
255	0xbb2e51f0	-0.0026599132
