checkpoints_kfold1/fold1_best_model.pth (torch, 228335 bytes, 23 tensors)

conv1.weight f4 [32, 1, 5]
000000 5c 62 b0 3e 7f f2 c4 3e 3c 44 04 be 92 e0 b1 3e
       0.34450042 0.3846626 -0.12916654 0.34741646
000010 0c 4d 1f be e0 3a 7b 3d b9 06 3a be 08 9e 97 3e
       -0.15556735 0.061335444 -0.18166627 0.29612756
000020 34 10 df 3e 5b 50 91 be bf 49 d5 3e 08 e8 e9 3d
       0.4356705 -0.2838162 0.41657826 0.114212096
000030 29 af a1 3e cb 06 92 3d ae 7a 32 3e 45 35 31 bd
       0.3157895 0.07130202 0.17429611 -0.043263692
000040 9b b1 b7 3e 44 49 13 3d 01 0d 55 be 3e 5b e4 3d
       0.3587769 0.035958543 -0.20805742 0.111502156
000050 ab bf 7b be 59 5b 5c bb 7b 89 18 be 48 a2 97 3e
       -0.24584834 -0.0033623783 -0.14896195 0.29615998
000060 06 15 af be 1a b2 67 be 23 49 29 be e4 4b 47 be
       -0.34195727 -0.22626534 -0.16531806 -0.19462544
000070 1d ef 44 bd 02 e0 b4 be 8b 84 d5 3e 8d f3 c0 be
       -0.0480796 -0.35327154 0.41702685 -0.37685814
000080 e4 66 ba 3e ea 22 d9 bc 42 b8 c5 bd 4c b2 a1 3e
       0.36406624 -0.026505906 -0.09654285 0.31581342
000090 e5 c7 7f 3d 37 97 a9 3e db 9e 2c 3d 05 a4 dc bd
       0.062446494 0.3312318 0.042143684 -0.10773472
0000a0 3f 60 c0 3d b9 4d ec bd 93 b0 72 3e 41 eb c2 3e
       0.093933575 -0.11538262 0.2370017 0.3807011
0000b0 42 83 7d 3e bd 11 56 be 42 3e 5e 3e fa 5e 14 3d
       0.24757102 -0.20905204 0.21703437 0.03622339
0000c0 3d 23 73 3e 85 8b 95 be b6 b1 de be 2e 0a 28 be
       0.23743911 -0.29208007 -0.43494958 -0.16410133
0000d0 0e 46 a1 be c1 70 c2 3e c9 c2 16 3e 0e 1f 74 3e
       -0.3149876 0.3797665 0.14722742 0.23839971
0000e0 a3 a6 04 3e bb 21 54 bd 8d e5 5e 3e f7 57 c5 be
       0.12954192 -0.05178998 0.21767254 -0.38543674
0000f0 78 98 8f 3d 2c 59 89 be 54 06 0f 3e c6 eb 1e be
       0.07011503 -0.26825845 0.13967258 -0.15519628
000100 24 e0 31 3e c4 24 f0 bd c6 8e b6 3e da ff 7e be
       0.17370659 -0.117257625 0.35655802 -0.24902287
000110 2b 0f 9a be 6b 24 94 be 83 18 ba 3e d8 bf 0f 3e
       -0.30089697 -0.28934035 0.36346826 0.14038026
000120 c4 73 e4 3e e1 b8 d7 be 49 9e d4 be 41 87 ba be
       0.44619572 -0.4213324 -0.41527012 -0.36431316
000130 cc e6 ae be 51 bf 78 3e 67 6b 27 3e e7 b4 8c 3e
       -0.3416046 0.24291731 0.16349564 0.27481768
000140 10 38 80 be 1a 50 88 be 77 fa 72 3e 64 1e 4e be
       -0.25042772 -0.26623613 0.23728357 -0.2012878
000150 a8 f9 8e 3e 8d 04 a6 bd 57 d6 8a 3e 29 30 a9 be
       0.27924848 -0.08106337 0.27116653 -0.33044556
000160 06 43 43 be 96 13 3b 3e 23 91 ac 3d eb 4d ea bd
       -0.19068536 0.1826919 0.0842612 -0.11440643
000170 4b 66 66 3e c7 5d 7b 3e 1c 72 c9 be b9 2f 81 be
       0.22499959 0.24547492 -0.3934487 -0.25231722
000180 6e 1f cc 3e f8 f5 19 be f9 6d ff bd 79 5b ee be
       0.3986773 -0.15035236 -0.124721475 -0.46554163
000190 14 4f 51 be ad 00 17 3e 30 ea 35 bc 06 42 9e be
       -0.20440322 0.14746352 -0.011103198 -0.30909747
0001a0 13 8f 5c bc fa e9 fa be cc 24 c8 be 6e f0 aa bd
       -0.013461846 -0.49006635 -0.39090574 -0.083466396
0001b0 e2 42 bb be 8b a8 f2 be 6f 46 db 3e 45 c3 c5 3d
       -0.36574465 -0.47394213 0.42827174 0.09656385
0001c0 0f 3d ff 3d 6a 72 e2 be df b7 95 be 75 c0 e2 bd
       0.12462818 -0.44227916 -0.29241845 -0.110718645
0001d0 9c 82 29 3c 54 41 df be b1 b4 9b be ba 19 c3 be
       0.010346081 -0.4360453 -0.30411294 -0.38105565
0001e0 af eb 3e bd 83 98 7d be 15 0a 3f 3b f3 e0 77 be
       -0.046611484 -0.2476521 0.0029150296 -0.24206905
0001f0 75 35 8f be ca ee 89 be 07 b5 34 be 01 4b 9f be
       -0.27970472 -0.26939994 -0.17647181 -0.3111191
000200 e6 fa c4 3e fe 6a 01 bd 24 99 ca 3e 69 28 09 3e
       0.3847267 -0.031596176 0.39569962 0.13394322
000210 67 54 ce be 0c 0d 94 3e 69 82 c1 bd 8a 69 1a be
       -0.4029877 0.28916204 -0.09448702 -0.15079322
000220 f3 42 d2 be 5f f9 f1 be 19 82 c7 3d 1c 95 1b be
       -0.41066703 -0.47260568 0.09741611 -0.151936
000230 c5 1b 37 3e 22 5f b8 be 84 f3 af 3e 92 aa a3 be
       0.17881687 -0.3601008 0.34365475 -0.31966072
000240 7c a7 41 bd 52 67 ec 3d 85 41 64 3e bc 48 b5 3e
       -0.047278866 0.11543144 0.22290619 0.35407054
000250 1d ab a9 3e 03 bf d9 be 25 14 e9 3d 27 0d 3c be
       0.33138362 -0.42528543 0.113807954 -0.18364392
000260 76 37 63 bd e3 a9 a8 be 7a 15 d4 3e e3 59 c0 be
       -0.055472814 -0.32942113 0.41422635 -0.37568578
000270 5d f0 79 3e 37 2d f1 3d 2c 14 cc 3d a3 b2 5a be
       0.24408098 0.11776202 0.09964785 -0.21357207

conv1.bias f4 [32]
000000 58 0b 91 3c 9b 3c 4c b9 30 ae 43 ba 86 a9 d4 bc
       0.017705604 -0.00019477533 -0.00074646156 -0.025959741
000010 1b db c3 b7 b5 e9 23 bb 0b ac 43 ba fe fb 5d 3c
       -2.334784e-05 -0.0025011126 -0.0007464296 0.013548849
000020 38 ce 04 3b f1 60 b3 b9 56 8e 3e ba c6 ed a3 3a
       0.0020264518 -0.00034213768 -0.00072691345 0.0012506775
000030 53 1d f4 3a ea e8 d7 38 ab 5c 6f ba 8d 47 e1 3a
       0.0018624462 0.000102953825 -0.0009130935 0.0017187461
000040 ba 3a 98 bb b4 1d 1e ba 3b 1f dc 3b 20 dd a6 bc
       -0.0046456726 -0.0006031648 0.00671759 -0.020369112
000050 a3 31 51 bb a6 47 d0 38 f9 6c a4 39 0d 46 c2 3a
       -0.0031920455 9.9315585e-05 0.00031361709 0.0014821902
000060 76 b1 40 3b 1e 27 f3 3a ec 30 f2 38 fd 6e b4 3a
       0.002940265 0.0018551087 0.00011548572 0.0013765987
000070 71 49 3e ba 01 36 f0 3a fe f1 fa ba a9 ea dd 39
       -0.00072588684 0.0018326641 -0.0019145606 0.0004232724

bn1.weight f4 [32]
000000 c7 bf 77 3f 56 8f 7a 3f 8d d5 7f 3f aa 1f 7a 3f
       0.96777004 0.97874963 0.9993523 0.97704566
000010 c2 cf 80 3f 77 d4 8c 3f 79 06 73 3f 47 5e 7c 3f
       1.0063403 1.1002339 0.9493175 0.98581356
000020 65 0f 73 3f 20 15 7f 3f 1c 12 81 3f d4 c8 75 3f
       0.94945365 0.9964161 1.0083652 0.96009564
000030 ba 6a 79 3f 33 f1 80 3f 96 ee 7a 3f d2 5b 80 3f
       0.97428477 1.0073608 0.98020303 1.0028021
000040 d5 da 7e 3f 33 3e 82 3f c9 e5 7c 3f e8 b5 82 3f
       0.9955266 1.0175232 0.98788124 1.0211763
000050 35 7c 8d 3f ee 7a 91 3f ee 31 7e 3f 1f ba 92 3f
       1.105353 1.136564 0.99294937 1.146305
000060 e6 85 90 3f e2 52 80 3f ff 3d 78 3f e4 c4 90 3f
       1.1290863 1.0025294 0.969696 1.1310086
000070 ab 48 82 3f e2 3e 7c 3f 45 3b 7e 3f fb d2 79 3f
       1.0178427 0.9853345 0.9930919 0.97587556

bn1.bias f4 [32]
000000 4d 44 a2 3d 31 f8 5b bd 2b ff 93 3d c1 65 be bd
       0.079231836 -0.05370349 0.07226404 -0.09296752
000010 ae 42 42 3d bb 86 c5 3d cc fe fa ba 4a 6f 8a 3d
       0.047426872 0.096448384 -0.0019149422 0.06759508
000020 be 34 bd bc 9c c9 df 3d db 05 e2 3d 5a 5f a0 3d
       -0.023096438 0.10927126 0.11036273 0.07830687
000030 15 3b 41 3e c1 ac 19 3e aa 51 86 bc 2c 50 93 3d
       0.18870194 0.15007307 -0.016396362 0.07193026
000040 52 6c d1 3d 67 9c b2 3d 82 4f 55 bd fc cf ce 3c
       0.102257386 0.08721238 -0.052077778 0.025245659
000050 7b fc 01 3e 42 a7 11 3e df 49 60 3e 3a 20 18 3e
       0.1269397 0.1422396 0.2190318 0.14856043
000060 5c fd 09 3e e5 0f 70 3d 67 1b 2d bd 79 da 13 3e
       0.13475555 0.05860891 -0.04226246 0.1443881
000070 bc ff ca 3d a8 85 a8 3d 7a ad 11 3e a3 63 02 3e
       0.09912059 0.08228618 0.14226332 0.12733321

bn1.running_mean f4 [32]
000000 a7 6a c8 3c 1f 1b 07 3b 79 44 09 3c 68 cf d1 bc
       0.024464918 0.002061553 0.008378142 -0.025611594
000010 48 4a 3f bb 55 3f ec bb 99 7e b3 3a b1 8e 9b 3c
       -0.0029188562 -0.007209698 0.0013694345 0.018988939
000020 62 1c f5 3b 8c 17 f0 b9 86 17 67 bb fe b0 2b 3b
       0.00748019 -0.0004579391 -0.0035261824 0.0026198025
000030 ec 07 b6 3a 95 b2 67 bb ae 77 1e b7 df ff 91 3a
       0.0013887859 -0.0035354246 -9.445399e-06 0.0011138878
000040 c4 ef d5 bb 45 27 f6 ba e3 0e f7 3b 88 96 d3 bc
       -0.0065288264 -0.0018780014 0.0075396164 -0.025828615
000050 72 9b 8e bb ab d9 4e bc 4d 14 3f ba 50 bd 00 bc
       -0.0043520266 -0.012625138 -0.0007289097 -0.007857636
000060 f8 1c f5 ba 4d d0 af ba e8 43 1d 3b 0a c5 f8 bb
       -0.001870065 -0.0013413519 0.0023996774 -0.0075918483
000070 38 f8 c6 ba 93 e4 cc 3b a6 9a bc ba 65 eb 25 ba
       -0.0015180176 0.006252834 -0.001438935 -0.0006329327

bn1.running_var f4 [32]
000000 71 0d 3f 3a 04 06 d6 39 a3 5b 62 3a 00 6b 52 39
       0.00072880747 0.00040821743 0.0008634871 0.00020067021
000010 ba e8 b9 39 48 17 30 3a bc a8 04 3a 23 ec e1 39
       0.00035459345 0.00067173364 0.0005060544 0.0004309128
000020 2a e2 1c 3a 78 b1 67 39 6a 39 17 3a 76 ab 9c 39
       0.0005984629 0.00022095989 0.0005768748 0.00029882387
000030 88 71 24 39 05 98 09 3a ba 06 40 3a fd 1b e4 39
       0.00015682552 0.0005248788 0.0007325221 0.00043508402
000040 bc 9a b4 39 1c 40 82 39 c6 8f 89 39 e1 83 1e 3a
       0.00034447561 0.00024843297 0.00026237796 0.0006046873
000050 cf 2d 5e 39 5b 4a 0d 3b fd 71 0a 3a db 08 93 3a
       0.00021188635 0.0021559212 0.0005281268 0.0011217849
000060 23 15 01 3a b4 1f de 39 a6 d0 ee 39 36 f2 81 3a
       0.0004924109 0.0004236676 0.00045550353 0.0009914103
000070 c2 0d da 39 f0 e6 27 3a e1 b2 a4 39 54 76 82 39
       0.0004159045 0.0006404957 0.00031413793 0.00024883694

conv2.weight f4 [64, 32, 5]
000000 c2 7b 41 3c 11 10 9b 3d e1 cb 09 3c 49 dc a2 bb
       0.011809291 0.07571424 0.008410425 -0.0049701077
000010 f0 97 08 3d 42 94 18 bd ce a0 84 3c da 95 90 3b
       0.033348024 -0.037250765 0.016189959 0.004412395
000020 98 01 4a bd 0b 98 fa bc 0d cf 16 3d 0a 6b 61 3d
       -0.049317926 -0.030590078 0.036818553 0.05503372
000030 6e 54 b9 3c a3 f2 f3 bc 73 ba e1 bc 18 73 91 bd
       0.022623267 -0.029778784 -0.027554726 -0.071020305
000040 24 5f 74 bd 48 7b 66 3c 46 25 0b 3d 25 11 34 3c
       -0.059661046 0.0140674785 0.033971094 0.010990416
000050 6a af 57 ba fb 67 f2 3c a5 d7 66 3c 56 f1 ce 3d
       -0.0008227738 0.029590597 0.0140895 0.10104625
000060 f8 af 4f 3d cb 63 80 3d dc 93 d1 3d 85 87 63 3d
       0.050704926 0.06269034 0.1023328 0.055549163
000070 e5 ae 1c 3d a8 25 59 3e e1 49 6c bd dc ef ab 3c
       0.03825273 0.21205771 -0.057687644 0.020988397
000080 b5 46 10 bd c6 86 2b 3d 12 21 9b 3d 74 63 ef bb
       -0.03522368 0.041876577 0.07574667 -0.007305557
000090 ea e8 02 bd 11 60 70 bd c4 11 8a bd 5a 1b 8b 3d
       -0.031960405 -0.058685366 -0.0674167 0.06792326
0000a0 b4 14 5d 3b 00 7f 6f 3d f8 b8 00 3d 58 95 08 3d
       0.0033734264 0.058470726 0.0314264 0.03334555
0000b0 e6 4d 79 bc ac 39 d0 bc e6 bf b5 bc 3c 90 44 bd
       -0.015216326 -0.025418125 -0.02218623 -0.047989115
0000c0 10 16 03 3d 8b 32 9b 3c 00 a4 32 bd fc 62 4c bd
       0.032003462 0.018945 -0.043613434 -0.049899086
0000d0 fa da 0b bd 96 0b 98 bd 37 17 9b bd 9d 66 18 bc
       -0.03414438 -0.07424085 -0.07572787 -0.009301809
0000e0 90 1b 88 3a 42 c3 4a 3d dd eb 5a bc a3 fd 07 bc
       0.0010384191 0.04950262 -0.013361898 -0.008300218
0000f0 ca 6f 0a bc ff 21 19 3d 55 dd d0 3c 2a a1 d8 bc
       -0.008449504 0.037385937 0.025496164 -0.026444037
000100 7a 52 57 3d 6c 75 78 bd be 23 39 3c 6c 1f e4 bc
       0.05256889 -0.060658857 0.0113000255 -0.027847014
000110 db f0 85 bc 66 6e de bc f8 ca 50 3c 7d 4f 11 bd
       -0.0163502 -0.027152251 0.012743704 -0.035476197
000120 3a 04 14 bc d7 dd 95 3c f8 c9 08 bd 5a d0 14 bd
       -0.009034211 0.018294258 -0.033395737 -0.036331512
000130 2a 14 8f bd a4 7d e0 bd 22 83 e4 bc ee 8d e5 bd
       -0.06986268 -0.10961464 -0.02789456 -0.112087116
000140 5a e0 20 3d 95 c4 1e 3d 52 fd c7 3c 1d 0f de bc
       0.03927646 0.038761694 0.024412785 -0.027106816
000150 9a f4 94 bd 94 f6 28 bb 85 24 d3 b8 20 11 a1 bd
       -0.072732165 -0.0025781738 -0.00010068066 -0.078645945
000160 db 36 1a bd d4 bf b3 bd f7 8a 2c bd bb 4b a2 bc
       -0.03764997 -0.08776823 -0.042124715 -0.019811502
000170 89 05 27 bd 5e b1 64 bc dc da 64 bd 33 c2 97 3d
       -0.040776763 -0.013958303 -0.055872783 0.074100874
000180 b7 9e 66 3d fe 51 ca bc 3b 95 4c bd 6f a6 db 3c
       0.056303706 -0.0246973 -0.049947005 0.02681276
000190 69 2c 62 bd bb 80 b5 bd a7 f4 07 bd 3a ff 5c bd
       -0.055218134 -0.08862444 -0.033192303 -0.05395434
0001a0 e1 f4 05 3d f9 fb a1 3d 67 b8 93 3d 8c 81 82 3d
       0.032704238 0.07909388 0.07212906 0.06372365
0001b0 69 53 b3 3d 3f 5a 26 3e 1c 55 89 bd 28 46 d4 bc
       0.087561436 0.16245364 -0.067056865 -0.02591236
0001c0 a9 c2 89 bd b1 73 2d 3c 1c 75 55 bd 89 8c b2 3d
       -0.067265816 0.010586665 -0.052113637 0.08718211
0001d0 7e 66 1c 3d ae c1 86 3d 07 37 f7 3d 02 44 57 3e
       0.03818368 0.0657991 0.120710425 0.21022037
0001e0 20 87 1b 3d f8 93 d2 3d 65 a8 f4 3d 8c 59 c9 3d
       0.037970662 0.10282129 0.11946181 0.09831533
0001f0 50 b0 4f 3e 71 42 70 3d 22 a3 8d 3c f6 9b 53 3c
       0.20282102 0.058657113 0.017289702 0.012915602
000200 dd 98 04 bc f1 39 45 bc 39 df 1e 3c 2f a2 1a 3d
       -0.008093086 -0.01203774 0.009696775 0.037752327
000210 71 bf b5 bc d3 34 5f bd ee b7 ea bc 9c 95 2d 3c
       -0.022186013 -0.054493736 -0.028652158 0.010594752
000220 c0 cc df 3c 32 aa ce 3c a4 46 c6 3d b4 1f 0b 3e
       0.027319312 0.02522764 0.096814424 0.13586313
000230 ff 90 80 bd 8c f4 1a 3c 31 2e cf 3d 36 41 c9 bc
       -0.06277656 0.009457719 0.10116232 -0.024567228
000240 96 bf 64 3d 72 6b 23 3c c9 af 57 bc b3 1b ae bb
       0.055846773 0.009974347 -0.013164469 -0.0053133606
000250 c1 8f 0a 3b 77 31 5a 3c 26 ed 3d bd 4f 7d 78 bd
       0.0021142813 0.013317457 -0.04636874 -0.06066638
000260 ed b6 2c bd 99 55 f9 bc 87 43 20 3d fb 7d 06 3a
       -0.04216664 -0.030436324 0.0391269 0.0005130467
000270 e9 ab 84 bc 66 38 13 3d 3a fb ed 3c 8d de c0 3d
       -0.016195254 0.035942458 0.029050458 0.09417448
000280 b4 15 46 3d 11 6b 6c 3d d9 f0 a2 bd fc d9 1d bc
       0.04836054 0.057719294 -0.07956094 -0.009634491
000290 62 c3 69 3d 63 19 e4 bb f8 a9 93 bd 48 7a 80 3d
       0.057071097 -0.006961034 -0.07210153 0.06273323
0002a0 e7 61 1b bc fe e0 7a bd cc 95 7c bd 2a 0b 8c 3c
       -0.009483791 -0.061249726 -0.061666295 0.017095167
0002b0 83 46 6a 3d 58 e0 02 3d 35 bf f6 3c 0a cd ac bd
       0.05719615 0.031952232 0.030120471 -0.084375456
0002c0 77 2e aa bd 9c 16 93 bc 8e 2c 91 3d df cb 04 3d
       -0.08309644 -0.017955117 0.07088576 0.03242099
0002d0 75 71 13 bd aa 4c 8c 3d 28 e7 0d be 6a e1 73 bd
       -0.035996873 0.0685056 -0.1385771 -0.059541143
0002e0 27 40 e8 bc c3 06 91 3d e8 db d1 3c 7a 5c 4d be
       -0.028350903 0.07081368 0.025617555 -0.20054808
0002f0 e3 ff 92 bd c5 f0 14 be e2 a0 02 3d 48 e5 52 3d
       -0.07177713 -0.14544971 0.03189171 0.05148819
000300 e3 52 86 3c 69 34 b7 3d 55 7a a0 bd cb ff df bc
       0.016396945 0.08945543 -0.07835833 -0.027343651
000310 8a b9 54 3d b3 52 bb 3b 49 00 8a 3c 5d 89 4d bc
       0.051934756 0.0057166456 0.01684584 -0.012544957
000320 32 9a 6e 3d 01 fc d8 3c 94 50 c1 3c 6d 12 0b bd
       0.05825252 0.026487352 0.023597993 -0.03395312
000330 e4 c8 8d bd 31 c2 13 bd f6 9a 4d 3d 5a 11 fb bc
       -0.069230825 -0.036073867 0.05019661 -0.030647922
000340 0d 00 c1 bc 92 32 2b 3d 4b 43 44 bc 2b b7 0c bc
       -0.023559595 0.041796274 -0.0119789345 -0.0085885925
000350 1c d0 07 bd c4 b0 71 bd f6 d4 b7 bd b4 d4 e6 bc
       -0.033157453 -0.059006467 -0.08976166 -0.028177597
000360 a8 38 8b bc 6f f9 5e 3c 49 59 ad bc f3 c9 c7 bc
       -0.01699479 0.013609274 -0.021160739 -0.02438829
000370 14 d6 9f 3d bd 58 26 3d 78 99 9a 3d 7c b2 54 bd
       0.07804504 0.04061197 0.07548803 -0.05192803
000380 6d d3 fc bc 86 47 1d bd dc cf 41 bd 60 ff f2 bc
       -0.030862534 -0.03839829 -0.04731737 -0.029662788
000390 47 1b 90 bd bd d4 d0 bd 49 18 88 bd f7 75 c5 3c
       -0.07036453 -0.101968266 -0.06645257 0.024104102
0003a0 50 90 83 3d 4d 7f 52 3d 84 79 1f 3c d0 ee 8d bd
       0.0642401 0.051390935 0.009733561 -0.069303155
0003b0 89 64 e1 bc f2 67 b1 3c 51 fb 07 3d 72 d3 c1 bc
       -0.02751376 0.02165601 0.03319866 -0.023660395
0003c0 3e 70 c8 bc de 3f 87 3d aa 90 60 bd 2d 84 a3 3c
       -0.024467584 0.066039786 -0.054825462 0.019960487
0003d0 f1 9d 30 bd 4c 1b 4a bd 91 e7 48 bd 84 8a 86 3c
       -0.043119375 -0.04934244 -0.049048964 0.016423471
0003e0 cc 2c 85 bd 36 90 21 3d 8c fb 57 bb 18 6f b2 3c
       -0.06502685 0.03944417 -0.003295633 0.02178149
0003f0 90 5b 97 3d c4 9d 70 bb 25 a5 82 bd 40 42 f3 bb
       0.07390511 -0.003671513 -0.06379155 -0.007423669

conv2.bias f4 [64]
000000 99 8b 88 38 16 43 0d b7 b7 1c cd 36 8b 72 18 39
       6.5109874e-05 -8.419875e-06 6.112819e-06 0.0001453852
000010 9c 36 e8 38 64 ac c4 b8 6f 58 8b 36 6a 76 dd 36
       0.00011072794 -9.3781186e-05 4.152818e-06 6.6000985e-06
000020 28 e3 00 38 c7 60 c4 b7 27 62 97 38 b8 22 9d 38
       3.0729134e-05 -2.3410086e-05 7.2185234e-05 7.49281e-05
000030 89 23 55 37 da 02 0c b8 f1 7f 20 b7 c8 3d 6b 38
       1.2704063e-05 -3.3381257e-05 -9.566532e-06 5.6085904e-05
000040 56 25 5c 38 b5 7f 16 b9 99 1a 07 b9 5f c9 b9 37
       5.248686e-05 -0.0001435269 -0.00012884512 2.214749e-05
000050 1b f8 a2 38 60 82 3f b8 cd bc 21 b7 ba 9d 24 b9
       7.770975e-05 -4.565937e-05 -9.640306e-06 -0.00015699017
000060 eb cb ba 37 9a 9a 1c 39 9c c8 b6 37 38 d6 d0 b7
       2.2267885e-05 0.00014934913 2.1789507e-05 -2.4895286e-05
000070 e6 7c 38 b7 db 98 af 37 19 75 a5 b6 09 16 94 37
       -1.0996335e-05 2.0932805e-05 -4.931015e-06 1.7653236e-05
000080 d7 01 65 b9 cb c3 15 37 85 dc 2c 37 cd 92 23 37
       -0.00021839827 8.926679e-06 1.0303343e-05 9.749737e-06
000090 61 15 17 b8 ee 80 3a b8 96 93 4c 38 51 f4 26 b8
       -3.6021116e-05 -4.446593e-05 4.877484e-05 -3.980502e-05
0000a0 bf 7c 3a 37 21 99 5b b9 49 07 50 b7 cb 67 14 38
       1.1115509e-05 -0.00020942512 -1.2399462e-05 3.5382614e-05
0000b0 6d dc ce 36 5b bf 9d 35 cd 4b f6 b6 ef fe 55 37
       6.1649394e-06 1.1753103e-06 -7.3401957e-06 1.2755146e-05
0000c0 6e df 14 b9 9b ed a3 37 a3 01 7b 37 08 85 d7 b6
       -0.00014197614 1.9541758e-05 1.4961147e-05 -6.422986e-06
0000d0 11 db 77 38 13 a5 eb 37 be 82 1d 36 cf cb dd b8
       5.909341e-05 2.8091052e-05 2.3470925e-06 -0.000105760635
0000e0 2c d0 29 b6 6d 8b 30 38 f4 61 69 37 77 64 a4 b7
       -2.5304134e-06 4.209152e-05 1.3910689e-05 -1.9597106e-05
0000f0 11 84 83 b4 21 1e da 37 9b 6c f0 38 eb 7d bc 39
       -2.4496742e-07 2.6001655e-05 0.00011464321 0.0003595197

bn2.weight f4 [64]
000000 9d 07 8b 3f e9 d0 81 3f 95 67 81 3f 5a 34 83 3f
       1.0861698 1.0141879 1.0109736 1.0250351
000010 44 1c 86 3f 0c aa 84 3f 55 2c 83 3f e3 b7 85 3f
       1.0477376 1.0364394 1.0247904 1.0446743
000020 32 76 83 3f 2b b5 86 3f fd 99 84 3f be 10 87 3f
       1.0270445 1.0524038 1.0359493 1.0551984
000030 73 d4 81 3f 59 11 86 3f 73 76 86 3f 45 a4 84 3f
       1.0142959 1.0474044 1.0504898 1.0362631
000040 1a e6 83 3f 90 4d 82 3f 38 0f 87 3f e8 08 83 3f
       1.0304596 1.017992 1.0551519 1.0237093
000050 92 9f 84 3f bc ee 8e 3f 38 28 86 3f 02 a7 83 3f
       1.0361197 1.1166606 1.0481024 1.0285342
000060 ad 66 83 3f 96 7f 84 3f 39 3a 85 3f c5 5d 82 3f
       1.0265709 1.0351436 1.0408393 1.0184866
000070 51 0a 83 3f fe 47 82 3f 22 75 81 3f 8b 7d 83 3f
       1.0237523 1.017822 1.0113871 1.0272688
000080 c7 ee 8b 3f 26 90 86 3f 18 2a 8a 3f 28 2b 83 3f
       1.0932244 1.0512741 1.0794096 1.0247545
000090 61 c3 8c 3f 2b 1f 8f 3f ef ef 82 3f dd 1b 87 3f
       1.0997125 1.1181387 1.0229472 1.0555378
0000a0 87 51 81 3f d3 d9 83 3f e6 60 81 3f 52 cd 84 3f
       1.0103005 1.030085 1.0107696 1.0375159
0000b0 1b c2 85 3f 91 af 82 3f 6b a7 81 3f 1f 82 85 3f
       1.0449861 1.0209829 1.0129217 1.0430335
0000c0 01 0d 83 3f d0 7c 84 3f e2 7b 83 3f 81 10 84 3f
       1.0238343 1.035059 1.0272181 1.0317537
0000d0 72 5e 84 3f 11 37 88 3f b7 e1 83 3f df dc 85 3f
       1.0341322 1.0641805 1.0303258 1.045803
0000e0 03 0e 84 3f b5 f5 83 3f bf e6 84 3f 91 60 82 3f
       1.0316776 1.0309359 1.0382918 1.018572
0000f0 d6 d6 82 3f fa 22 85 3f 48 cd 88 3f f9 bc 82 3f
       1.0221813 1.0401299 1.0687647 1.021392

bn2.bias f4 [64]
000000 ae 32 ba 3d f6 64 a2 3d 97 b0 43 bb 78 d5 a5 3b
       0.09091698 0.07929413 -0.0029859894 0.005060848
000010 2c 31 54 3d 6b 7d 19 3d f0 56 05 3e de d3 25 3d
       0.051804706 0.037473124 0.13021445 0.040485255
000020 b9 a8 e5 3d 74 ac dd 3b b5 21 ee 3d 17 c8 02 3d
       0.11213822 0.006764943 0.11627523 0.0319291
000030 e6 81 e9 3d b2 93 fc 3d b3 6f 03 3d 59 85 c4 3d
       0.11401729 0.12332858 0.032088947 0.095957465
000040 de 1c 4a 3d 50 69 30 3d 98 9a cb bc 2d 5a 0a 3e
       0.049343936 0.043069184 -0.02485399 0.13510962
000050 8c 2a 01 3e 3a 2d fc 3d 68 4f 27 3d 24 3e e4 3d
       0.12613887 0.12313314 0.040847212 0.11144665
000060 f5 e0 e5 3d 45 9b 95 3d 00 bb 69 3d d6 c4 c6 3c
       0.11224548 0.07305006 0.057063103 0.02426378
000070 d7 e1 f8 3d 3c 8d cd 3d 44 73 f8 3d 91 78 ac 3d
       0.121524505 0.10036704 0.1213136 0.08421434
000080 36 b0 c0 3d 21 52 88 3d fe 64 d4 3d 15 0b e0 3b
       0.094086096 0.0665629 0.10370825 0.0068372586
000090 cd 20 e1 3d 00 86 e1 3d 98 4b b0 3d ad 6b 77 3c
       0.109925844 0.110118866 0.08608168 0.0151013555
0000a0 9c ac 93 3d 4d c1 cc 3c 5c 62 f1 3c f4 52 f0 3d
       0.07210657 0.024994517 0.029465847 0.11734572
0000b0 26 2c e8 3d 5a 05 53 3d ea 2a 05 3d 98 0a 3e bb
       0.11336546 0.051518776 0.03251163 -0.0028998014
0000c0 af 4a 01 3d 4f 91 56 3d bb c2 2a 3e 16 71 1f 3e
       0.031565364 0.05238467 0.16675846 0.15570483
0000d0 cb 1e ef 3c bc 72 6a 3d dc 83 03 3e 1f 1e 30 3e
       0.029189488 0.057238325 0.12843269 0.1719899
0000e0 da 4c 06 3e 40 d2 04 3e 33 31 01 3e 4f b8 fd 3d
       0.13115254 0.12970829 0.12616424 0.1238867
0000f0 f8 a1 e8 3d 0f 4b 08 3e a0 06 9e bc 38 11 02 3d
       0.11359018 0.13309883 -0.019290268 0.031754702

bn2.running_mean f4 [64]
000000 4a 46 0f 3f 7b 3b 8d bf 81 6b 48 bd 96 97 83 bf
       0.5596663 -1.1033777 -0.04893065 -1.0280635
000010 4b 6f ca bf 47 f5 a6 bf 71 e7 65 bf b3 9f ff be
       -1.5815214 -1.3043603 -0.89806277 -0.49926528
000020 57 9e 59 bf 62 3c 95 be 91 89 8b bf ab 69 94 3e
       -0.8500723 -0.2914763 -1.0901357 0.28986868
000030 43 6b 8d bf 96 60 82 bf 2c 98 30 3e d8 a9 71 bf
       -1.1048359 -1.0185726 0.17245549 -0.94399786
000040 7c 9b b6 bf fb 2d 69 bf 86 e0 82 3f 3b c6 87 bf
       -1.42662 -0.91085786 1.0224769 -1.060737
000050 37 24 7e bf 9c 86 6d bf f2 3b 09 be ab 56 5c bf
       -0.9927401 -0.9278352 -0.13401774 -0.86069745
000060 ee 23 7b bf 16 9d 94 bf d8 c3 7b bf b0 74 fc be
       -0.981017 -1.1610439 -0.9834571 -0.49307775
000070 17 9f 7d bf eb 52 52 bf 24 63 29 bf e6 6d 84 bf
       -0.99070877 -0.8215777 -0.661669 -1.0346038
000080 86 e4 87 bf 74 92 b0 be 4d f0 2a be c2 22 5e 3f
       -1.0616615 -0.34486735 -0.1669323 0.86771786
000090 5b 33 ba be 49 fe 08 bc 1c 6c 30 bf f0 35 88 bf
       -0.36367306 -0.008361408 -0.6891496 -1.064146
0000a0 c3 47 59 bf 26 7e 81 bf e1 f8 57 bf 56 e8 7b bf
       -0.84875125 -1.0116622 -0.84364134 -0.9840139
0000b0 20 91 79 bf b0 d4 98 bf c7 03 e8 be ba ca a9 bf
       -0.9748707 -1.1939907 -0.45315382 -1.3264992
0000c0 ee 9b 99 bf 81 55 94 bd 32 93 52 bf d6 ae 44 bf
       -1.2000711 -0.07242871 -0.8225585 -0.7682928
0000d0 e9 b3 78 be 23 48 0c bf 80 51 87 bf 70 50 27 bf
       -0.2428738 -0.5479757 -1.0571747 -0.6535711
0000e0 07 10 2b bf 98 59 92 bf 0f d6 69 bf b0 d9 82 bf
       -0.6682133 -1.1433592 -0.9134225 -1.0222683
0000f0 e6 5a 90 bf 18 7f 61 bf 4e 1e 69 3f 45 6e b1 bf
       -1.127774 -0.88084555 0.91061866 -1.3861777

bn2.running_var f4 [64]
000000 22 e7 db 3e 5f 4e 90 3e f8 37 cb 3e ec b6 68 3e
       0.42949778 0.28184792 0.39691138 0.22726029
000010 09 5e a8 3d b2 58 d3 3d a0 6e 99 3e cd 6f 76 3e
       0.08221061 0.10319652 0.29967213 0.24066086
000020 f7 82 05 3f a0 65 29 3e 04 89 e7 3e 64 8e 13 3f
       0.5215296 0.16542673 0.45221722 0.57639146
000030 38 34 a7 3e b7 fc e9 3d 70 5a a5 3e 40 c7 42 3e
       0.32657027 0.11425155 0.3229556 0.1902132
000040 2b 6f ed 3d 3b fc 2e 3e f4 fa a1 3e a5 63 f9 3d
       0.11593469 0.17088406 0.31636775 0.12177209
000050 f0 74 c9 3d c1 0c 80 3f 89 87 41 3e 4d e7 3a 3e
       0.09836757 1.0003892 0.18899359 0.18252297
000060 98 64 b6 3e a8 99 1b 3e 5d eb 86 3e c2 c3 4b 3e
       0.35623622 0.15195334 0.26351443 0.19898894
000070 ab 54 23 3f a8 0c 42 3e 7d 1b ff 3e 86 d4 09 3e
       0.6380107 0.1895014 0.4982566 0.13459978
000080 d8 8d 15 3f c9 2e 38 3f de 8e 0a 40 26 f5 91 3e
       0.5841956 0.7194639 2.16497 0.28507346
000090 a1 a5 26 3f ed e0 74 3f 0d 25 05 3e cc b1 70 3e
       0.6509648 0.9565571 0.13002415 0.23505324
0000a0 ae 4b db 3e 1d e8 11 3e 9f 38 47 3e 70 d7 99 3e
       0.42831177 0.142487 0.19455193 0.30047178
0000b0 08 b3 49 3f 77 aa 54 3e b6 a7 c1 3e f5 43 00 3e
       0.78788805 0.20768152 0.37823266 0.12525924
0000c0 4d a4 a3 3d 3e 7d 85 3e 4f 13 aa 3e 0a d9 39 3f
       0.07990322 0.26072115 0.33217856 0.725968
0000d0 16 e8 91 3e 0a d6 50 3e c6 20 0f 3f d5 6f 2d 3e
       0.2849738 0.2039415 0.55909383 0.16937192
0000e0 b8 37 26 40 cc 32 b5 3d 89 d3 30 3e 18 f1 c3 3e
       2.5971508 0.08847579 0.17268194 0.38269877
0000f0 b5 ce 84 3e 5f 47 f4 3e 07 03 85 3e de be ed 3d
       0.25938955 0.47710702 0.25978872 0.11608671

conv3.weight f4 [128, 64, 3]
000000 01 2e eb 3d 0f ce e4 3c 44 a7 a2 3d 0d 16 a6 bc
       0.11483384 0.027930288 0.0794206 -0.020274187
000010 c7 f1 24 3d c8 73 95 3d 4f 7a 57 b9 d9 c1 43 3d
       0.04026964 0.07297474 -0.00020549561 0.04779229
000020 74 e4 39 bc c8 3f 5a 3c 09 d6 d7 bc 59 f8 b2 bd
       -0.011345971 0.013320871 -0.026347177 -0.08738775
000030 b5 84 a7 3d 56 c4 a9 bc 3f 13 12 be 87 ab 0d bd
       0.08179609 -0.020723503 -0.14265154 -0.03458741
000040 50 46 68 3d b8 45 a6 bd 72 cb 4d 3b e4 eb 7e 3d
       0.05670768 -0.081187665 0.003140178 0.06223668
000050 55 a5 bc 3d 0e 7e 2f bd 57 6e 5c 3c 5b ec e1 3c
       0.09211222 -0.042844824 0.013454041 0.027578523
000060 61 9b ce bb 6f be 2d 3d ec 46 ce 3c ec e7 b1 bc
       -0.0063051437 0.04241794 0.025180303 -0.021717034
000070 38 b3 17 3d a1 95 ff 3c 59 14 b1 3d 61 d2 db 3c
       0.03703615 0.031199278 0.08646459 0.026833715
000080 55 10 a9 3d 4b bf cf 3c 68 b7 4e bd 2d 4d 11 3d
       0.08255068 0.02535977 -0.05046788 0.03547399
000090 02 df a5 bc 32 7c 28 3d 60 c4 33 bd 8b 57 a2 3d
       -0.02024794 0.041134067 -0.04388845 0.07926854
0000a0 38 3d 84 3d af 2b 2c 3c ef 52 21 bd 21 73 af bc
       0.06456989 0.010508462 -0.039385732 -0.021417202
0000b0 d2 b6 86 bd 7c 33 ab 3d c7 f2 6a bd 6b 1a 95 bc
       -0.06577839 0.08359429 -0.057360437 -0.018201074
0000c0 c4 f9 aa bc 13 f8 34 bb 07 40 89 3b 69 24 26 bd
       -0.02087105 -0.0027613684 0.004188541 -0.040562067
0000d0 e3 12 f9 bc 84 86 14 3d 5a 96 9d bd 23 5c 42 bd
       -0.030404514 0.036261097 -0.07694693 -0.04745115
0000e0 9f c4 29 bc c4 b4 95 bd 00 86 82 3a 98 ac 0a bc
       -0.0103618195 -0.07309869 0.0009958148 -0.008464001
0000f0 88 b0 a0 3d 21 84 87 bd 99 86 43 3d a7 ac c2 3d
       0.07846171 -0.066169985 0.047735784 0.09505587
000100 e4 2b aa 3d 53 4a ed 3d 43 3b 76 bc 97 12 02 bd
       0.08309153 0.11586442 -0.0150287775 -0.03175601
000110 1f f9 f0 b8 68 71 c5 bc 57 47 78 bc 5c e2 66 bd
       -0.00011490494 -0.024101928 -0.0151537275 -0.056368217
000120 27 59 d0 3d 20 2f 4d bd 82 b1 a0 bb bd 9a 1c bc
       0.101732545 -0.05009377 -0.004903973 -0.009558377
000130 fd c8 50 3d 84 f9 df bc 40 00 27 3d 1d 4c 17 bb
       0.050972927 -0.027340658 0.040771723 -0.0023086139
000140 90 80 9d 3d 7b cd a6 3d 62 31 17 bd cd 2c 9d bd
       0.07690537 0.08144661 -0.03691233 -0.07674561
000150 56 b2 18 bc 4d cd 16 3d 7a f7 5f bd f8 e8 94 bd
       -0.009319862 0.036816884 -0.05467937 -0.07270998
000160 62 aa 90 3c c2 e5 2b bd 50 32 d9 3c 59 96 97 bd
       0.01765937 -0.04196716 0.026513249 -0.074017234
000170 4a 5c e2 bc 32 42 e0 3d 15 3e 02 3d 8c 95 af bd
       -0.027631897 0.10950126 0.031797487 -0.08573446
000180 59 85 7d 3d 39 63 39 bc 55 0e b3 bc 98 56 6f bb
       0.06189475 -0.01131516 -0.02185742 -0.003652012
000190 4e 86 da 3c f1 e7 b5 bd 3f ae e2 3d c5 5e 05 3d
       0.02667537 -0.0888213 0.11068391 0.032561082
0001a0 a9 8d 7e 3d ba aa ae 3c 8f 11 38 3b 57 b3 c4 3c
       0.062146816 0.021321643 0.0028086638 0.024011297
0001b0 1a 51 26 bd f3 3d 66 bd a5 ba 92 3d 81 42 3e 3d
       -0.04060469 -0.056211423 0.07164506 0.04645014
0001c0 4a b6 f4 3d 82 9b cc 3d 38 0b 92 bd 49 69 82 3d
       0.119488314 0.09990598 -0.07131046 0.06367738
0001d0 9f b9 b2 bb 37 57 b7 bd 72 87 f0 3c 5d 50 ae bc
       -0.0054542567 -0.08952182 0.02936146 -0.021278555
0001e0 b2 4e 6d bd 9e d3 c6 3c 1e 81 72 3d d9 2a 13 bd
       -0.057936378 0.024270829 0.059205167 -0.035929535
0001f0 d0 b9 1c 3d 46 91 0f bd 66 89 d8 bc 99 bd eb bc
       0.038263142 -0.035050653 -0.026432704 -0.02877693
000200 68 99 59 bd 97 11 14 3d d6 29 49 bc 55 11 c8 bc
       -0.053124815 0.036149587 -0.012278041 -0.024422327
000210 c6 ee 6e 3c 27 1a 92 3d b4 a4 9f 3d ca 7a c4 bc
       0.014583295 0.071338944 0.077950865 -0.023984332
000220 0b 31 a2 ba 85 d2 86 3d 8a 64 37 3c 93 4f ce bc
       -0.0012374235 0.06583122 0.011193404 -0.025184428
000230 c8 c1 c1 bb f1 2f a9 3d 28 fa 87 bc 9c d5 e4 bd
       -0.005912993 0.08261097 -0.016598776 -0.11173555
000240 a2 64 d1 bb b6 a2 a8 3d 88 71 35 bd ba b6 82 3d
       -0.00639017 0.0823416 -0.044297725 0.063825086
000250 42 af 4c 3c 6e ec 10 bd 11 7c 84 3d 2a 4d c8 bc
       0.012492957 -0.035381727 0.06468976 -0.024450857
000260 4f a3 ad bd 2b 16 50 bd 1d a0 8a bd ec 1b 97 3c
       -0.08478414 -0.05080239 -0.067688204 0.018445931
000270 57 ec 81 bd 28 2d 5b 3c 63 27 51 bd 01 9c 9d 3d
       -0.063439064 0.013377465 -0.051062953 0.07695771
000280 89 75 5c bd 2a 4b 01 bd 5c b0 5d 3d bd 17 b4 bc
       -0.053823028 -0.031565823 0.054123268 -0.021983976
000290 33 a9 94 3c bd 1b c7 bd 5e 0c 8c bd 7b 91 e7 3c
       0.018147087 -0.097220875 -0.06838296 0.028267613
0002a0 23 74 63 bc 9a ce 49 3d 13 53 ec 3c 16 53 0a 3e
       -0.01388267 0.049269296 0.028848207 0.13508257
0002b0 0d d1 86 bd c3 f1 00 3d 47 58 ba 3c 6d 2a c0 3d
       -0.06582842 0.031480562 0.022747172 0.09383092
0002c0 26 14 09 3e f8 d8 1a 3c 67 a4 91 bd f4 88 df 3c
       0.13386592 0.009451143 -0.071114354 0.027286984
0002d0 1a 53 89 3d e1 7e 08 bd 37 bd 95 3c 66 ef 94 bd
       0.067053035 -0.033324126 0.018278701 -0.07272224
0002e0 ca 4b 2a 3c df f7 a3 bd ed e4 24 3b 00 8e a8 bd
       0.010394046 -0.08006262 0.0025160864 -0.08230209
0002f0 f9 17 d1 bd 71 18 87 3d 5a 09 6c bc 4c e7 c6 bd
       -0.102096505 0.06596459 -0.014406526 -0.09712085
000300 ec e0 b5 3d 95 95 2f bc 34 08 2e 3d fb 46 64 3d
       0.08880791 -0.0107168155 0.04248829 0.055731755
000310 b9 47 74 3d b7 75 26 bd cf 62 08 3e d2 a5 b7 3d
       0.059638713 -0.040639605 0.13318942 0.089671746
000320 14 ce 34 bc da ca 93 3c a1 24 cf 3c ce b3 86 3d
       -0.011035461 0.018041063 0.02528602 0.06577264
000330 e9 11 af 3c 66 c3 95 3d c1 ce f6 3d 05 58 f0 3d
       0.021370845 0.0731266 0.12051154 0.117355384
000340 29 cf 84 3d 91 3a 00 3e ec e9 2e 3d e8 a4 42 3d
       0.06484825 0.12522341 0.042703554 0.047520548
000350 32 83 cf 3c 9c 2a e8 3d 3d d8 ac 3d 8d a7 f7 3d
       0.025331113 0.11336252 0.08439682 0.12092505
000360 22 10 0d 3c 07 99 d6 bc 11 9b 80 3b 70 8d 08 bd
       0.008609803 -0.026196016 0.0039247354 -0.03333801
000370 17 c6 1b 3d 8f 22 bb 3d 87 49 13 3d 12 02 2b 3d
       0.03803071 0.09137451 0.035958793 0.04175002
000380 fb bc 99 bb fc 26 46 bc 1a 46 2d bc 72 ba 26 3d
       -0.0046917177 -0.012094256 -0.010575796 0.04070515
000390 2a 07 a0 bc 1b a1 86 3d 81 73 af 3d a8 a8 96 bc
       -0.019534666 0.06573697 0.085669525 -0.018390968
0003a0 25 ba 83 3d ec 3f af bd 1d 4e a8 3d a8 d8 d7 bc
       0.064319886 -0.08557114 0.08218024 -0.026348427
0003b0 6a a8 54 3d 5e e3 18 bd 93 6c 06 3e 9a b0 78 bc
       0.051918425 -0.03732621 0.13127355 -0.015178824
0003c0 2c 7e a4 3c 9d 41 83 3c 86 20 98 3d 66 27 f6 3c
       0.020079695 0.016022498 0.07428078 0.030048084
0003d0 b1 50 3b 3d d4 c9 41 3d f5 22 9b 3d 7b bf 33 bc
       0.04573125 0.04731162 0.07575027 -0.0109709455
0003e0 19 63 77 3c 1d 4a 79 bd d8 af f5 3b 77 a8 0a bc
       0.01509931 -0.060861696 0.007497769 -0.008463017
0003f0 64 a5 a2 3d 39 d8 f5 3d 47 ab 3f 3b c4 7f 90 3d
       0.07941702 0.12004132 0.0029246376 0.07055619

conv3.bias f4 [128]
000000 49 aa 22 3d 9d 31 af 3d 59 66 f5 3d c5 cf d2 3d
       0.039713178 0.08554385 0.11982412 0.10293535
000010 52 e0 b8 3c 3a 5e 3b 3d 3b 3e 70 3d 18 43 93 bd
       0.022567902 0.04574416 0.058653098 -0.071905315
000020 8d c9 de 3d 92 e1 2b 3c c1 b0 90 3d d2 83 a0 bc
       0.108782865 0.010490792 0.07064963 -0.019594107
000030 23 61 da 3d dc f0 ad 3c 19 d5 3a 3d a8 1d 10 3e
       0.106630586 0.021233015 0.045613382 0.14073813
000040 8f a6 a4 3d 9e 48 8a 3d d6 2b bb 3d 87 1f df 3d
       0.08039581 0.06752132 0.091392204 0.10894685
000050 88 78 0a 3e 12 3a 0d 3e 7a 44 89 3d c7 97 13 3e
       0.13522542 0.13791683 0.06702514 0.14413367
000060 5e d5 36 3d 27 98 95 3c 99 d3 01 3e ca a9 a2 bc
       0.044637077 0.018261028 0.12678374 -0.019856352
000070 66 45 95 3d 8e 89 6b bc ad 14 5e 3d 10 16 78 3d
       0.07288627 -0.014376057 0.054218937 0.060567915
000080 21 07 cb 3d 29 d3 05 3c 1f 97 ba 3d 56 ed 34 3d
       0.09913469 0.00816802 0.09110855 0.044171654
000090 2e 57 11 3e f6 a2 32 bd 08 7b b7 bc eb ad 14 3d
       0.14193413 -0.043612443 -0.022397533 0.036298674
0000a0 ce 24 19 3e c1 56 e1 bb d0 58 b5 bc ee 1a 07 3c
       0.14955446 -0.006876797 -0.022137076 0.008246167
0000b0 b8 28 c2 3c ab 52 12 3d eb d3 a7 bb 0e 56 6f 3c
       0.023701057 0.03572337 -0.005121698 0.014607919
0000c0 ac b4 3b 3b ab f2 3f 3d ab 1e 29 3d eb b4 d0 ba
       0.0028641624 0.046862286 0.041289013 -0.0015923058
0000d0 cf bc d0 3d 15 26 48 3d 93 b0 b2 3d a1 77 87 3c
       0.101922624 0.048864443 0.08725085 0.016536536
0000e0 d6 60 e9 3d d9 c2 a5 3d 7c e6 93 3b 86 45 04 3e
       0.11395423 0.08093805 0.00451356 0.12917146
0000f0 a7 e9 45 3d a7 fe 3a 3d 60 30 99 3c fb bc 08 3e
       0.04831853 0.04565301 0.018699825 0.1335334
000100 63 ab 42 3d e8 43 63 3c ae bf c9 3d cb 15 8f 3d
       0.04752673 0.013871171 0.09851013 0.069865786
000110 e7 59 34 3d b8 7b 86 3d c2 db 40 3d 8d 96 8d 3d
       0.04403105 0.06566566 0.047084577 0.06913481
000120 e3 f2 9a 3d 5b a5 35 bd f2 ed f8 3d 08 7a e0 bc
       0.07565858 -0.04434715 0.121547595 -0.027401939
000130 00 77 cd 3d 4c 42 09 bc 05 00 70 ba 76 f1 f0 3d
       0.10032463 -0.008377623 -0.00091552763 0.11764805
000140 3e 6d 5f bd f6 c9 c3 3d 5b 11 2d 3d 32 16 78 3d
       -0.05454754 0.09560005 0.04225288 0.060568042
000150 e1 73 d8 3c 92 84 3a bb d9 74 b9 bc 41 72 ad 3d
       0.026422443 -0.0028460366 -0.022638725 0.08469058
000160 1f b2 ba 3c 77 9c 3c 3d 6f 15 3e 3d 37 0a d8 3d
       0.022790013 0.046047654 0.04640716 0.10548823
000170 a3 2e df bd 37 92 77 3d 28 b7 4c bc 87 79 f8 3d
       -0.10897567 0.060442176 -0.01249484 0.121325545
000180 39 b1 3b 3d 35 f4 85 3d 30 50 e1 3d e2 f6 20 3d
       0.04582331 0.065407194 0.11001623 0.039297946
000190 14 c0 2b 3e c0 9d 01 3e 56 53 c8 bb 12 4d bf 3d
       0.1677249 0.12657833 -0.00611345 0.09340872
0001a0 bc 99 00 3e 3b de 95 3d 69 03 4c 3c 83 f7 62 3c
       0.12558645 0.07317778 0.012451985 0.013852957
0001b0 27 fe 01 3d 92 fb 0c 3c fd fe ce 3c 0d e8 82 3d
       0.03173652 0.008604901 0.025268072 0.063919164
0001c0 f8 4c da 3d 41 7d 1e 3d 81 7c b0 3d 4a fa 47 3d
       0.10659212 0.03869367 0.08617497 0.04882268
0001d0 06 fe 93 3d 3b 0b f4 bd b6 07 00 3c e7 01 90 3d
       0.072261855 -0.119162045 0.007814338 0.07031613
0001e0 3f ed ed 3d e3 4e 3e 3d 52 d6 c6 3d 9f 7a d7 3d
       0.11617517 0.04646195 0.09708847 0.10521435
0001f0 ae 16 a5 3d 58 70 8f 3d dd 1e 12 3e 12 7d ff 3c
       0.080609664 0.0700385 0.14269586 0.031187568

se.fc.0.weight f4 [8, 128]
000000 9d 8f 80 3d ae 36 a6 bc c3 46 92 3c a3 7a 86 3d
       0.06277392 -0.020289745 0.017856007 0.0656636
000010 6e 3d f4 39 2b 58 10 3c 78 b5 91 3d db 29 8f 3d
       0.00046585075 0.008810083 0.071146905 0.06990405
000020 50 f0 7e 3d 2e 4b 77 3d d4 b4 01 bd be e8 38 3d
       0.0622409 0.06037443 -0.03166659 0.045143835
000030 44 6e 4c bd c6 41 9a 3c 67 7d 2f 3d 2f 80 84 3c
       -0.049909845 0.018830191 0.042844202 0.016174404
000040 62 b7 c6 3d f9 58 bb 3b 27 ad 83 3d 02 69 b7 3d
       0.09702946 0.0057173935 0.064295106 0.089555755
000050 31 bd 0f 3d 5c 14 3a bd 71 7c 0a 3d ee 6b 3f bd
       0.035092536 -0.045429572 0.033810083 -0.04673379
000060 44 f0 21 3d fa 83 f7 ba a9 94 e6 3c 82 07 c9 b8
       0.039535776 -0.0018883937 0.028147059 -9.585825e-05
000070 38 9a 73 bd 06 e4 9a 3d b7 ca de 3c 9f a2 15 3d
       -0.059473246 0.07563023 0.027196271 0.03653204
000080 97 5e 87 bc ae f9 21 3c dd 50 60 bc 8e 02 68 3b
       -0.016524596 0.009886188 -0.013691154 0.0035401913
000090 a1 9d 43 bc ef f2 64 3d a7 3e de 3b f4 32 2a 3b
       -0.011939437 0.055895742 0.006782371 0.0025970312
0000a0 5e 57 ce b9 1a 8a ac a1 36 bf d0 3c 0b 25 2b 3d
       -0.00039356475 -1.1691729e-18 0.025481801 0.041783374
0000b0 d2 12 a1 3c 7b 18 d9 bc 1f 76 ab bd 36 77 67 bc
       0.019662295 -0.026500931 -0.08372139 -0.014127543
0000c0 44 35 b1 3d e8 8c cb 3c 89 bf 10 3d c6 2f d7 bb
       0.08652738 0.024847463 0.035338912 -0.0065669743
0000d0 58 99 51 bd 4f 98 36 3d 55 ab f2 bc a2 3e 56 3d
       -0.05117163 0.044578847 -0.029622713 0.052305825
0000e0 28 7a 4b bc 92 fe a9 3d 77 5f 7c 3d 59 59 84 bc
       -0.012419261 0.083005086 0.06161448 -0.016155886
0000f0 64 05 84 bd 72 11 88 bd 2e ec 32 bd 75 ef be bc
       -0.06446341 -0.066439524 -0.04368227 -0.023307541
000100 f5 f2 c4 bc 4c b5 5d 3d c2 96 49 3d 85 22 33 3d
       -0.024041632 0.054127976 0.04921604 0.043734092
000110 eb ff dc 3c 3a c4 02 bc ed 0d 46 bd 40 a3 83 3d
       0.0269775 -0.007981354 -0.048353124 0.06427622
000120 50 27 18 bd d5 31 78 bd a3 d2 fb 3c 7e fd 2e bc
       -0.037146866 -0.0605944 0.030740088 -0.010680554
000130 9e 26 79 bd 02 8d 06 3d 09 37 22 3d 09 18 70 3c
       -0.060827844 0.03284932 0.039603267 0.014654168
000140 c6 af 3a bc 9e 5a b5 bc 2b 40 9a 3d f0 06 32 bd
       -0.011394447 -0.022137936 0.0753177 -0.043463647
000150 42 ef 17 bc df 7c cb bc 4a 27 76 3d 5d 0e 35 3c
       -0.009273352 -0.024839817 0.060096063 0.011050788
000160 46 82 29 bc 74 5c 89 3d d4 e5 8e 3d 23 7c 8e 3d
       -0.010346001 0.06707087 0.0697743 0.06957271
000170 a0 0f b5 bd 69 58 ee 3c 5b ee 54 b4 8b f2 7c bd
       -0.08840871 0.029094892 -1.9830752e-07 -0.061754744
000180 e2 e3 c9 3d f0 b5 55 3d 0a 1f 4f 3d 29 31 93 bd
       0.09857918 0.052175462 0.05056671 -0.07187111
000190 e4 fe 97 3b 54 2d 16 bd 50 46 61 bd cc a6 8a bd
       0.0046385396 -0.036664322 -0.054998696 -0.06770095
0001a0 da 21 9f bb 12 5d 1a 3c 25 3a 8e 3d 13 31 7f 3d
       -0.0048563303 0.009421604 0.06944684 0.06230266
0001b0 5d 3c 7d bc 27 24 08 3e f5 9b 30 bc ef 3c 36 bd
       -0.015456286 0.13295041 -0.010779371 -0.044491705
0001c0 f0 94 22 3d 70 2f 9d 3d c4 2c 0b bd 63 74 ed 3c
       0.03969282 0.076750636 -0.03397824 0.028986162
0001d0 42 d0 7d 3d ff bd 03 be ee b8 69 bd 1f 58 a2 bd
       0.06196619 -0.12865447 -0.05706113 -0.07926964
0001e0 f4 a5 27 3d 8b 7d 39 bc 88 99 87 3d 7d 50 70 3d
       0.04092975 -0.011321436 0.06621081 0.05867051
0001f0 7e c0 33 bd 38 2e a4 bb 5e 13 ff 3c 04 ea b8 3c
       -0.043884747 -0.0050103925 0.031137165 0.022572525
000200 84 15 9e 3a 3a 04 80 3d d3 69 00 3d 01 70 06 3d
       0.0012060856 0.06250806 0.03135092 0.03282166
000210 87 f0 7c 37 27 8c d9 3d 74 f4 1f 3c 23 8f 1f 3e
       1.5076373e-05 0.10622435 0.009762872 0.15581946
000220 dc dc 99 3d 86 6a 3a bd c4 ef a8 3d be b9 8d ba
       0.07512829 -0.045511745 0.08248857 -0.0010812802
000230 ad 96 bb 3d 2e e3 cc 3d b5 f3 83 bd 33 62 f0 3c
       0.091595985 0.100042686 -0.06442968 0.0293437
000240 69 60 eb bb d0 94 dd 3d 71 9d 0c 3d 13 e9 36 3d
       -0.007183124 0.10819399 0.034329835 0.04465587
000250 74 8e eb 3d 2b b7 05 3d 87 23 c1 3c 94 25 bd bd
       0.1150178 0.032645386 0.023576511 -0.09235683
000260 57 90 81 3d 9c df 97 3d 4b 4c 6f 3d fc ce 42 3a
       0.06326359 0.07415697 0.058422368 0.0007431356
000270 04 70 cd 3b e6 98 19 bc 50 22 c3 3d 82 2a d0 3d
       0.006269457 -0.009374833 0.09528029 0.10164358
000280 23 83 70 3d 6c 74 83 bb ef a4 07 3e 3d ee 5b 3d
       0.05871881 -0.0040116813 0.13246511 0.053694
000290 7f fe 2d 3d 98 d5 01 3e 12 ff 8f 32 f7 22 a3 3c
       0.042479035 0.12679136 1.6763384e-08 0.019914133
0002a0 83 e4 1c 3c a8 52 65 9f d1 79 fd ba 08 6f 31 bd
       0.009575966 -4.8561008e-20 -0.0019338672 -0.04331878
0002b0 1f 9e ef 3a 1c a2 13 3e 8a bc bd 3d 23 46 9c 3c
       0.0018281377 0.14417309 0.092644766 0.019076413
0002c0 35 c3 d0 3d e9 23 85 3d f5 c4 14 bb 8b cd bf 3c
       0.10193483 0.0650099 -0.0022700403 0.02341344
0002d0 11 2b 01 bd 92 1d 3f bc 39 56 5a 3d 16 0a f6 3c
       -0.031535212 -0.011664765 0.053304885 0.030034106
0002e0 ce 78 a8 3d c0 38 91 3d a2 45 33 bd 12 19 7a bd
       0.08226167 0.07090902 -0.04376758 -0.061059065
0002f0 62 bf 1a bd 0b 7c 44 3a 16 54 b3 3d 3b fe 58 3d
       -0.037780173 0.00074952905 0.087562725 0.052976828
000300 10 a2 dc 3d 9f 29 ee 3d e3 7c e8 3d 97 cc 5c 3d
       0.107730985 0.11629032 0.11351945 0.05390605
000310 19 2c 48 bb 26 d1 c7 3d 37 93 03 3e 45 58 d8 3d
       -0.0030543862 0.09756689 0.12849127 0.10563711
000320 ae c1 d2 3d c9 ad 32 3e c6 06 54 3d e0 76 ae 3d
       0.10290848 0.17449106 0.051764272 0.08518767
000330 eb 5b d8 3c 31 61 b4 bd f2 fa 86 bc 89 be 72 3b
       0.026411017 -0.088076 -0.016477082 0.0037039837
000340 7a 89 9a 3d 8b 1e 9c 3c 6b e9 b4 3d e0 9e 37 bd
       0.07545753 0.019057533 0.088335834 -0.04482925
000350 f4 61 f6 bc 78 b2 89 bd 17 d2 0a 3e b3 fb 06 bd
       -0.030076005 -0.06723493 0.13556705 -0.032954883
000360 c5 2a ba bc e0 ba 3a 3d 17 a0 a4 3d fb 07 d1 bc
       -0.022725472 0.045588374 0.08038347 -0.0255165
000370 f4 66 23 3e 76 a2 cd 3a 45 eb 7c b6 2a a0 bc bc
       0.15957242 0.0015688676 -3.768787e-06 -0.02302559
000380 d3 43 ae 3c a4 12 d4 3c 20 b6 5d bc 7a 1e fb 3c
       0.021272575 0.025887795 -0.0135321915 0.03065418
000390 78 f0 d9 3d 4d 1a ae bc f4 72 e4 3d 6b 03 f5 3c
       0.10641569 -0.021252776 0.11154738 0.029908856
0003a0 99 eb 98 3d 07 a6 4b bd aa ad 63 3d 99 f3 d9 3b
       0.07466812 -0.049718883 0.05558554 0.0066513536
0003b0 da 89 1f bd ea 9d 64 bd 67 7b e2 3d 01 d5 08 3b
       -0.038949825 -0.05581466 0.110586934 0.0020878913
0003c0 40 3d a1 3d 52 4d 8a bd ed 49 41 3d 68 e1 d7 3d
       0.07873011 -0.06753029 0.04718964 0.1054104
0003d0 93 14 a8 3d 06 3e 1d 3e ef 4e 80 3d 70 b9 b4 3d
       0.08207049 0.15355691 0.062650554 0.08824432
0003e0 3f 5d cc 3d 9d 83 94 bc be 2f f0 bc 94 a4 23 3d
       0.09978723 -0.018129164 -0.02931964 0.039951876
0003f0 d8 03 c2 b9 5a 7f 25 bd 8b cb b5 3d 11 eb 9c bc
       -0.00037005427 -0.040404655 0.08876713 -0.019155057

se.fc.0.bias f4 [8]
000000 d6 82 d1 3d c7 c1 ef 3c d0 45 1f bd d5 72 6f 3d
       0.10230033 0.029267205 -0.038884938 0.05845912
000010 13 6a 36 bc 02 d5 bf 3d 07 fa 26 bc 6c d1 05 bb
       -0.0111336885 0.093668 -0.010191447 -0.0020419015

se.fc.2.weight f4 [128, 8]
000000 88 a0 fb 3c 92 b9 bf 3e 69 aa 0a be f4 5d 44 3e
       0.030716196 0.37446266 -0.13541569 0.19176465
000010 96 a1 54 23 f9 30 66 be 4c be e6 3d a8 5d 87 ba
       1.152676e-17 -0.22479619 0.11266765 -0.0010327594
000020 94 e3 3c be a0 fc 84 be 1e 5a b1 3e 75 e7 63 3e
       -0.18446189 -0.25973988 0.34639066 0.22256263
000030 1f 2f 46 a0 d4 1a 4a be f5 fe 03 3e 0a 5b a7 39
       -1.6786843e-19 -0.19736797 0.12890227 0.00031920552
000040 62 73 45 3d 23 f9 9b be 5c 1d 23 3c 68 a3 50 bd
       0.04820574 -0.30463514 0.00995573 -0.050937086
000050 0d e8 bf 37 16 6d 86 3e fe e2 c4 3d f3 6e 03 23
       2.2877031e-05 0.262551 0.09613608 7.125019e-18
000060 09 3e f1 3d 11 32 c3 3c 4e 21 10 be 47 34 b1 3e
       0.117794104 0.023827584 -0.14075205 0.34610197
000070 53 63 ad 34 35 a7 39 3e 18 f1 7d 3c 8e 55 10 b9
       3.229603e-07 0.1813019 0.015499376 -0.00013764782
000080 a9 62 03 bc 2d 57 17 3d 70 aa 65 b8 13 85 f4 b5
       -0.008019128 0.03694837 -5.4756587e-05 -1.8218146e-06
000090 4c 78 02 3b 81 50 20 bb f5 aa 8f 29 7f 4f b7 33
       0.0019908128 -0.0024462047 6.380132e-14 8.536062e-08
0000a0 b8 38 77 3e 48 fc 75 be f9 7c a4 be b7 f5 1a be
       0.2414273 -0.24022019 -0.32126597 -0.15132795
0000b0 ff 3a 5a b3 a8 b2 9d be a7 7c a4 bd 0b fc 94 aa
       -5.0810737e-08 -0.30800366 -0.08031588 -2.646497e-13
0000c0 d6 f4 14 bd c0 e1 63 3e b8 f7 60 be b5 c9 0e be
       -0.036366306 0.22254086 -0.21969497 -0.13944133
0000d0 97 a3 4c bb ac 5c 58 3d 4c 03 99 be cf 87 42 bb
       -0.0031225437 0.052822754 -0.29885328 -0.0029683
0000e0 05 01 fb 3c d7 3f b4 be 84 07 ad 3d 58 74 62 be
       0.030640135 -0.35204956 0.08448699 -0.22114694
0000f0 9b 49 c6 ad f5 97 50 3e 8f fe b0 3d 2a 2f d6 ad
       -2.2542681e-11 0.20370467 0.08642303 -2.4349928e-11
000100 c9 4d 65 be e0 be 64 be 53 2a ab 3e 03 4f d9 bb
       -0.22392954 -0.22338438 0.33430728 -0.0066317334
000110 ea 2b 0f 39 46 02 91 be b2 a7 af 3d c9 54 46 22
       0.00013653902 -0.28322047 0.08576907 2.6878889e-18
000120 17 c8 44 3e 0c 65 65 be 20 50 ad 3d 5d 79 53 be
       0.19216953 -0.22401828 0.08462548 -0.20651765
000130 6d 97 d3 a5 f4 93 8a be c0 29 7f 3d ff 3a d2 3b
       -3.6705275e-16 -0.27066004 0.062295675 0.0064157243
000140 9c 23 3d 3e 34 79 35 be 65 e4 cf bd 36 7c 8a be
       0.18470615 -0.17722017 -0.10150985 -0.2704789
000150 0b 4b 2c 39 37 94 4b bd 90 1a 92 3d 05 8f 4b bb
       0.00016431154 -0.049701896 0.07133973 -0.0031060588
000160 08 68 e3 3c b9 a8 dc 3c 07 5c 65 b2 26 ff 56 3c
       0.027759567 0.026935922 -1.3350479e-08 0.013122356
000170 2b d9 9a 38 77 2b b4 bb 81 b5 36 9f c9 a9 24 ba
       7.383743e-05 -0.0054983455 -3.8690136e-20 -0.00062814035
000180 1d b4 dc 3d ee e2 9e be e8 65 06 3d 79 94 1b 3e
       0.107765414 -0.3103251 0.03281203 0.15193357
000190 71 2a e5 37 85 11 d8 bc cf 53 b9 3d ef ff 67 31
       2.731869e-05 -0.026375541 0.09049188 3.3760406e-09
0001a0 de 61 97 3e 73 9b ba 3e 38 4c a0 3e e8 e7 4f be
       0.29566854 0.36446723 0.3130815 -0.20303309
0001b0 47 ff 76 21 ac 87 a5 be 14 44 f1 3d 9c 02 73 37
       8.36859e-19 -0.32330072 0.11780563 1.4484536e-05
0001c0 32 ce 40 3e 30 e9 97 3d d7 c3 93 be d9 30 d8 bd
       0.18828657 0.07417524 -0.2886035 -0.10556192
0001d0 41 16 0c a8 d0 4c b5 3e a9 2b d1 bd 91 ab 8b a0
       -7.776387e-15 0.35410166 -0.10213406 -2.366105e-19
0001e0 3a 73 43 3e 8f 30 af bd d6 42 58 3d c6 12 ac bd
       0.19086924 -0.08554184 0.052798115 -0.08402018
0001f0 32 38 c9 bb 08 62 26 3e 66 ad ac bc a1 83 7a 3a
       -0.006140732 0.16248333 -0.021078777 0.00095563574
000200 20 2a b7 3d d6 d5 8b bd 87 c5 88 3d 17 ed 34 be
       0.089435816 -0.06827895 0.066783 -0.17668568
000210 8a 83 d8 32 31 c5 83 3e 0b fd 97 bb 50 ca aa bb
       2.5205527e-08 0.25736383 -0.0046383194 -0.005212106
000220 97 02 43 be 4a 5d d0 bd 65 cb 8b 3e a6 72 3e bd
       -0.19043957 -0.101740435 0.27303615 -0.046496056
000230 53 32 bd 38 71 38 8d bd 6c c1 0b bd ce fd 03 36
       9.021596e-05 -0.06895531 -0.03412001 1.9668255e-06
000240 d2 80 9a be dd e5 93 bd af f3 a2 3e de bc b4 3d
       -0.30176407 -0.07221577 0.3182654 0.08825086
000250 7e 93 62 b7 f8 10 89 3e c3 82 bb 3d 5f 9b bf ba
       -1.350499e-05 0.2677076 0.091558 -0.0014618448
000260 c4 9b 20 3e 47 e8 9c be d7 86 5e 3c 99 e9 26 be
       0.1568442 -0.30645964 0.013581953 -0.16300048
000270 b0 3d 1b ba f7 1e 40 be 43 e7 5e bb e7 5f 40 3a
       -0.0005921973 -0.18761812 -0.0034012354 0.00073385093
000280 eb b2 63 3e 25 fc ec bd 24 fe b0 be f7 79 1b bd
       0.2223622 -0.1157153 -0.34568894 -0.03795811
000290 6b 4b a1 ad 8e 13 72 bc 79 de 8f 3e 91 29 c9 b8
       -1.8337073e-11 -0.01477517 0.2809942 -9.592169e-05
0002a0 8b 9c 95 be 29 85 9c 3d eb 28 8b bc c1 3e 52 3d
       -0.29220995 0.07642586 -0.016987285 0.051329378
0002b0 40 49 89 21 8c 6a 1d 3e a8 fc 24 3c 7b b8 ae 39
       9.30287e-19 0.15372676 0.010070004 0.00033325315
0002c0 df 88 ce bd 06 a5 f6 bd 22 2e 9a be 98 ce 09 3e
       -0.100847 -0.120431945 -0.30113322 0.13457716
0002d0 90 76 51 a0 7b af ac 3e d9 97 d2 3d 02 54 ad 34
       -1.7742218e-19 0.3372763 0.10282869 3.2284885e-07
0002e0 31 67 95 3e 7e c0 48 bc 6e 64 0c be 88 e3 9d 3e
       0.2918029 -0.012252925 -0.13710186 0.30837655
0002f0 0f 43 2d 27 7d ea b4 3e e9 6f 6f bd 27 b9 d2 ba
       2.4044925e-15 0.3533515 -0.058456335 -0.0016076908
000300 66 af 62 3e d4 e7 0f 3e ea 80 37 3e 87 73 23 be
       0.22137222 0.14053279 0.1792027 -0.15962039
000310 ea c4 9f b1 0a 66 3a 3e ea d9 00 bc 2a 1d ac bb
       -4.6498956e-09 0.18202987 -0.007864455 -0.0052525
000320 3f 52 45 3e 89 73 79 3e a1 ab 5a 3e 29 b4 77 3e
       0.19269656 0.2436048 0.21354534 0.2418982
000330 6a 05 19 a0 d4 2b 87 3e d0 fb f5 a6 a7 e7 af ac
       -1.2961395e-19 0.26400626 -1.7068544e-15 -4.9995177e-12
000340 02 2d d1 bd 7a 95 f5 ba a4 fe 94 3e ce db 17 be
       -0.10213663 -0.0018736564 0.29100525 -0.14829943
000350 15 0f e5 3a a1 51 b3 3e d9 35 cd b6 fc 06 46 25
       0.0017475808 0.35023215 -6.115745e-06 1.7176129e-16
000360 43 2e 27 bb 7f ce 97 3a a7 70 b8 b8 1f 9e 3b ba
       -0.0025509752 0.0011581926 -8.794787e-05 -0.0007157046
000370 e4 35 43 3a b8 99 e1 b9 e7 58 b2 b9 3c ae 2a 26
       0.000744669 -0.00043029874 -0.00034017043 5.921673e-16
000380 8b ea 8c 3e 98 94 49 bc 33 19 73 bd dd cf 53 bd
       0.27522692 -0.012303494 -0.059350204 -0.051711906
000390 63 67 43 b0 e9 13 20 3e ab e4 88 be e4 e6 54 34
       -7.108751e-10 0.15632595 -0.2673696 1.9828036e-07
0003a0 d8 54 1e 3e 49 f1 ea 3c de 89 01 3e c3 51 e3 3d
       0.15462053 0.028679507 0.12650248 0.11099579
0003b0 5d 22 90 39 96 11 6b 3d e5 01 e0 bb f3 56 e0 bb
       0.00027491423 0.057389818 -0.0068361633 -0.0068463027
0003c0 6c ae 2a 3e 25 88 05 3e 9c 98 78 3d 0b 91 13 3d
       0.16668099 0.13040216 0.060692415 0.036026996
0003d0 35 00 83 38 36 a1 02 3d 58 c1 53 3d c2 cd bf 20
       6.246605e-05 0.031892024 0.05169806 3.2492818e-19
0003e0 50 34 26 3e 0c ce 39 be ba 08 23 3e 13 30 ac be
       0.16230893 -0.18145007 0.15921298 -0.33630428
0003f0 ba 75 08 b0 34 8e a0 3e 41 09 29 3e 3c 4a 80 b8
       -4.964381e-10 0.31358492 0.16507436 -6.117343e-05
