checkpoints/best_model.pth (torch, 227061 bytes, 23 tensors)

conv1.weight f4 [32, 1, 5]
00000000: c103 9c3e f748 943e 1e48 65be 0b80 a33e
00000010: 0559 cabe 40df a3bd aa16 a6be eedb 873e
00000020: 12f5 d13e ffb7 9cbe 8bb8 e23e b928 073d
00000030: fcce da3d 1eab 6a3e 4d44 8f3e f6a0 fabd
00000040: a6ef 9f3e b144 993b 9e48 94be 9a59 fe3d
00000050: cd02 c2be e5ff 833c 9e9e 6dbe af74 993e
00000060: 850d b2be 8205 89be b928 86be 43cc 6fbd
00000070: 9136 2cbe e9db 9ebe 2083 b73e ec9f 0dbf
00000080: 855e 873e 610f a53d b307 0abe 5c8a 7f3e
00000090: c65d cfbd 0cb3 c43d 991a 81bd 6898 d1be
000000a0: 6142 2f3e 3a29 8cbe a5ac b83d e609 c73e
000000b0: 3d6a 693e d00f 72be 7c18 873e 5bce 1f3d
000000c0: d8da 813e 3171 a9be c094 d6be 1db1 51be
000000d0: b901 3ebe 555b d13e 7c38 943e ca35 743e
000000e0: fe09 083e 9a1b 48bd 3fc3 223e b1f9 f5be
000000f0: 9527 383d 1c32 f4be 43eb f43d d6d8 05be
00000100: 5eb0 da3d cbc7 f0bc b6cd c13e 8d22 77be
00000110: a1c6 cabe 3308 80be 86ac c53e a888 063e
00000120: 4ecd dc3e 46b7 e3be 4119 ecbe 13a1 d2be
00000130: bccd 9fbe 7b95 413e f7f3 3e3e fc6d b83e
00000140: 47c0 adbe 6956 6cbe 8e23 933e 850f 89be
00000150: 9c22 673e c32c 2abd 79b8 723e 2ad6 adbe
00000160: 4546 5fbe 216e 913e 02d0 f53d 959c 0fbe
00000170: c7b9 3b3e 03f6 653e 208b f4be 8920 84be
00000180: ab72 ce3e af57 0bbe 20c9 14be 2560 06bf
00000190: c81b bbbe b080 273e 001c 4abd d4a7 d3be
000001a0: 63a3 113d 5fb8 98be 65a4 98be 85a7 4fbe
000001b0: 0bc4 91be 6af5 3abe d7b0 fb3e f9be fe3d
000001c0: d96d cd3d 5d9d e3be 3a89 97be e425 81be
000001d0: 6380 ca3d 5b4f a1be 963e 9dbe a970 7abe
000001e0: c917 00be c306 e8bd 0438 3cbe f231 90be
000001f0: ac3d 7ebe 8e1b 96be 603e 88be 2b58 a8be
00000200: c82b c03e d703 95bc 803a b23e 3849 9f3b
00000210: c776 08bf ca36 803e c599 e3bd 45a8 1dbd
00000220: e21f fcbe baed cdbe e034 343e 4976 35be
00000230: 6c76 233e 87ec b8be 5127 c13e 459f aebe
00000240: 38e3 65bd ee0d 233e 7e0b 513e db90 363e
00000250: a64d 023e 5d00 1ebf 3eb8 d33d 48b4 4cbe
00000260: 012a 93bd b496 b0be 7310 eb3e b762 c3be
00000270: 8ab6 813e 8346 153e b451 fd3d 8007 98be
0.30471614 0.28961918 -0.22390792 0.31933627 -0.39521042 -0.08001566 -0.32439166 0.2653498
0.41007286 -0.30609128 0.4428142 0.03299782 0.106840104 0.22916839 0.27981797 -0.12237732
0.31237525 0.004677378 -0.28961653 0.12419434 -0.37892762 0.016113231 -0.23205039 0.29971835
-0.3477594 -0.26762015 -0.26202944 -0.05854441 -0.1681769 -0.31027153 0.35842228 -0.55322146
0.264393 0.08059574 -0.134795 0.24955124 -0.10125308 0.09604463 -0.06303901 -0.4093659
0.17115165 -0.27375203 0.09017304 0.3887474 0.22794433 -0.23638844 0.26385868 0.039015155
0.25362277 -0.3309417 -0.41910362 -0.2047772 -0.18555345 0.40889993 0.28949344 0.23848644
0.13285062 -0.048854448 0.15894793 -0.48042062 0.044959623 -0.4769448 0.11958935 -0.13070998
0.106781706 -0.029392144 0.37852257 -0.24134274 -0.39604667 -0.25006256 0.38608187 0.13138068
0.43125385 -0.44475764 -0.46113017 -0.41138515 -0.3121165 0.18904679 0.18647753 0.3602141
-0.33935758 -0.23079838 0.28738064 -0.26769653 0.22571796 -0.041546594 0.23703183 -0.33952457
-0.2180415 0.28404334 0.12002565 -0.14024575 0.18332587 0.22457127 -0.47762394 -0.25806072
0.4032186 -0.13607667 -0.14529848 -0.52490455 -0.36544633 0.16357684 -0.04934311 -0.4133898
0.03555621 -0.29828164 -0.29812923 -0.20278747 -0.2846988 -0.1825768 0.49158356 0.12438769
0.100307174 -0.44455996 -0.29596883 -0.2522422 0.09887769 -0.31505856 -0.30711812 -0.24457039
-0.12509073 -0.11329415 -0.18380743 -0.28163105 -0.24828213 -0.29317898 -0.26610088 -0.32879767
0.37533402 -0.018190308 0.34810257 0.0048610233 -0.5330624 0.250418 -0.111133136 -0.038490552
-0.49243075 -0.40220433 0.17598295 -0.17720903 0.15963143 -0.36117956 0.3772531 -0.34105888
-0.056124896 0.15923283 0.2041454 0.17828695 0.12724933 -0.61719304 0.10337876 -0.19990647
-0.07185746 -0.34489977 0.45910987 -0.3816125 0.2533458 0.1457768 0.12369099 -0.29693222

conv1.bias f4 [32]
00000000: 48bf ef39 06d5 8c3a 1d9b c238 af1d 24bb
00000010: 19e7 1cbb 3e91 96b9 9037 2dbb 8c90 6a3a
00000020: c52f 013b 4d69 25bb c4c2 5ebb abe4 1aba
00000030: 9688 b7ba ad83 163b 247b 923a 5ccc fd39
00000040: 03db 173b 20ce b83a 2706 f1ba 1b51 7e3b
00000050: 9b74 aebb 374a c63a 7439 8a3a 71a7 b8b9
00000060: 8962 353b 783c 623b 7a00 5639 7171 bd3a
00000070: 9c20 91ba 0503 b33a 031e dfb9 890a 33bb
0.00045728148 0.0010744638 9.279533e-05 -0.0025042107 -0.0023941456 -0.00028718443 -0.0026430823 0.0008947931
0.001971231 -0.0025239766 -0.00339906 -0.0005908708 -0.0014002498 0.0022966668 0.0011175615 0.0004840818
0.0023171313 0.0014099516 -0.0018388674 0.0038805667 -0.005323959 0.0015128319 0.0010545687 -0.00035219968
0.002767714 0.0034520905 0.00020408808 0.0014453364 -0.001107234 0.0013657516 -0.00042556235 -0.0027319512

bn1.weight f4 [32]
00000000: ef85 113f 43bc 493f 20d3 f13e 5665 2f3f
00000010: 44c1 9d3f 11b6 9c3f 80f8 443f 96dc a13e
00000020: 311f 1b3f f888 3b3f bdc8 813f db17 303f
00000030: 524c 6e3f 86c7 9a3f 66e2 743f d649 633f
00000040: 9dd3 6f3f 39a5 8c3f 73d5 263f e5e6 963f
00000050: e379 d73f 19c6 a23f 3e1c 713f 2cfa ca3f
00000060: 7936 9e3f d34c 8e3f 1b61 383f 2223 ea3f
00000070: 2f13 6e3f 03a7 103f a4a3 6a3f 6c74 523f
0.5684499 0.7880289 0.47231388 0.68514 1.2324605 1.2243062 0.7694168 0.31613606
0.6059447 0.7325587 1.0139385 0.687864 0.93085206 1.209214 0.95657957 0.8878454
0.9368227 1.0987922 0.6516945 1.1789213 1.6834072 1.2716705 0.9418372 1.5857596
1.2360374 1.1117195 0.7202317 1.8291972 0.9299802 0.5650484 0.91655946 0.82208896

bn1.bias f4 [32]
00000000: 5b64 38be b20e ddbe 9398 1ebf a403 8ebe
00000010: 1548 a93e 68c9 b83e 6a10 e8be 8e07 8f3e
00000020: 8acf 2cbf fcfc 1c3f e004 123e 1642 9ebe
00000030: 360a 133f db3a 8d3e a6c8 6b3e 83eb 493e
00000040: ebde f23e b194 453e dc6a fbbe 30a9 713e
00000050: 0543 993e 9cd7 df3e 4675 013f a1a1 f53e
00000060: dd06 bf3e 28b9 0d3e 9efc 82be 850b 5d3e
00000070: 87cd f93e 714e 9bbe ccbb aa3e 4a77 3f3f
-0.18007033 -0.43175274 -0.6195156 -0.27737153 0.33062807 0.3609116 -0.45325023 0.2793545
-0.6750418 0.61323524 0.14259672 -0.30909795 0.57437456 0.27583966 0.2302576 0.19718747
0.47435698 0.19295003 -0.49104965 0.23599696 0.29933944 0.43719184 0.5056957 0.47974876
0.37309924 0.13840163 -0.25583357 0.21586426 0.48789617 -0.30333284 0.33346403 0.74791396

bn1.running_mean f4 [32]
00000000: aaa2 093b 9134 78b8 1ee9 063c 811c 14bb
00000010: 3d96 aebb bc52 02bc 6c1e 19bb 1953 60ba
00000020: b3fa bc3b 8740 b2ba 15b0 67bb cd15 00ba
00000030: 7f30 7ebb de27 e3ba f059 ad3a 70f2 53ba
00000040: 5ae2 02bb 84a0 c9b8 86dc 87bb 06a5 81ba
00000050: 51ee 16bc 5d86 2ebc 6bee fb39 bfb5 e7bb
00000060: ca49 d0bb 3629 5bba 7727 71ba 2985 8abb
00000070: 7bd4 e6ba 31dc 283b f5e5 23bb 8542 11bb
0.0021001496 -5.9176764e-05 0.00823429 -0.0022599997 -0.0053279684 -0.007954296 -0.002336408 -0.00085573044
0.0057671904 -0.0013599553 -0.0035352756 -0.0004886061 -0.003878623 -0.0017330607 0.0013225656 -0.0008085137
-0.0019971342 -9.614325e-05 -0.0041461615 -0.00098911 -0.0092120925 -0.010652152 0.00048052086 -0.0070712264
-0.0063564526 -0.0008360328 -0.0009199301 -0.0042272997 -0.0017610932 0.002576601 -0.0025008891 -0.0022164893

bn1.running_var f4 [32]
00000000: 4a5f 1e3a 911f ca39 bc70 a93a 81f2 4a39
00000010: d214 443a 2609 9b3a dbfd 0a3a 679b a339
00000020: 15b3 193a c43e 9839 5e4e 103a 96c8 bc39
00000030: 77f5 c639 7b6c 283a 224b 523a 1968 053a
00000040: 4ca3 f739 34ba 9039 03fb ac39 6a89 683a
00000050: 545d 263a 6d44 d83a 91cf 1d3a fdf3 993a
00000060: b800 793a 6d0f 293a 6030 f139 2c90 983a
00000070: dbe6 fc39 ae7b 043a 862a c539 399e a439
0.0006041421 0.0003855196 0.0012927274 0.00019354561 0.0007479909 0.0011828288 0.00053021096 0.00031205566
0.0005863172 0.00029038463 0.00055048417 0.00036007602 0.00037948388 0.0006424856 0.000802206 0.0005089059
0.00047233177 0.00027604552 0.00032993415 0.0008870574 0.00063463044 0.0016499885 0.00060200045 0.0011745688
0.00094987033 0.0006449137 0.00046003144 0.0011639646 0.00048237186 0.000505383 0.0003760645 0.00031398403

conv2.weight f4 [64, 32, 5]
00000000: 77d0 1f3e c88a 003e 2fee efbc 5ec7 0f3d
00000010: 5e3d f9bd 0235 043d 5e64 74bc e3af 023b
00000020: dd60 fbbb 5bfb db3b 2739 583e be19 7f3d
00000030: 9766 a5bb fdb6 bebd 5f23 49be bb1a a6bd
00000040: 7a24 29bc 7b3c 463d 3cc6 17bd 3c68 e2bd
00000050: db42 60be 78c0 4abc f713 5bbe 50ee 71bd
00000060: 62ac eabd 4b92 353d fb37 d63c b49c 92bd
00000070: aa30 17be f9dd 3a3e e680 803d e760 72bc
00000080: 8a80 a3bd 1345 cd3d fd8c cabd a92d de3d
00000090: 562c 603d 36a9 82bd 505b 473d 29fc a8bd
000000a0: be10 b93d 3366 6ebb 97da 93bd cbb7 0bbe
000000b0: a018 65bd d333 98bd b6b0 8fba f427 0cbe
000000c0: bb7c 563e a2b6 e8bd 7f31 63bd c392 b03c
000000d0: 9a48 89be 1c6d 51be 6953 70be decd 193e
000000e0: ea7e 3fbd 36dd cc3b da47 083e abde 4cbe
000000f0: 2514 0fbe 5247 52be 8545 78bd b3cc f43c
00000100: 8645 e03d f22d 093e 7306 3f3d 1655 81bd
00000110: e2fa 073d 00dc a2ba c0ce 203e 454f 1a3e
00000120: 97e0 d0bd c4d6 9c3e c5dc 1bbe f6cc af3b
00000130: 262f 85bd 095c 3cbe dd21 723e 6896 fbbd
00000140: 0df4 cf3d d73f 203e c7a9 5a3c 41b0 4dbd
00000150: f6bb 85be 0e12 923e d6b5 393e c393 5abe
00000160: 2b89 adbd 2d02 3a3d 1615 2b3d d7b3 b7bc
00000170: d8d1 62bd 606e 053e d311 89bd 5afa 26be
00000180: 3517 953b 1623 ebbd fb37 f8bc 1c4c a0bd
00000190: 8146 dcbe 1629 41be af67 f5be 4da6 363d
000001a0: 61e8 2bbe e34d 063e a209 5cbc 441c c5bc
000001b0: 83fd bebd 708f fd3d dc37 833c 7860 c93d
000001c0: 9ecd 63be cacf a23e d7d5 0dbe 5641 453d
000001d0: 8902 273e 2b07 28be c3e8 9ebd c955 9b3d
000001e0: 2511 043e 8736 673d 47f4 1b3d d5d6 4abe
000001f0: c1b3 1e3e 9ba1 113d 6508 b53d 7cd4 773d
00000200: c7c5 97be cb65 8cbe ba5f 6a3e d484 d13d
00000210: e517 c2bd 3431 fabd 59c6 d6bd bf00 0bbd
00000220: 2244 573d 8e5c 83bd cc44 21be 5e43 043e
00000230: 9308 b73c 8aec 3abe f3de e13d 5816 ec3d
00000240: 7ff1 29be d899 9c3d 12a0 d3bd 07f8 2abd
00000250: d6cd d83d edc3 0abe 3c65 1abe 7a01 80bd
00000260: df60 85bd 2cec bdbc 34b4 63bd 6d41 9ebd
00000270: 89c3 e2b9 040d 6ebd 719f 5f3e 32d6 603e
00000280: a29c 1d3e c978 4b3d e61a cebd 9dc0 3d3c
00000290: 1c98 d1bb 10a1 03bc 87f0 9bbe 217e ce3c
000002a0: 8c11 6c3e 0132 95be e558 5d3d 7de4 3bbc
000002b0: 6120 9ebc 92c4 10bd 5b81 423d 2635 36be
000002c0: 8ca0 fdbd 164a 8dbd b48b 9abc 2ff2 393d
000002d0: 764b b93e 9fa4 573e ba97 5abc a151 eebd
000002e0: 9ef8 3fbe c41c c43d 67fd abbc 895e 10be
000002f0: 9595 b9bd 4faf 66be 817c 8a3d 4a25 0c3e
00000300: 4812 123c 9adb da3d 0d80 3ebe 6e8c 903d
00000310: 386a 3e3d e260 fd3d 2297 8fbc 1822 e7bd
00000320: a3d0 b23c 2794 d2bd 02f5 63bd 5aae f0bc
00000330: 39ca 27be bb2c 06bd 3e0c 693e 9599 27be
00000340: 4482 0b3e 20c8 3f3d d6f3 4dbd e6d4 9bbc
00000350: 2091 e73a 381f 39be e417 77be 29e5 30bd
00000360: f4ce adb6 759d 8abd 88c2 b23d 1a08 59be
00000370: e9d9 85bb dac7 a93d b11d 96bb f29f c73c
00000380: 5572 7abe f4e1 ee3c 1bf3 15be 3a84 d0bd
00000390: 918f 88bd 4e6e 21be 6fc0 4dbd 9254 88bc
000003a0: ca3f 663e 53e4 82bb c6dc 2abd 74c9 18be
000003b0: b36d 01bc 696e 003d 6b6e aabb cd6c 48be
000003c0: 2161 0abe fbd2 043e f2c3 dabd cdcf 973d
000003d0: 46ea 12be 38f3 38be f8fc 87bd 55dc 6dbc
000003e0: 88fb 61bd 78e6 893e 33d2 483c 43f1 1ebe
000003f0: 9821 82bd 8333 db3d c75c babe 59ec 6c3e
0.15606867 0.12552941 -0.02928838 0.03510224 -0.12169908 0.032277115 -0.0149165075 0.0019941262
-0.007671459 0.0067133135 0.21115552 0.06228041 -0.00504763 -0.09312246 -0.19642399 -0.08110567
-0.010323638 0.048397522 -0.037054285 -0.110550374 -0.21900503 -0.01237499 -0.21394335 -0.059065163
-0.11458661 0.04432897 0.02614974 -0.07158795 -0.14764658 0.18248738 0.062745854 -0.014793611
-0.07983501 0.100229405 -0.09890173 0.10848553 0.054729782 -0.06379931 0.048671067 -0.08251221
0.090363964 -0.0036376833 -0.07219427 -0.1364433 -0.055931687 -0.0743176 -0.0010962698 -0.13687116
0.20946018 -0.113629594 -0.055467125 0.021554356 -0.26813203 -0.20451778 -0.23469318 0.15019938
-0.046751894 0.0062519563 0.13308659 -0.20006816 -0.13972528 -0.20535019 -0.060613174 0.029882764
0.109507605 0.13396433 0.04663701 -0.06315057 0.033198245 -0.0012425184 0.15703869 0.15069301
-0.10199087 0.30632603 -0.15220936 0.0053650094 -0.065031335 -0.18394484 0.2364573 -0.12284547
0.10153971 0.15649353 0.013346142 -0.050216917 -0.26119965 0.285294 0.18135771 -0.21345429
-0.08473428 0.04541223 0.041768156 -0.022424622 -0.055375904 0.13030386 -0.06692853 -0.16306439
0.0045498856 -0.114813015 -0.030300131 -0.07827017 -0.4302254 -0.1886333 -0.47930667 0.04459219
-0.16787864 0.13115649 -0.013430031 -0.02406133 -0.09325697 0.12380874 0.016017847 0.09832853
-0.22246405 0.31799155 -0.13851105 0.048158012 0.16309561 -0.16408984 -0.077592395 0.075847216
0.12897165 0.056448486 0.038074758 -0.19808514 0.15498258 0.03555451 0.08839492 0.060505375
-0.2964308 -0.27421412 0.2288808 0.10230413 -0.09477214 -0.12216416 -0.104870506 -0.03393626
0.05255521 -0.06414138 -0.157489 0.12916324 0.022342956 -0.18254295 0.11028852 0.11527699
-0.1659603 0.07646531 -0.10333265 -0.041740444 0.10586135 -0.13551302 -0.1507768 -0.06250282
-0.06512617 -0.023183905 -0.055591777 -0.07727323 -0.00043251764 -0.05811788 0.21838166 0.21956709
0.15391782 0.049675737 -0.10063724 0.011581567 -0.0063963067 -0.008034006 -0.30456945 0.025206627
0.23053569 -0.29139712 0.054039855 -0.01146805 -0.019302549 -0.035343714 0.047486644 -0.17793712
-0.123841375 -0.068988964 -0.018865444 0.04539698 0.36190385 0.21058892 -0.0133418385 -0.11636663
-0.18747184 0.09575799 -0.020994855 -0.14098562 -0.09061734 -0.22527812 0.067620285 0.136861
0.008915491 0.10686417 -0.18603535 0.07058035 0.046488017 0.123719946 -0.01752812 -0.112858
0.021828001 -0.10282164 -0.05565358 -0.029380012 -0.16385736 -0.032757502 0.22758576 -0.1636718
0.13623911 0.046821713 -0.05028137 -0.019022416 0.0017667152 -0.18078315 -0.24130207 -0.043187294
-5.1798943e-06 -0.06768314 0.0872851 -0.21194497 -0.004084815 0.08290072 -0.004581176 0.02436826
-0.24457677 0.029160477 -0.14643519 -0.1018147 -0.06668008 -0.15764734 -0.050232347 -0.016641889
0.22485271 -0.0039945035 -0.041714452 -0.14920598 -0.0078996895 0.031355295 -0.005201151 -0.19572754
-0.13513614 0.12971108 -0.10681905 0.07412682 -0.1434718 -0.1806153 -0.06640047 -0.014517863
-0.05517152 0.26933646 0.012257147 -0.15521722 -0.06354064 0.107031845 -0.36398908 0.23137034

conv2.bias f4 [64]
00000000: 9d1f 0ab9 1ca3 3fb8 fc29 0d38 323b cf37
00000010: 758a 4039 b846 0038 32eb d935 aa0d 8e37
00000020: 2adb c638 3198 4138 8eb3 4c38 da50 2236
00000030: 5559 8938 3ec3 0639 9a39 02b8 de4f 2b38
00000040: 832b 8538 d4a4 0236 090a c3b7 c153 5ab8
00000050: 75df 01b8 b93d 74b8 de41 6738 febe d8b8
00000060: 6396 8238 b85b 35b9 94be d1b8 5e1a 6ab8
00000070: c4d4 c1b6 2198 45b5 51be 8cb7 b4b6 0637
00000080: 169a bdb8 eb14 6037 8f26 0638 38b1 bfb8
00000090: 1aab 1ab8 4fc5 de38 95c4 c738 383f 19b8
000000a0: 92cc 24b8 1a5f 6238 afcb 79b7 7b5a 9fb7
000000b0: 8d6e bcb4 6937 9937 338d 2338 403e 4f37
000000c0: f124 5ab9 fb6f 7db8 8006 e537 56f2 d4b7
000000d0: 1ec4 b4b8 3bd6 5cb8 b290 1939 3c67 0838
000000e0: 3392 bcb8 2c25 4837 6152 2338 070b ab37
000000f0: 91f9 ec35 9f01 a1b6 5e94 47b9 eb67 8bb8
-0.00013172482 -4.5689856e-05 3.365612e-05 2.4703888e-05 0.00018362126 3.058344e-05 1.6236211e-06 1.6934082e-05
9.482198e-05 4.6156525e-05 4.8804613e-05 2.4186943e-06 6.5493085e-05 0.00012851969 -3.104806e-05 4.084396e-05
6.350039e-05 1.9467452e-06 -2.3250484e-05 -5.2053252e-05 -3.0964107e-05 -5.8231617e-05 5.5136035e-05 -0.00010335258
6.226895e-05 -0.00017295673 -0.000100013945 -5.5814504e-05 -5.7766174e-06 -7.3609596e-07 -1.6777924e-05 8.029561e-06
-9.040923e-05 1.3356311e-05 3.1984e-05 -9.140599e-05 -3.6875812e-05 0.000106225365 9.525676e-05 -3.653692e-05
-3.9291168e-05 5.397117e-05 -1.488898e-05 -1.899641e-05 -3.5098165e-07 1.8264824e-05 3.899373e-05 1.2352655e-05
-0.00020803862 -6.042419e-05 2.7301954e-05 -2.5385216e-05 -8.6195985e-05 -5.2651605e-05 0.0001464512 3.252107e-05
-8.99177e-05 1.1929584e-05 3.893895e-05 2.0389924e-05 1.7656004e-06 -4.7983626e-06 -0.0001903339 -6.647393e-05

bn2.weight f4 [64]
00000000: 079a 933f cc57 533f a043 613f 1288 863f
00000010: 9b0c 9b3f e8fa 653f a7e0 6b3f 9562 793f
00000020: 480f b13f dbc7 913f fd63 8d3f 8765 853f
00000030: 32e3 9c3f 44fe 693f 1b16 8e3f c291 723f
00000040: 58d7 783f b732 663f 2eeb 803f 01b0 5f3f
00000050: 3ac0 853f 869c 873f 9e53 733f a809 923f
00000060: 9f12 873f e01b 663f c655 873f 942f 7c3f
00000070: 4b65 a83f 7b41 7a3f d7d0 a63f f7de 803f
00000080: 3ec6 813f 4069 af3f c074 903f 5286 843f
00000090: 3a35 853f 2e34 9b3f e67b 843f 2e19 8c3f
000000a0: 6f33 9c3f 8d58 813f 37e5 613f df52 923f
000000b0: 0b72 833f 537d 803f 7207 8a3f 4eef 6b3f
000000c0: f8de 823f 26d2 793f 7fe1 893f e29a 8f3f
000000d0: 42a4 863f 6a19 813f f6b3 7d3f 44de 863f
000000e0: 2ead 913f 0fae 5d3f 5a96 a63f f1a9 663f
000000f0: 710e 7d3f 7bcd 833f f529 843f 7f12 743f
1.153138 0.8255584 0.8799381 1.0510275 1.2113222 0.8983598 0.9213967 0.9741605
1.3832788 1.1389116 1.1046139 1.0421609 1.2256835 0.91403604 1.1100496 0.9475366
0.9720359 0.89921135 1.0071771 0.87377936 1.0449288 1.0594642 0.95049465 1.1409197
1.0552558 0.89886284 1.0573051 0.985101 1.3155912 0.97756165 1.3032483 1.0068043
1.0138624 1.3703995 1.1285629 1.0353491 1.0406868 1.2125299 1.0350311 1.0945184
1.2203196 1.0105149 0.8824038 1.143154 1.0269178 1.0038246 1.0783522 0.92162025
1.0224295 0.97586286 1.0771941 1.1219141 1.0518878 1.0085881 0.99102724 1.053658
1.1380975 0.8659372 1.3014634 0.9010306 0.9885016 1.0297083 1.0325304 0.9534072

bn2.bias f4 [64]
00000000: 2457 15be e6df bdbd e7db 93be cab6 41be
00000010: 0132 8ebd 9e2c 80be a27e ccbe 2711 d33d
00000020: 6697 33be 5ee0 b63d db04 27bd 805e 8dbe
00000030: 8d52 43be b9f7 42be f37a c53b 99f7 8abd
00000040: e1b1 83bd 290f 8e3b 9e78 1cbe db98 e3bd
00000050: 7522 02bd 65bb db3d 4812 30be a79a 63bc
00000060: 9d9d c9bd fc72 22be bbbe e4bd 68da ebbb
00000070: 81b3 99bd 5be2 a6be c094 f6bd 2214 0fbd
00000080: 45b5 fabd e8fd d0bd 6699 243d 17bc 05be
00000090: d716 173e 0b26 173c fc90 75be de24 3cbe
000000a0: d012 c6bd 2af0 0dbe 024a e7be 98e6 0a3d
000000b0: 2693 4bbd 87d8 20be 8c7a 2c3d 2303 b6bd
000000c0: 0b78 b7bd 4172 f3bd abd8 e6bd 466b 7fbd
000000d0: 4c96 f33d a2b3 cc3d 9d51 743c 058e 22be
000000e0: b06d 27be 3f3b 17be d93b 0fbe 2b54 18bc
000000f0: d794 a5bd 1f83 49be ce32 8cbe f26a 06be
-0.14584023 -0.09271221 -0.2887871 -0.18917385 -0.06943131 -0.2503404 -0.39940363 0.10306006
-0.17538223 0.089295134 -0.040776115 -0.2761116 -0.1907446 -0.19039811 0.0060266196 -0.06785507
-0.06430412 0.0043353033 -0.15280387 -0.11113139 -0.031771142 0.10729102 -0.17194474 -0.013891852
-0.098445155 -0.15864176 -0.111691914 -0.007197667 -0.07504941 -0.3259457 -0.120400906 -0.03493131
-0.12241606 -0.10204679 0.040185355 -0.13060032 0.14754806 0.009225379 -0.23981088 -0.18373439
-0.09671557 -0.13861147 -0.4517365 0.033911318 -0.04970088 -0.15707599 0.042109057 -0.08887317
-0.08958443 -0.118870266 -0.11271795 -0.062358163 0.11893901 0.099952 0.014912036 -0.15874489
-0.16350436 -0.14768694 -0.13987674 -0.009297411 -0.080850296 -0.19678925 -0.2738251 -0.13126734

bn2.running_mean f4 [64]
00000000: c87f cbbf 06e8 c0bf 13a2 1ac0 abec 04c0
00000010: 2d10 56be 27a3 a2c0 7d8f 7dbe dc49 b13e
00000020: 630c 38c0 1e67 9abf 4a53 24c0 1d32 7a3f
00000030: d00c 34c0 fdb6 7bc0 f12b 1dbf 59ab 47c0
00000040: 69c0 27c0 27a6 63c0 ebb3 443f 1b42 7cc0
00000050: 5025 9bc0 b42b adbf 5de5 a7bf b527 ebbf
00000060: 66bb 1cc0 7047 59c0 6ce0 ddbf 0feb 24c0
00000070: 046d 86c0 7dc1 f5bf 5ee9 ddbf cca9 b1bf
00000080: ac46 e0bf f7ee 7f40 e460 523f 8c74 8d40
00000090: 9ee7 0d3e 6829 9dbf 96b0 2ec0 7f85 86c0
000000a0: 45aa c6c0 d531 d9bf 216c c0bf f3c2 5bc0
000000b0: 01e0 6cc0 7461 6abe 2a75 5c3c b4f1 e7bf
000000c0: 1442 87c0 aead d03f 6d66 08c0 1ad1 84bf
000000d0: 4923 adbf 17d9 3cc0 47cc 83c0 fe9b 25c0
000000e0: 3166 e3bf c9ff 80c0 474d 55c0 61ce 14c0
000000f0: fb83 38c0 14b9 b1bf a8b4 19c0 9825 fabf
-1.5898371 -1.5070808 -2.4161422 -2.076945 -0.20904608 -5.082416 -0.24761768 0.34626663
-2.875756 -1.2062719 -2.5675836 0.97732717 -2.813282 -3.9330437 -0.61395174 -3.1198332
-2.6211188 -3.5570161 0.76837033 -3.9415348 -4.8483047 -1.3528962 -1.3116871 -1.8371493
-2.448938 -3.3949852 -1.7334113 -2.5768468 -4.2008076 -1.9199673 -1.7336843 -1.3879943
-1.7521567 3.9989603 0.82179093 4.420477 0.13857886 -1.2278261 -2.729528 -4.203796
-6.208285 -1.6968333 -1.5032998 -3.4337738 -3.701172 -0.22888738 0.013455668 -1.8120637
-4.226816 1.6303003 -2.1312516 -1.0376313 -1.3526393 -2.95075 -4.118686 -2.587646
-1.7765561 -4.031224 -3.3328416 -2.3250964 -2.8830554 -1.3884606 -2.4016514 -1.9542723

bn2.running_var f4 [64]
00000000: f4f3 0840 d3fe 8e3f e080 1d3f 1e87 a43f
00000010: 42bf 2c40 d690 4d3f 4ba9 463f ee6d ba40
00000020: 5485 1540 6222 1e40 6921 6e40 540a d93f
00000030: f91f fb3f a203 443f 40c3 4740 8e82 b13f
00000040: 8b59 d53f de7a 3540 2044 bf3f 6d36 2b3f
00000050: b895 0d40 9c93 2940 792b 0540 e4a7 b63f
00000060: 7511 8a3f 956b 393f ac97 0540 9bb5 1f40
00000070: 6a3b d83f 7f62 ae3f 8125 c83f 156a 0940
00000080: a5ee bf3f 171c 5740 ce1b 4940 5ad3 9b3f
00000090: 6d58 b840 c6a7 4840 1335 ba3f d3ad 923f
000000a0: d8d3 5d40 a41b ac3f c9df 973f 7813 4640
000000b0: daa0 1540 d517 e83f 3cd1 2a40 3182 9f3f
000000c0: da98 9d3f 0207 ef3f 1777 a23f 9d46 1940
000000d0: 7200 9440 5597 8340 5961 f23f de05 1940
000000e0: 4fd6 1340 2378 743f 8b6d 0040 554b 4940
000000f0: 64b5 7e3f 9388 b23f 1c3b 6b3f b6ad bc3f
2.1398897 1.1171516 0.6152477 1.2853734 2.6991735 0.8029913 0.7760207 5.825919
2.3362627 2.4708486 3.7207892 1.6956277 1.9619132 0.76568043 3.121292 1.3867967
1.6667951 2.8356242 1.4942665 0.6687992 2.212263 2.6496344 2.0807784 1.4269986
1.0786577 0.7242978 2.0873823 2.4954593 1.6893132 1.3623809 1.5636445 2.1470997
1.4994704 3.3610895 3.142322 1.2173874 5.760794 3.13524 1.4547447 1.1459297
3.466055 1.3445935 1.1865169 3.0949383 2.3379426 1.8132273 2.6690207 1.2461606
1.2312272 1.8674014 1.2692593 2.394935 4.6250544 4.112223 1.8935958 2.390983
2.3099554 0.95495814 2.006686 3.145223 0.9949553 1.3947929 0.9188707 1.4740512

conv3.weight f4 [128, 64, 3]
00000000: afa2 7b3c 1c06 8a3c c171 0e3e f2ab 873d
00000010: 1655 0f3e 210f 3cbd 472a 41bd 91d3 43bb
00000020: f1c4 65be 8c41 89bd 7d86 b0bd fef7 1a3d
00000030: a94f cfbc 716c 2ebd 60e8 0abd e41a 44be
00000040: b636 f03d f685 47ba 9e9b 19bd bd60 f33c
00000050: 5dbd f3bd 93de 90bd 9517 eb3b f79e cc3d
00000060: 2a4e 7c3d 4e12 32be d0e3 f1bd a7eb 30bd
00000070: 6365 cc3c a583 053e 6d19 0d3d 6ac9 8d3d
00000080: 9445 33bd 084c 0cbe 10d3 8bbd 39d1 2b3d
00000090: a1d1 cc3c 11c2 893c c855 923d 2543 1b3e
000000a0: aa2c 11bd f55a cc3d df30 b83c e759 4fbd
000000b0: 5b5c 22be 798c d33d b4eb 0fbd 0fe2 81bd
000000c0: 26a5 e73a 6d56 a63b 419f a43c a136 d53c
000000d0: e16c 63bc 93c5 dcbb 4562 1c3d a4b2 bb3d
000000e0: 4313 e23d 6431 903d fee5 f3bd efe1 12bd
000000f0: 66e7 df3c 7052 4ebb 1683 cc3b bd1c 7e3b
00000100: 5bc0 3e3e 6c82 383e 1d7b 243b b9b5 993d
00000110: 5380 9e3d 2b32 32bc 286d bdbd 67a7 80bd
00000120: ad2d 3abd 9ac7 68bd f6e7 23bd b662 dbbd
00000130: f208 bf3d 455c 2bbd 48e4 2bbe bd10 48bc
00000140: ca70 d0bc b371 423c 8eae 9abd 2aff 773c
00000150: ba88 c2bd 3e02 c93c 23b7 ac3d 53f2 9fbe
00000160: 2a47 e1bc eee3 f4bd 0810 39be 92f5 abbd
00000170: 56ca d9bd c852 cd3c 6553 d8bd b7bc fabd
00000180: d035 043e 536a 33bc ac4b 3bbd 1b4d 0a3e
00000190: 8e4c 6a3d efeb 953d 47c3 c7ba 2df9 bcbd
000001a0: b60f afbc 4460 17be 9872 aebc 9e3b 153d
000001b0: 48db 4abd 24fa a7bc 0972 ff3d a5bb 85bd
000001c0: 048b 4dbd b6f5 bf3b 9cca 97bd 7182 8b3d
000001d0: 1ade d6bc 62f0 76be aa6a c13d ded4 503d
000001e0: 677f a53c f628 163d 9276 003e 6c54 09be
000001f0: 5d55 933d feb5 313d 7781 a83c b4b4 c9bd
00000200: ae78 84bd 2a69 af3d 418a eebc 2bc8 3fba
00000210: 7b18 98bd 5d7c 123e 7980 a73d 9fc3 0dbd
00000220: 2372 07bc be8e 123e 8500 a0bc d21a 883d
00000230: 9f35 1cbd ce8a aa3d afd1 4d3d 7f1e a4bd
00000240: a512 73bd cf5d 563d ea4c cdbd 6823 7e3d
00000250: b2d2 2a3d ab5f a7bd 4a9b d73c 41ad ccbd
00000260: b1bc a5bd 40d5 00bd 056c 90bd a408 6c3d
00000270: 9add 98bd d7d4 8dbc cdb5 913d 649b bc3c
00000280: 9f79 babc c42f ae3c 8c6c e83d c1de 8cbd
00000290: 3dec 22bd 08a3 8d3c 9cc2 3ebd db8a 36bd
000002a0: dc46 37bd 2a60 b63d 4f89 ae3d 6d55 773d
000002b0: c24b b23d 5fa9 903d d2dd 90bd 91ba 24bd
000002c0: b912 c93c 77f1 973b a706 813c 402f 103e
000002d0: 82f1 61bd 5aae 97bd aa24 bf3c ebe2 973c
000002e0: caca be3d f365 c1bb 89ce 9c3d ffcd 30bc
000002f0: 0ef1 35bd 6929 f4bd 6c49 dfbb 9cbd 6fbe
00000300: 5b68 d93d d792 8d3d e0ac 453d 0ecd a63b
00000310: 68ff 04bb 6afe 73bd fc12 b43d a01c 83bd
00000320: 7408 7ebd 610b b8bb e631 c3bb 8f2c 133e
00000330: f78d 403d 991c ed3c 2307 a0bd 5745 bd3d
00000340: bc92 c6bc 7d47 c83d 67e5 71bd a438 1bbd
00000350: f919 133e e6c8 493d f567 403d de37 333e
00000360: f423 9dbd 5f56 8bbd a3ea 8b3d 61f8 0bbc
00000370: eb12 b93c ee8b 903d 0f3a 393d 7d23 8ebd
00000380: a551 253d 2ca9 4ebe a092 043e e44c 5f3d
00000390: f89b 9c3d cb73 cfbb ab5c b4bc e9bc 0abd
000003a0: b018 e93c aa8a b1bd 7ea5 45bc efb1 0ebe
000003b0: 33b2 a6bd 08ec f9bd 9091 413d 1fee 07be
000003c0: 360d 51bd 2aaf df3d 92ad 283d b957 8a3d
000003d0: 278d 3bbd 68ac a8bc 0638 16be bfb4 08bd
000003e0: 6695 f8bc 3f2f bbbd 139c 8dbd ab71 d73d
000003f0: d8f9 a63d ed7b dd3d 289b 0e3d e146 883d
0.015358611 0.016848616 0.13910581 0.06624593 0.13997301 -0.045912866 -0.04715946 -0.0029880742
-0.22438408 -0.06701955 -0.086194016 0.03783416 -0.02530654 -0.042583887 -0.033913016 -0.19150883
0.11729185 -0.00076112093 -0.037501924 0.029709214 -0.119013526 -0.07073703 0.007174442 0.09991258
0.06159798 -0.17389795 -0.1181103 -0.043193486 0.024950689 0.130385 0.034448076 0.06923182
-0.043767527 -0.13700879 -0.06827366 0.041947577 0.025002303 0.01681617 0.07145268 0.15162332
-0.035442986 0.09978286 0.022484241 -0.050622847 -0.15855543 0.103295274 -0.035136893 -0.063419454
0.001767312 0.0050762207 0.02009547 0.026027026 -0.013880939 -0.00673742 0.038179655 0.09164932
0.1103883 0.070406705 -0.11909102 -0.03586 0.027332019 -0.0031482242 0.0062412126 0.0038774454
0.18628065 0.18018502 0.0025097795 0.07505364 0.0773932 -0.010876219 -0.092493355 -0.062819295
-0.045453716 -0.05683098 -0.040016137 -0.10712187 0.09327878 -0.041836042 -0.16786301 -0.012211022
-0.025444407 0.011867928 -0.07552825 0.015136519 -0.09498735 0.024537202 0.08433368 -0.31239566
-0.027499754 -0.11957537 -0.18072522 -0.08396448 -0.10634296 0.025063887 -0.10562781 -0.12243026
0.12911153 -0.010950643 -0.045726463 0.13505976 0.057201914 0.073203914 -0.0015240692 -0.09227214
-0.021369796 -0.14782816 -0.021294877 0.03643381 -0.04952553 -0.020505019 0.12472922 -0.06529931
-0.050181404 0.0058581484 -0.074116915 0.06811989 -0.026228953 -0.24115136 0.09444173 0.050984256
0.020202352 0.036660157 0.12545231 -0.1341111 0.07194016 0.043386452 0.020569546 -0.098489195
-0.0646833 0.0856498 -0.029118659 -0.0007315899 -0.07426544 0.14305253 0.08178801 -0.034610387
-0.008266958 0.14312264 -0.019531498 0.066457406 -0.038137075 0.08327256 0.050248798 -0.08013629
-0.059343953 0.052335557 -0.10024436 0.062045485 0.04170484 -0.08172544 0.026319165 -0.09993983
-0.08092631 -0.03145337 -0.07051853 0.057625428 -0.07464142 -0.017313404 0.07114754 0.023023315
-0.022763072 0.02126301 0.11348829 -0.068784244 -0.039776076 0.017289653 -0.046572313 -0.044566017
-0.04474531 0.089050606 0.08522283 0.060384203 0.08705856 0.07063555 -0.07073559 -0.040216986
0.02454506 0.004636939 0.015750242 0.14080524 -0.05516196 -0.07406302 0.023332912 0.01854082
0.09316023 -0.005902046 0.07656581 -0.010791301 -0.04441934 -0.11921961 -0.0068141725 -0.23412174
0.10615607 0.06912773 0.04826057 0.0050903624 -0.0020293836 -0.0595688 0.087926835 -0.06401944
-0.06201978 -0.005616591 -0.005956876 0.14372467 0.04701039 0.0289443 -0.07813861 0.09241741
-0.02423989 0.0977926 -0.059056666 -0.037895814 0.14365377 0.049263857 0.04697414 0.1750178
-0.07672873 -0.06803583 0.06831863 -0.008543105 0.022592029 0.070579395 0.045221385 -0.069403626
0.040361065 -0.20181721 0.12946558 0.054516688 0.07646936 -0.0063309423 -0.022016844 -0.033871565
0.028454155 -0.08669026 -0.012063382 -0.13935064 -0.081394576 -0.122032225 0.04725796 -0.1327443
-0.05103799 0.10922082 0.041181155 0.06755013 -0.04578891 -0.020590022 -0.14669809 -0.033375498
-0.030344676 -0.09139871 -0.069145344 0.10519727 0.08153123 0.108146526 0.034815937 0.06654144

conv3.bias f4 [128]
00000000: ff25 b23d e3b8 093e b2bf d93d bfbb 1e3e
00000010: 9aa9 2c3e e766 2f3e aee8 d73d 6c2e a93d
00000020: 8c29 203e e12b 043d 6d32 bc3d c063 7c3b
00000030: 57f7 373d 0cce b93d 7f59 8c3d b60c 573e
00000040: b5a1 f33d 6b94 693d 8595 223e d5c6 1f3e
00000050: 0e01 e43d e2af 94bd 9420 cd3d 3809 b53d
00000060: 3032 d0bc 50a7 6a3e bf02 ef3d 0d35 033e
00000070: a2b4 c53d 18bb 573d 8b31 f23d bd91 d13d
00000080: ef4d 183e caad df3d 75c4 b93c 9a1d 103e
00000090: 9568 113e 645f 83bd 066d 1d3d e8de d93d
000000a0: 1a4e 653c 456d df3d be7d a43d 4779 cc3d
000000b0: 381f c83d 8917 10bc 152d e33d e9c1 fa3c
000000c0: 41d8 ca3d 323a 343d a5c1 343e ea6c 763d
000000d0: 499e f83d 7e6c 1a3b 4657 163e f668 203c
000000e0: 077b 0e3e 5a24 8bbc 6ca8 5639 b64d 263e
000000f0: a736 9b3d ae2e 673d bbde 779e f92a 0e3e
00000100: 2962 023e 00a9 9a3d 8827 d83d e9e4 b8b9
00000110: eee4 0d3e c9dd 0b3e 0e7f 153e a259 c03d
00000120: d3c6 2f3e 88dd 75bd be4e 813d 10b1 063e
00000130: 2de1 193e 840e 213c be0e c83d 3b4c 033e
00000140: 9779 4095 4dd1 929a 5836 1abc ed71 333e
00000150: acd7 a33d 76b1 09bd a5fe 313c bfed 01bc
00000160: 9e2e f13d fc84 3a3d b9e9 be3d 8148 2b3e
00000170: 2304 ad3c bd57 2e3e 5298 233e f14d 003e
00000180: 4412 a13d df8f ae3d 59dc 093d 7c1c ac3d
00000190: 3f26 153e a46c f13d a949 d23d a426 a63d
000001a0: a023 1b3e 4c75 2f3e fad1 593d 3d6a 3ebe
000001b0: a52d 17bc 4b5c 973d 07b3 113e 9cb4 193e
000001c0: 6b2e c93d 1c75 be3d 7e0e edaf a5ff 9b3d
000001d0: b9cf c23d 659e 593d 00f5 e9ae 2f55 0b3e
000001e0: ab70 0a3e e514 1e3e 7edb 113e 324b fa3d
000001f0: 455f 053e a716 d73c acc0 eb3d c235 973d
0.086986534 0.13449435 0.10632266 0.15501307 0.16861573 0.17129098 0.10542427 0.082608074
0.15640849 0.03226841 0.091893055 0.0038511604 0.044913616 0.090725034 0.068530075 0.21000943
0.118960775 0.057026308 0.1587735 0.15603192 0.11133014 -0.072601095 0.100159794 0.08839649
-0.025414556 0.22915387 0.11670446 0.12813206 0.096535936 0.05266866 0.11825856 0.102328755
0.1487348 0.109218195 0.022676686 0.14073792 0.14200051 -0.06414679 0.03843405 0.10638219
0.013995672 0.109095134 0.08031796 0.09984069 0.097715795 -0.008794674 0.11092583 0.030610042
0.099045284 0.044000812 0.17651995 0.060162462 0.121395655 0.0023563202 0.1468173 0.00979065
0.13914119 -0.016985107 0.00020471372 0.16240582 0.075787835 0.056441 -1.3122131e-20 0.1388358
0.12732758 0.075517654 0.10554415 -0.00035265766 0.13856861 0.13658823 0.14599249 0.09392096
0.17165689 -0.06002572 0.06313847 0.13153481 0.15027304 0.009830121 0.09768437 0.12822048
-3.887001e-26 -6.072233e-23 -0.009412371 0.17523928 0.080001205 -0.033616506 0.010863935 -0.007930218
0.1177647 0.04553698 0.09321923 0.16726877 0.021120137 0.17025657 0.15976074 0.12529732
0.07864812 0.08523535 0.033657406 0.084038705 0.14565371 0.117883 0.10267956 0.08112839
0.15150309 0.17134589 0.053178765 -0.18595214 -0.009227191 0.0739065 0.1422845 0.15010303
0.09823307 0.092996806 -4.3120346e-10 0.0761712 0.09512276 0.053129572 -1.0639134e-10 0.13606714
0.13519542 0.15437658 0.14243886 0.122213736 0.13024624 0.026255919 0.115113586 0.073833

se.fc.0.weight f4 [8, 128]
00000000: 8a14 0b3e 8d64 4a3d 0222 0536 f33f df3d
00000010: 73b4 043e e315 70bc fad0 443c f469 c33d
00000020: 4e0e 093e 9ade b13d f39f a7ba 1a95 823d
00000030: 6268 363d c4ac b83c 3fcb e63d fad5 c83c
00000040: 1541 ef3d 177e fa3d 7760 f13c 62d0 e33d
00000050: b3b3 dc3d 320a 203e 2f3f 983d d483 6f3d
00000060: 9a63 373e 630e ee3d 9c65 cd3d 95f0 d83d
00000070: df08 babc 0f61 193e 8588 f93c 7627 073d
00000080: e945 abbc 62bb 093e 11c5 843d a985 bf3d
00000090: 08a5 1d3e 6f5f d63d 1b12 ed3c 2923 413d
000000a0: b3be a73d 2318 d73d 30f6 7c3d e11d 0d3e
000000b0: 16c3 373e 5293 d63c d93c 0c3d b5b0 ed3d
000000c0: d4ec 743d 7fab d53d 16f4 b53d 6d75 773d
000000d0: f00d c2bc 99fc f33d cf6e 55bc 3f61 8b3d
000000e0: a0a4 893d 69e2 5e3c 6d42 393e 71a2 2d3d
000000f0: 47ef ee3c 4dc6 af3d d1e1 bf2d bf64 0d3d
00000100: 68f6 43bc 710a dd3d 5e34 d73d 059a 0aba
00000110: fcd1 013d ca55 3e3c 7564 36bd 7342 d23d
00000120: 69d1 393c 6058 b6bd 53a6 363d 580e f93d
00000130: ec8c 18bd aae2 c43d 22dd 663d 42ea 9b3d
00000140: 1cad 9238 3333 e790 a1c3 373c 62b3 c1bb
00000150: 70d7 cd3c e7b7 f93c b71d 093e ec87 513d
00000160: 447d 9f3c 2023 0c3c 21e6 e53d 4dce 8c3d
00000170: 1356 1aba 04f6 823d b040 8fbd 1c4f 3c3c
00000180: 3293 d33d c22b cb3d 03f7 c03d 17f0 96bd
00000190: 269f 0f3d 7aeb 993d 5b39 f5bc c325 cebc
000001a0: cc83 83bb e1a8 11bc a5e9 1f3e fb18 603f
000001b0: 89d0 c43d 30f9 023e 6271 ec3c d28e 9c3c
000001c0: 46f1 003e a6c1 0a3e 9465 8421 cad0 7d3d
000001d0: c8a7 c93d f402 c83d 56df ebb7 91fe 353b
000001e0: f85f ed3d 86f0 f03a 2028 563d 816a 123e
000001f0: fc96 643d 1bc0 a5bd 7df6 9d3d 4977 2e3d
00000200: 0d89 0000 6589 0000 2389 0080 0c8a 0000
00000210: 0b89 0000 ea89 0000 f489 0000 fc88 0000
00000220: 4489 0000 d389 0000 d889 0000 2d89 0080
00000230: 1b89 0080 f188 0000 f488 0000 1889 0000
00000240: 5289 0000 bf88 0000 6489 0000 b889 0000
00000250: a489 0000 548a 0000 0b8a 0000 0daf 0000
00000260: 8189 0000 9cd9 1287 df89 0000 c288 0000
00000270: ea88 0000 2b89 0000 c888 0000 088a 0000
00000280: 9d89 0000 9489 0000 d189 0000 99d0 2f00
00000290: 5989 0000 2489 0080 5089 0080 2089 0000
000002a0: 6489 0080 cc88 0000 9389 0000 c188 0000
000002b0: da88 0000 2989 0080 f989 0000 e388 0000
000002c0: bd88 0000 3289 0000 8b89 0000 0e89 0000
000002d0: df89 0000 2d89 0000 7389 0000 738b 0000
000002e0: 4089 0000 6989 0080 4489 0000 7089 0000
000002f0: 2f89 0000 0a89 0080 c088 0000 1889 0000
00000300: cc88 0000 af89 0000 5689 0000 db88 0000
00000310: b289 0000 138a 0080 038a 0000 2f89 0000
00000320: 20c6 318b 028a 0080 6989 0080 ec88 0000
00000330: cb89 0000 f988 0000 5e89 0000 c289 0000
00000340: d18a 0000 098a 0080 f788 0000 bb88 0000
00000350: b989 0000 1d89 0080 3789 0000 0d89 0080
00000360: 0389 0000 e388 0080 3a89 0000 6f89 0000
00000370: 0a8a 0000 b789 0000 c989 0000 aa89 0000
00000380: 4e89 0000 dc88 0000 1689 0080 5289 0000
00000390: 8689 0000 5c89 0000 cb88 0000 5189 0000
000003a0: 4089 0000 a889 0000 c889 0000 c588 0080
000003b0: f488 0000 d289 0000 a689 0000 d988 0000
000003c0: 2e89 0000 c389 0000 088c 0080 7789 0000
000003d0: cb89 0000 db89 0000 ab89 0000 2f89 0000
000003e0: 0c8a 0000 0589 0000 e689 0000 b988 0000
000003f0: d889 0000 2c8a 0000 9189 0000 a289 0000
0.13582054 0.0494123 1.983834e-06 0.10900869 0.12959461 -0.014653656 0.0120127145 0.09541693
0.13384363 0.08685036 -0.0012788757 0.06376095 0.04453314 0.022543319 0.11269235 0.024516094
0.11682335 0.12231081 0.029464943 0.1112373 0.107764624 0.15628889 0.07433926 0.05847533
0.17909089 0.11623838 0.10029146 0.105927624 -0.022709308 0.14978431 0.030460605 0.032996617
-0.02090736 0.13450387 0.064829 0.093516655 0.15394986 0.10467421 0.028939297 0.047152672
0.0819067 0.105026506 0.06175822 0.13780929 0.17945513 0.026193295 0.034237716 0.1160597
0.05979617 0.10433101 0.08884446 0.06041472 -0.023688287 0.119134136 -0.013026907 0.068056576
0.06720853 0.013603785 0.18091746 0.042391244 0.02916683 0.08582745 2.1814469e-11 0.034519907
-0.011960603 0.10793007 0.10508035 -0.0005287233 0.031694397 0.011617133 -0.044529397 0.102665804
0.011341431 -0.08903575 0.044592213 0.12160939 -0.03724377 0.09613545 0.056363232 0.076130405
6.994067e-05 -9.119232e-29 0.011216075 -0.0059112767 0.025127143 0.0304832 0.13390242 0.051155016
0.019468911 0.008553296 0.11225534 0.06875286 -0.000588746 0.0639458 -0.0699476 0.0114934705
0.1033081 0.099204555 0.09422114 -0.07370012 0.035063885 0.07515617 -0.029934576 -0.02516449
-0.004013514 -0.0088903615 0.15616472 0.8753812 0.096100874 0.1279037 0.028862659 0.01911107
0.12592039 0.13550434 8.971555e-19 0.061966695 0.09846455 0.09766188 -2.8118182e-05 0.0027770142
0.1159057 0.0018382228 0.05228436 0.1429844 0.055808052 -0.08093282 0.077130295 0.042594228
4.9165e-41 4.9288e-41 -4.9195e-41 4.9522e-41 4.9162e-41 4.9474e-41 4.9488e-41 4.9141e-41
4.9242e-41 4.9442e-41 4.9449e-41 -4.921e-41 -4.9184e-41 4.9125e-41 4.913e-41 4.918e-41
4.9261e-41 4.9055e-41 4.9286e-41 4.9404e-41 4.9376e-41 4.9623e-41 4.952e-41 6.2796e-41
4.9327e-41 -1.1047769e-34 4.9459e-41 4.906e-41 4.9116e-41 4.9207e-41 4.9068e-41 4.9516e-41
4.9366e-41 4.9354e-41 4.9439e-41 4.391099e-39 4.9271e-41 -4.9197e-41 -4.9258e-41 4.9191e-41
-4.9286e-41 4.9073e-41 4.9352e-41 4.9058e-41 4.9093e-41 -4.9204e-41 4.9495e-41 4.9106e-41
4.9052e-41 4.9216e-41 4.9341e-41 4.9166e-41 4.9459e-41 4.921e-41 4.9307e-41 5.0025e-41
4.9236e-41 -4.9293e-41 4.9242e-41 4.9303e-41 4.9212e-41 -4.916e-41 4.9057e-41 4.918e-41
4.9073e-41 4.9392e-41 4.9267e-41 4.9094e-41 4.9396e-41 -4.9532e-41 4.9509e-41 4.9212e-41
-3.4238013e-32 -4.9508e-41 -4.9293e-41 4.9118e-41 4.9431e-41 4.9137e-41 4.9278e-41 4.9418e-41
4.9798e-41 -4.9518e-41 4.9134e-41 4.905e-41 4.9406e-41 -4.9187e-41 4.9223e-41 -4.9165e-41
4.915e-41 -4.9106e-41 4.9228e-41 4.9302e-41 4.9519e-41 4.9403e-41 4.9428e-41 4.9385e-41
4.9256e-41 4.9096e-41 -4.9177e-41 4.9261e-41 4.9334e-41 4.9275e-41 4.9072e-41 4.926e-41
4.9236e-41 4.9382e-41 4.9427e-41 -4.9064e-41 4.913e-41 4.944e-41 4.9379e-41 4.9092e-41
4.9211e-41 4.942e-41 -5.0234e-41 4.9313e-41 4.9431e-41 4.9453e-41 4.9386e-41 4.9212e-41
4.9522e-41 4.9153e-41 4.9469e-41 4.9047e-41 4.9449e-41 4.9567e-41 4.935e-41 4.9373e-41

se.fc.0.bias f4 [8]
00000000: f4a8 ca3c f389 0000 2de8 9e30 3da1 a13d
00000010: 3c41 cb3b bdc3 2380 c0b7 18b6 3121 b201
0.024738766 4.9487e-41 1.1562001e-09 0.07892082 0.006202845 -3.28446e-39 -2.2756722e-06 6.54345e-38

se.fc.2.weight f4 [128, 8]
00000000: 06ee 33bd cf89 0080 1048 51ac 01e8 6c3d
00000010: 41cd 80bd 1e8a 0080 77d7 ec32 fa89 0000
00000020: 7e74 72be ad89 0080 a4e9 75b1 0c22 143e
00000030: b094 89bd f089 0080 71ca ae31 ee88 0000
00000040: af58 943e d588 0000 9289 0080 4eca a53e
00000050: 81af b33e fa88 0080 f089 0080 6589 0000
00000060: 9437 613e 4289 0080 6d89 0000 9f32 e33e
00000070: 9ead 553e 238a 0000 4989 0080 6489 0080
00000080: a904 9bbe be88 0080 2191 ddb2 2a26 923c
00000090: b953 213e 0b89 0080 c846 9538 0d8a 0000
000000a0: 90de da3d e789 0080 8d83 9533 7b51 81be
000000b0: 8936 12be 96ad 0000 96cc d438 d688 0000
000000c0: 8f25 513e 5b89 0080 1c58 2527 27d5 083e
000000d0: 4968 603d e088 0080 7f89 0080 bd88 0000
000000e0: dedd 6439 7089 0080 389b 85b2 7edf 87be
000000f0: cd71 28bc d388 0000 6d4e 0139 5b76 ac00
00000100: 84f1 81be 0389 0080 e968 37b0 021b a2bc
00000110: 82d2 bd3d 7889 0000 43be b636 7e89 0000
00000120: d124 9c3d d288 0080 5c5c fab5 e271 b4be
00000130: aab6 a4bd 2889 0000 d91e ae38 a67d 1106
00000140: d499 c13d 4b89 0080 8f4a afb3 ddaa cdbe
00000150: 6771 643c 7589 0000 db91 5638 c27d 6980
00000160: b42b 463e f988 0080 c989 0000 acf8 d83e
00000170: cb72 8a3e fc98 0080 2d8b 0000 198a 0080
00000180: 0db6 503e 0a8a 0080 6689 0000 3b43 bd3e
00000190: 6682 903e 608b 0080 578a 0000 7e89 0080
000001a0: 12ba 853e e489 0080 733e 86b2 c9a0 6fbe
000001b0: 6473 f5bc a889 0080 fa60 1d36 4b89 0000
000001c0: 0dcf 613e 0589 0080 a658 2db3 b413 77bd
000001d0: cf27 b23d 4189 0080 0415 ce36 1689 0000
000001e0: 89bc c03d 9689 0080 c2fe 08b6 180d 27be
000001f0: 924b 94be 9289 0000 a2af 2337 e208 b88e
00000200: aecb df3c 7989 0080 c95c a5b6 4786 79be
00000210: deb8 de3c cb88 0080 8936 1037 48aa 0291
00000220: a6b6 1fbe 018a 0080 a37a 27b1 7202 413c
00000230: 54b7 073e 3189 0000 3d92 942d b389 0000
00000240: 5f8e f83d 8489 0080 108a 0000 1727 ec3e
00000250: 98b3 773e 5f8a 0080 ce8b 0080 a589 0080
00000260: 7e4c d13d 8589 0080 f4a1 2cb4 b07a 6bbe
00000270: c475 47be a091 0080 5471 3a38 3bd6 438c
00000280: bf7a 833d 3f89 0080 e054 5130 628c 34be
00000290: 9b64 90bd d689 0080 a5ce c136 008a 0000
000002a0: f59c a33e f789 0000 5089 0000 613a 133f
000002b0: 0c2a dc3e ed8b 0080 058e 0080 b889 0000
000002c0: c30d 1abe ba88 0080 2b46 842a 1112 b13c
000002d0: 25e1 9ebd 5a89 0000 2132 0334 f889 0000
000002e0: db31 5b3e ed89 0000 d388 0000 d100 ac3e
000002f0: 8cc1 c33d ee8a 0080 bc89 0000 e588 0080
00000300: a25e 843e f088 0000 7c89 0080 bc4a 6f3e
00000310: e0ea 703e 8f89 0080 0592 0000 6789 0080
00000320: 420a cdbe f588 0080 6cab 0db7 697e d9be
00000330: f442 26be c288 0000 7372 6a38 3c5e aa9c
00000340: 8093 36be d689 0080 3007 82b4 3d8d 6bbe
00000350: 10ae 193e daa0 0000 d07c 9c38 4fd6 1180
00000360: 91b7 b2be 0f89 0080 54d3 37b8 308b b6be
00000370: 361c 953d 5689 0000 cdb2 7238 8732 8191
00000380: a090 723e 1989 0080 9cfd 7ead 0eb3 acbd
00000390: 9514 d0bd d388 0080 110c 1337 e788 0000
000003a0: 8ea1 2b3e 078a 0080 fbce ada4 c680 ac3d
000003b0: f703 f43d be89 0000 aee1 2528 0289 0000
000003c0: 5826 083e 5589 0080 3c1a 32ab dc1f 7a3d
000003d0: 074e 183e bd89 0080 dd70 5f2e bb88 0000
000003e0: dae8 813d 6689 0080 1207 11b6 03a0 c2be
000003f0: 00ac ffbd 9889 0000 2905 3339 d553 fe89
-0.04392817 -4.9436e-41 -2.974069e-12 0.057838444 -0.06289149 -4.9547e-41 2.7571998e-08 4.9497e-41
-0.2367725 -4.9389e-41 -3.5785002e-09 0.14466113 -0.06717813 -4.9483e-41 5.0870814e-09 4.9121e-41
0.2897391 4.9086e-41 -4.9351e-41 0.3238091 0.35094836 -4.9138e-41 -4.9483e-41 4.9288e-41
0.21993858 -4.9239e-41 4.9299e-41 0.44374558 0.20867011 4.9554e-41 -4.9249e-41 -4.9286e-41
-0.30276993 -4.9054e-41 -2.5793783e-08 0.017840464 0.15754594 -4.9162e-41 7.118058e-05 4.9523e-41
0.10686982 -4.947e-41 6.962282e-08 -0.25257477 -0.14278616 6.2271e-41 0.00010147055 4.9087e-41
0.20424484 -4.9274e-41 2.2946114e-15 0.13362561 0.054786954 -4.9101e-41 -4.9324e-41 4.9052e-41
0.00021826426 -4.9303e-41 -1.5553823e-08 -0.26537699 -0.0102810385 4.9083e-41 0.00012331615 1.5838163e-38
-0.25379574 -4.915e-41 -6.67241e-10 -0.019788269 0.09268667 4.9314e-41 5.446172e-06 4.9323e-41
0.0762421 -4.9082e-41 -1.8653332e-06 -0.35243136 -0.08042653 4.9202e-41 8.3027124e-05 2.736378e-35
0.094531685 -4.9251e-41 -8.162635e-08 -0.4016942 0.013943053 4.931e-41 5.1157414e-05 -9.68784e-39
0.19352609 -4.9137e-41 4.9428e-41 0.42377222 0.27040705 -5.488e-41 4.9927e-41 -4.954e-41
0.20381947 -4.9519e-41 4.9289e-41 0.36965355 0.28224486 -4.9998e-41 4.9627e-41 -4.9323e-41
0.26118523 -4.9466e-41 -1.5628052e-08 -0.23401178 -0.02996225 -4.9382e-41 2.345127e-06 4.9251e-41
0.2205164 -4.9153e-41 -4.0360327e-08 -0.060321525 0.08698999 -4.9237e-41 6.141725e-06 4.9177e-41
0.0941096 -4.9357e-41 -2.0413868e-06 -0.16313589 -0.28963906 4.9351e-41 9.75645e-06 -4.5368056e-30
0.027318802 -4.9316e-41 -4.928185e-06 -0.24367629 0.02718776 -4.9072e-41 8.595766e-06 -1.0307664e-28
-0.15597019 -4.9506e-41 -2.437141e-09 0.011780368 0.13253528 4.9215e-41 1.6890595e-11 4.9397e-41
0.1213653 -4.9331e-41 4.9527e-41 0.46123573 0.24189603 -4.9638e-41 -5.0152e-41 -4.9378e-41
0.10219668 -4.9333e-41 -1.6077666e-07 -0.2299602 -0.19478518 -5.224e-41 4.44514e-05 -1.5086721e-31
0.06419896 -4.9235e-41 7.615437e-10 -0.17631677 -0.07050439 -4.9446e-41 5.775905e-06 4.9505e-41
0.31955686 4.9492e-41 4.9258e-41 0.57510954 0.4300083 -5.0196e-41 -5.0947e-41 4.9404e-41
-0.15044312 -4.9048e-41 2.34966e-13 0.02161506 -0.07757787 4.9272e-41 1.2218563e-07 4.9494e-41
0.21405737 4.9478e-41 4.9083e-41 0.33594373 0.095584005 -4.9839e-41 4.941e-41 -4.9109e-41
0.2585345 4.9124e-41 -4.932e-41 0.23368353 0.23527098 -4.9347e-41 5.2382e-41 -4.929e-41
-0.4004689 -4.9131e-41 -8.444167e-06 -0.42479256 -0.16236478 4.906e-41 5.5896537e-05 -1.1274015e-21
-0.17829704 -4.9446e-41 -2.4219617e-07 -0.23003097 0.15007806 5.7703e-41 7.461908e-05 -1.638083e-39
-0.34905675 -4.9167e-41 -4.3827415e-05 -0.35653067 0.072807714 4.9267e-41 5.7863817e-05 -2.0383751e-28
0.23687983 -4.9181e-41 -1.4494541e-11 -0.084325895 -0.10160176 -4.9083e-41 8.764692e-06 4.9111e-41
0.16760847 -4.9515e-41 -7.537743e-17 0.08422999 0.11914819 4.9413e-41 9.2082764e-15 4.9149e-41
0.13295877 -4.9265e-41 -6.327471e-13 0.06106554 0.14873515 -4.9411e-41 5.0804572e-11 4.905e-41
0.06343241 -4.9289e-41 -2.16108e-06 -0.38012704 -0.12483978 4.936e-41 0.00017072693 -6.122711e-33

se.fc.2.bias f4 [128]
00000000: 56b1 e23d 5c1c 80be e198 953e 2376 553e
00000010: 3897 e7bd e18e 0bbe e3d1 cd3e 3a7b 513e
00000020: b421 8f3e c01c 04bd 3a18 0d3e ef14 c23d
00000030: 6527 dc3d a715 8dbd b9ca 5dbe d529 c6bd
00000040: 9bd2 9b3d 1a1c 45bb 44fa 1b3e 9e15 903d
00000050: 3891 e13d 38ad 473e e7c7 2cbe 3394 383e
00000060: 469c 073e edfb 26be 1a39 103e c13a 833e
00000070: d8c1 8a3e 63cf 0cbe acbf 223e 1306 9a3e
00000080: 8eeb 403e 1cf2 3d3e 8268 203e 94fe 083e
00000090: e588 34bd 0edb 123e eeda 293e 3415 91bd
000000a0: ffdf 003e dc0b f63d 6012 8cbe 04fb 953d
000000b0: 9611 713e 95b0 423e 18b6 1b3e 1756 903e
000000c0: 9dfd 753e 309f 08be 3d8e 773e 1f14 fcbd
000000d0: c267 173b f98d 34be 08f2 103e bf9d 1d3e
000000e0: 8137 4a3e e666 393e 9854 e6bd 3ff1 9a3d
000000f0: 4ba3 11be 4d99 273e 7b89 0080 5e50 063e
00000100: 2381 45be f51e 3f3e 6955 a4bc 4002 90b0
00000110: 8b81 173e cce4 113e 0c12 94bd 38e8 6c3d
00000120: 104a bb3a 7702 9ebd 6328 df3d 1c4b 843e
00000130: 52a2 1b3d 3516 3d3d 6c03 43bd 7593 9b3e
00000140: 6089 0080 8989 0000 256a 6cbb 4118 83bd
00000150: 8056 17be 1c68 0abc fadd 133e cd55 153e
00000160: 677f dc3d a4cc 6abd e0e6 a63b e7fc fa3d
00000170: 992c afbc 61a8 dcbd 52e2 983d bce0 813e
00000180: 30f1 d5bd c74c 29be 9989 3a3e f90b 813d
00000190: b769 8bbe 1c5d 04bc b962 2abe 1de2 06be
000001a0: d9c9 29be 5f84 9ebd 53c0 183e af9e d7bd
000001b0: f1c3 293d a642 34bc ef1c c03d 1cca 103d
000001c0: 87fe 913e 9a6e 61bd 6789 0000 8653 793d
000001d0: f070 8fbc b059 993e 9189 0080 62f6 07be
000001e0: 24ab 4c3e a79d 1d3e 1d52 67bd 09ba 6ebe
000001f0: 4ab0 9d3e cfb4 1b3b f191 3d3e 84d0 7abe
0.110689804 -0.25021636 0.292182 0.20845847 -0.113081396 -0.13628723 0.40199193 0.20457163
0.279554 -0.03225398 0.13778773 0.09476649 0.107497014 -0.068888955 -0.21659364 -0.096759476
0.07608529 -0.0030076564 0.15232188 0.07035373 0.110140264 0.19499671 -0.16873132 0.18025284
0.13243207 -0.1630704 0.14084283 0.25630763 0.27101016 -0.13750987 0.1589343 0.3008276
0.18839857 0.18549389 0.15664867 0.13378364 -0.044075865 0.14341375 0.16587421 -0.07084122
0.12585448 0.12013981 -0.2735777 0.07323268 0.23541865 0.19012673 0.15206182 0.2819068
0.24022527 -0.13341975 0.24175353 -0.12308525 0.0023102616 -0.17632283 0.14154828 0.15392207
0.19747736 0.18105659 -0.11246604 0.07565545 -0.14222448 0.16367073 -4.9319e-41 0.13116595
-0.19287543 0.18664153 -0.020060258 -1.0478018e-09 0.1479551 0.14247435 -0.07230005 0.05783865
0.001428904 -0.07715314 0.10896375 0.25838554 0.037996598 0.046163756 -0.047610685 0.30385938
-4.9281e-41 4.9338e-41 -0.003607401 -0.064011104 -0.14779091 -0.008447673 0.14440146 0.14583512
0.107664876 -0.057324067 0.0050934404 0.122552685 -0.02138357 -0.10774303 0.07465042 0.2536677
-0.104463935 -0.16533194 0.18216552 0.06301112 -0.27229092 -0.00807884 -0.16639222 -0.13172193
-0.16580905 -0.077400915 0.14917116 -0.10528313 0.04144663 -0.011002218 0.09380519 0.035348997
0.285145 -0.05503712 4.929e-41 0.06087067 -0.017509907 0.2995124 -4.935e-41 -0.13277581
0.1998716 0.15392171 -0.056474794 -0.23313154 0.3079856 0.0023758893 0.18512703 -0.24493605

embedding.weight f4 [3, 4]
00000000: 033b 3b3e 4242 6f3f 1e1d 633f b27b 8b3e
00000010: 5b9b 213f fca7 703f 69cd 1d3f 4bcc 263f
00000020: 70c3 8b3d 4a1a b93c 5571 283d 1d1a 133d
0.1828423 0.93460476 0.88716304 0.2724281 0.6312768 0.94006324 0.61641556 0.65155476
0.06824386 0.022595543 0.041123707 0.035913575
